DQN/models/dqn_ep400_20250415_155116.pth (torch, 75580 bytes, 6 tensors)

fc1.weight f4 [128, 8]
0	0xbf7cff7e	-0.9882735
1	0x3e3af618	0.1825794
2	0x3d7b38bd	0.061333407
3	0xbeaa592e	-0.33271164
4	0x3f7b69d3	0.9820835
5	0x3f6462c3	0.892132
6	0x3e9189fb	0.28425583
7	0xbe0328dc	-0.12808555
8	0xbec889a2	-0.39167506
9	0xbcc9a72c	-0.024615847
10	0x3eb2ee94	0.34947646
11	0xbf954f29	-1.1664783
12	0x3e30115c	0.17194122
13	0xbee2babc	-0.44283092
14	0x3f08209b	0.5317475
15	0xbd0b3a80	-0.033991337
16	0x3e5c7df9	0.2153243
17	0x3e7d61cf	0.24744342
18	0x3e712472	0.23549059
19	0xbf0c3861	-0.5477353
20	0x3d153f8a	0.03643755
21	0xbfbab178	-1.4585409
22	0xbf476c55	-0.77899677
23	0x3e26d647	0.16292678
24	0xbdfa8583	-0.122324966
25	0x3f0c454c	0.5479324
26	0xbe46bf82	-0.19408992
27	0xbefdf3a8	-0.49599957
28	0x3fa8b981	1.3181611
29	0xbf88aefb	-1.06784
30	0xbe91a3f6	-0.28445405
31	0xbea15b14	-0.315148
32	0x3d771bae	0.06032913
33	0xbe33899d	-0.17532964
34	0xbdb1a6bc	-0.0867438
35	0xbe8d515b	-0.27601132
36	0x3f7b0560	0.98055077
37	0xbf4e508e	-0.80591667
38	0x3f5edf8c	0.87059855
39	0x3f24b58f	0.64339536
40	0xbf2418b3	-0.6410019
41	0xbfa7d8fb	-1.3113092
42	0xbec3c87c	-0.38238895
43	0xbf947704	-1.1598821
44	0x3e89311b	0.26795277
45	0x3d6566b2	0.05600614
46	0x3d93d329	0.0721801
47	0x3e45c6ab	0.19314067
48	0xbf61f91b	-0.8827073
49	0x3e8b9492	0.27261788
50	0x3ddd7576	0.108134195
51	0x3d9fab27	0.077963166
52	0x3f33b39d	0.70195943
53	0xbf37d8e9	-0.71815354
54	0x3dcaa1f0	0.098941684
55	0xbf017560	-0.50569725
56	0xbf4344db	-0.7627694
57	0xbf527900	-0.8221588
58	0x3f911525	1.1334578
59	0xbf0d44a2	-0.5518285
60	0x3e0c7885	0.1371785
61	0xbe06c26e	-0.13160107
62	0xbf7d2706	-0.9888767
63	0xbe19f62d	-0.15035315
64	0xbf9a0250	-1.2031956
65	0x3f095869	0.5365053
66	0xbfa2d591	-1.2721425
67	0xbf2f6bef	-0.6852407
68	0xbf807b7b	-1.0037683
69	0xbf0e3a52	-0.5555774
70	0xbe08e275	-0.13367637
71	0xbf5ca4ed	-0.86189157
72	0x400590a8	2.086954
73	0x3df54329	0.119757004
74	0xbee9e214	-0.45680296
75	0xbe0b4096	-0.13598856
76	0xbf308fd7	-0.6896948
77	0xbea56f75	-0.32311597
78	0xbe545b02	-0.20737842
79	0x3ecc28bc	0.39874828
80	0x3e941a8f	0.28926513
81	0x3de37b32	0.11107482
82	0xbf0027dd	-0.50060827
83	0xbf4524c8	-0.7700925
84	0x3f8589e5	1.0432707
85	0x3fc41fd5	1.5322214
86	0xbbc3fc98	-0.0059810393
87	0xbf533f18	-0.8251815
88	0x3f0b9b49	0.5453382
89	0x3efc2208	0.49244714
90	0x3fd6154c	1.6725249
91	0x3f961005	1.1723639
92	0x3ec1e621	0.37870887
93	0xbef0f21b	-0.47059712
94	0x3f9990c4	1.1997304
95	0xbdb7b03c	-0.08969161
96	0x3effa2b4	0.4992882
97	0xbf107a42	-0.5643655
98	0x3e82794a	0.2548316
99	0x3ee328bf	0.44367024
100	0xbefd6d42	-0.4949742
101	0xbf6f0152	-0.9336139
102	0xbe0afd74	-0.13573247
103	0xbec62218	-0.38697886
104	0xbec7a360	-0.38991833
105	0xbe53001d	-0.20605512
106	0xbe6c2e43	-0.23064522
107	0x3fa78629	1.3087817
108	0x3f03d28e	0.51493156
109	0x3fb14316	1.3848598
110	0xbccbd09b	-0.024879744
111	0xbd1760c6	-0.036957525
112	0x3f3cb233	0.7370941
113	0xbe3a2789	-0.18179144
114	0xbda84d57	-0.082178764
115	0xbe941fc8	-0.28930497
116	0x3f586172	0.8452369
117	0xbf2c8ca1	-0.6740208
118	0x3f2e7fc8	0.6816373
119	0x3f03c6c9	0.514752
120	0x3ee22c88	0.441746
121	0xbf89a456	-1.0753276
122	0x3f908356	1.129008
123	0xbfc42207	-1.5322884
124	0xbeeb3a28	-0.45942807
125	0xbfab5daa	-1.3387959
126	0xbe2b4e09	-0.16728987
127	0x3f4ad658	0.7923331
128	0x3fcb8166	1.5898864
129	0xbdd46620	-0.10371041
130	0x3fa4f056	1.2885845
131	0x3ec42a90	0.38313723
132	0xbfc761f8	-1.5576773
133	0x3dd9df02	0.106382385
134	0xbde692b5	-0.11258451
135	0x3b846558	0.0040404014
136	0x3fe832e4	1.814053
137	0x3b4cb0e6	0.003123337
138	0x3f511230	0.81668377
139	0xbe0073af	-0.1254413
140	0x3d8898c9	0.066697665
141	0x3c13e47c	0.009026643
142	0xbe1a625e	-0.15076587
143	0x3f9270cb	1.1440672
144	0x3fb3c252	1.4043677
145	0xbfd00181	-1.6250459
146	0xbd96ebcc	-0.073691934
147	0xbfe6ec50	-1.8040867
148	0x3f3d1b73	0.7387001
149	0x3ef1a8e2	0.4719916
150	0x3ec4be9b	0.3842667
151	0x3e2f41ae	0.17114899
152	0xbee6b823	-0.4506236
153	0xbeb74582	-0.35795218
154	0xbe92f35b	-0.2870129
155	0xbf47b153	-0.7800495
156	0x3f5016d4	0.8128483
157	0x3fc00e77	1.5004414
158	0x3e8e02ab	0.2773641
159	0x3f0657c8	0.52477694
160	0xbec64063	-0.38720998
161	0x3e894ba1	0.26815513
162	0xbf655875	-0.895881
163	0xbe624e70	-0.22100234
164	0xbfc79939	-1.5593635
165	0xbf646c6a	-0.89227927
166	0xbf8c3555	-1.0953776
167	0x3f2beca3	0.67157954
168	0x3f1f8a01	0.6231995
169	0x3d0affce	0.03393536
170	0xbe2c4c5f	-0.16826008
171	0x3e9402c9	0.28908375
172	0x3f98b597	1.1930417
173	0xbf90d520	-1.131504
174	0xbea98e97	-0.331166
175	0xbd0673d2	-0.0328253
176	0x3d92237f	0.071356766
177	0x3eb601a6	0.35548133
178	0x3dcdcf2b	0.1004928
179	0x3e23e042	0.16003516
180	0xc00b470d	-2.1762116
181	0xbf2b5083	-0.66919726
182	0x3f20fd8f	0.628869
183	0xbe2f8eb3	-0.17144279
184	0xbf2c76a6	-0.67368543
185	0xbf69dcd4	-0.9135258
186	0xbe4e047f	-0.20118903
187	0xbf7d11a0	-0.9885502
188	0x3e9505c1	0.29105952
189	0xbfb053fa	-1.3775628
190	0x3f0d992e	0.5531186
191	0x3e88ff67	0.26757357
192	0x3edbb6ea	0.4291299
193	0xbf15dffa	-0.58544886
194	0x3dc9d0fa	0.09854312
195	0xbf78336f	-0.9695348
196	0x3f247d0f	0.64253324
197	0xbdbdcca6	-0.09267549
198	0x3dfbc600	0.12293625
199	0x3e276f62	0.16351083
200	0xbdd0ce45	-0.10195593
201	0xbea69ba5	-0.32540622
202	0xbd5b7646	-0.05357959
203	0xbecf23c0	-0.40456963
204	0xbf47c864	-0.78040147
205	0x3eac9880	0.33710098
206	0xbd93eff3	-0.07223501
207	0xbe8031cb	-0.2503799
208	0xc0365b5e	-2.8493266
209	0xbf7aa318	-0.9790511
210	0xbf5ca759	-0.8619285
211	0xbeef4245	-0.46730247
212	0x3e8ae2fc	0.271263
213	0xbd632987	-0.055459525
214	0x3e3b8572	0.18312624
215	0x3ce2db4d	0.027692461
216	0x3ec5e626	0.38652152
217	0xbeb7f72c	-0.35930765
218	0x3cc146d4	0.023593344
219	0x3e8a3c22	0.26999003
220	0x3f6fd33a	0.9368168
221	0xbf8b25d0	-1.0870914
222	0xbf01b6d5	-0.50669605
223	0x3f170c8f	0.5900354
224	0xbeb163be	-0.3464641
225	0xbe135579	-0.14388074
226	0x3cd5a73a	0.026080716
227	0xbf7231e5	-0.94607383
228	0x3eb0165b	0.34392056
229	0xbf366da9	-0.7126108
230	0x3edc306b	0.4300569
231	0x3e7fb49a	0.24971238
232	0xbf724872	-0.9464179
233	0xbf0c700e	-0.5485848
234	0xbf93d8cc	-1.1550536
235	0xbe7e065e	-0.24807116
236	0xbf19e2de	-0.60111797
237	0xbf4863dd	-0.7827738
238	0xbfbccbdc	-1.4749713
239	0x3f01a590	0.50643253
240	0xbf876c76	-1.0579975
241	0xbf04ec04	-0.5192263
242	0xbdeae463	-0.114693426
243	0xbf4fbc78	-0.81146955
244	0x3e49b14a	0.19696537
245	0x3f6a9032	0.91626275
246	0x3e659322	0.22419408
247	0xbf8b463d	-1.088081
248	0xb92f06bc	-0.0001669181
249	0xbd962042	-0.073303714
250	0x3f00d23b	0.50320786
251	0xbf1124a7	-0.5669655
252	0xbf8e714d	-1.1128327
253	0xbfc8204a	-1.5634854
254	0xbf93f750	-1.1559849
255	0xbf860bb6	-1.0472324

fc1.bias f4 [128]
0	0xbf1c7137	-0.6111025
1	0x3e5bed5b	0.21477263
2	0x3f333e50	0.70016956
3	0xbf894f44	-1.0727315
4	0x3e8137d5	0.2523791
5	0x3e3d86af	0.18508409
6	0x3f0d38b7	0.55164665
7	0x3e59fdb2	0.21288183
8	0x3e149c8d	0.14512844
9	0x3da05f7c	0.07830712
10	0xbf5d7587	-0.8650746
11	0x3ea3d0ee	0.31995338
12	0x3f047e71	0.51755434
13	0xbf198149	-0.599629
14	0x3e6b0f88	0.22955143
15	0xbe20266c	-0.15639657
16	0xbdd17752	-0.10227837
17	0xbcb41467	-0.021982385
18	0xbded7f19	-0.115965076
19	0xbea907f8	-0.33013892
20	0xbed1d418	-0.40982127
21	0x3e3a8f9e	0.18218848
22	0x3f5e0819	0.86731106
23	0x3ecace0d	0.3961033
24	0x3e3fd202	0.18732455
25	0x3f2a75ed	0.6658619
26	0xbe3c307b	-0.18377869
27	0x3ecefab9	0.4042566
28	0x3eb7254c	0.35770643
29	0x3e74c9df	0.23905133
30	0xbe9675a9	-0.29386643
31	0xbf39da96	-0.7259916
32	0xbe801197	-0.2501342
33	0xbdaf6c62	-0.08565594
34	0x3ce2a1c3	0.027665025
35	0xbd65686f	-0.0560078
36	0xbcb9e5a0	-0.022692502
37	0xbefd2eab	-0.49449667
38	0xbe91760c	-0.28410375
39	0x3e701aab	0.23447673
40	0x3c10cdf6	0.008838167
41	0xbe9f6339	-0.31130388
42	0xbe9b6c79	-0.30356196
43	0x3f0fa6df	0.56114
44	0xbf658704	-0.8965914
45	0xbdafc71c	-0.08582899
46	0xbd430e65	-0.04762115
47	0xbd998998	-0.07496947
48	0xbe8f8b31	-0.28035882
49	0xbebdefc6	-0.37096995
50	0xbe0c1fc1	-0.13683988
51	0xbe60fb9a	-0.21970978
52	0x3ed5c030	0.4174819
53	0xbe989c12	-0.29806572
54	0xbd94e32b	-0.07269891
55	0x3e7d6922	0.24747136
56	0x3e4e403d	0.20141692
57	0x3ec55cc4	0.38547337
58	0xbf05f352	-0.523244
59	0x3f13bbb9	0.5770832
60	0x3e48962a	0.19588533
61	0xbddf53bd	-0.10904644
62	0xbf091450	-0.5354662
63	0xbeedc92f	-0.46442553
64	0x3f31c6eb	0.6944415
65	0x3f1efbfa	0.62103236
66	0xbf0be022	-0.54638875
67	0x3df233e3	0.11826303
68	0x3ea92b57	0.33040878
69	0x3ee32e2b	0.4437116
70	0xbea9f510	-0.3319478
71	0xbe21f05d	-0.15814348
72	0xbf6b9d3c	-0.92036796
73	0x3f1df511	0.61702067
74	0x3e5520fe	0.20813367
75	0x3c6c9c31	0.014441536
76	0x3f802665	1.0011717
77	0x3f0e3ce0	0.5556164
78	0xbf3282c3	-0.69730777
79	0xbd21fdb0	-0.039548576
80	0xbe945f12	-0.28978783
81	0x3ebc85f5	0.3682095
82	0x3e5354eb	0.20637862
83	0xbea78788	-0.3272059
84	0xbe8537d9	-0.2601917
85	0x3e4c7720	0.19967318
86	0x3e35b401	0.17744447
87	0x3e97f408	0.2967837
88	0x3f177235	0.5915864
89	0x3db79bc0	0.08965254
90	0xbf4f7a59	-0.8104606
91	0x3ec85b85	0.39132324
92	0x3e7f8956	0.24954733
93	0xbce94ae0	-0.028478086
94	0x3f0d4360	0.5518093
95	0xbf52e9ee	-0.823882
96	0x3f0bb0de	0.5456675
97	0x3ec0edf5	0.37681547
98	0x3ed10f67	0.40832064
99	0x3f23a48a	0.6392294
100	0x3eed5170	0.46351194
101	0x3eda23ee	0.42605537
102	0xbdd7b498	-0.105324924
103	0x3ebdddcc	0.3708328
104	0x3e3c0855	0.18362553
105	0x3d484fb2	0.04890413
106	0x3f15fa7a	0.5858532
107	0xbddbacce	-0.10726319
108	0xbe8486d3	-0.25884113
109	0x3e9b25b0	0.3030219
110	0x3e492331	0.1964233
111	0x3f189c62	0.5961362
112	0x3d333406	0.043750785
113	0x3f209de8	0.62740946
114	0x3efc3eb3	0.49266586
115	0xbd4c224b	-0.04983739
116	0xbe7a6bf4	-0.24455243
117	0x3e821dc7	0.25413343
118	0xbe7c2512	-0.24623516
119	0xbf2288cb	-0.6348998
120	0xbf52dd02	-0.8236848
121	0x3e5796ac	0.2105357
122	0xbed21a7a	-0.41035825
123	0x3ee86eee	0.45397133
124	0xbf7d473d	-0.98936826
125	0xbe2ef11b	-0.17084162
126	0x3e488d03	0.19585042
127	0x3eb3687c	0.35040653

fc2.weight f4 [128, 128]
0	0xbcc8606f	-0.024460046
1	0xbc5237cc	-0.012830686
2	0xbd59b917	-0.05315503
3	0xbceaf965	-0.028683374
4	0xbd9593fa	-0.07303615
5	0xbd3bcf60	-0.045852065
6	0xbd31e617	-0.04343232
7	0xbd4f8414	-0.05066307
8	0x3d911615	0.0708429
9	0xbc1ec91e	-0.009691505
10	0xbd4fc824	-0.05072798
11	0x3d1cf24d	0.038317014
12	0x3d459441	0.04823709
13	0x3d57cc9e	0.052685373
14	0xbd428678	-0.04749152
15	0x3b95e198	0.004574012
16	0xbd18b809	-0.037284885
17	0x3c046101	0.008079768
18	0x3da1393e	0.07872246
19	0x3b107f3b	0.0022048492
20	0xbd3064ac	-0.04306476
21	0x3ad7126e	0.0016408691
22	0xbdeb5c1c	-0.11492178
23	0xbcad7bbb	-0.021177163
24	0xbd8b4612	-0.06800474
25	0xbc7dfb3f	-0.015501796
26	0xbcd32414	-0.02577404
27	0xbd698a6c	-0.057016775
28	0xbe07d4ac	-0.13264722
29	0xbdfce7d0	-0.12348902
30	0x3b84755d	0.004042311
31	0x3c351877	0.011053196
32	0x3d4433b7	0.04790088
33	0xbcf4d743	-0.029887801
34	0xbde923bd	-0.1138377
35	0x3d83b6ed	0.06431375
36	0x3d0ba751	0.034095112
37	0x3d8de494	0.069283634
38	0x3d72b15d	0.059251178
39	0x3ccfeae5	0.025380561
40	0xbe1765c1	-0.1478491
41	0xbcc79838	-0.024364576
42	0x3d8afbfb	0.06786343
43	0xbe0a9d8a	-0.13536659
44	0xbda3b9c9	-0.0799442
45	0xbd72d88c	-0.059288546
46	0x3d659a54	0.056055382
47	0x39537894	0.00020167447
48	0x3cf97b71	0.03045437
49	0x3b718683	0.0036853857
50	0xbd04e934	-0.032448962
51	0x3d780892	0.06055505
52	0xbdb30544	-0.08741239
53	0x3be97b61	0.0071253036
54	0x3cbfb6b7	0.023402555
55	0x3c874871	0.016514035
56	0xbdabd82d	-0.08390842
57	0xbdf8cd54	-0.12148538
58	0xbce86ee3	-0.028373187
59	0xbca93269	-0.02065392
60	0x3d7489bf	0.059701677
61	0xbc5661e3	-0.013084861
62	0x3d566dfa	0.052350976
63	0x3d2b2b98	0.04178962
64	0xbd2ef48b	-0.042713683
65	0x3c11abc4	0.00889105
66	0xbdac0982	-0.08400251
67	0xbda28d73	-0.079371355
68	0x3d17648f	0.036961135
69	0x3d8d6673	0.06904306
70	0xbb2e0e67	-0.0026558877
71	0xbd32a305	-0.0436125
72	0xbdc0de8a	-0.09417446
73	0xbd482e3b	-0.048872214
74	0xbd6df6ff	-0.058096882
75	0x3b42e828	0.0029740427
76	0xbd2b602b	-0.04183976
77	0x3c30e912	0.010797756
78	0xbda5ecee	-0.081018314
79	0xbdc3086e	-0.09523092
80	0xbd2c3327	-0.04204097
81	0xbd511a73	-0.051050615
82	0xba0e3905	-0.00054253667
83	0xbdd634d0	-0.10459292
84	0xbba43b11	-0.005011924
85	0xbcf2ee43	-0.029654628
86	0x3a412936	0.00073685066
87	0xbd9c7a20	-0.07640481
88	0xbd91bf51	-0.07116569
89	0x3cc7320c	0.024315856
90	0xbc7ae8e0	-0.015314311
91	0x3d644134	0.055726245
92	0x3d27e7e0	0.040992618
93	0xbdab2afc	-0.08357808
94	0xbe01d5ac	-0.12679166
95	0xbdc048cf	-0.09388887
96	0xbd9db91c	-0.077013224
97	0xbd67a379	-0.056552384
98	0x3cda1443	0.02662099
99	0x3cafc444	0.021455891
100	0x3cb6c158	0.02230899
101	0xbd258963	-0.040414225
102	0x3d5b483e	0.053535692
103	0xbd79a18f	-0.06094509
104	0xbd5d6d28	-0.054059178
105	0x3ae50df8	0.0017475476
106	0x3d12c329	0.03583065
107	0x3d275a27	0.04085746
108	0x3d432e85	0.047651786
109	0xbd56654f	-0.05234271
110	0xbc877efc	-0.016540043
111	0x3d2d0524	0.04224123
112	0x3cf6f09f	0.030144034
113	0x3c9c5ad2	0.019086275
114	0xbc8bde7a	-0.017073859
115	0x3d5d061e	0.053960912
116	0xbdca5425	-0.098793305
117	0xbddfef22	-0.10934283
118	0x3d5f1562	0.05446375
119	0xbd252dfc	-0.040327057
120	0xbcbece79	-0.023291813
121	0xbe0c5893	-0.13705663
122	0xbaa706fe	-0.0012743173
123	0xbdad2ee8	-0.08456212
124	0xbd1a37dd	-0.03765093
125	0x3d553c28	0.052059323
126	0xbda16e70	-0.078823924
127	0x3c8a940a	0.016916294
128	0x3f152f67	0.58275455
129	0x3ee355b0	0.44401312
130	0xbf01b473	-0.5066597
131	0x3f0c49d4	0.5480015
132	0x3e92b6ee	0.2865519
133	0xbeeef41e	-0.46670622
134	0xbe86b3e0	-0.2630911
135	0x3ed123ce	0.4084763
136	0x3ea46986	0.32111758
137	0x3d021b99	0.0317646
138	0xbc81e47d	-0.015856022
139	0xbf920a71	-1.1409436
140	0xbeb9e211	-0.36305287
141	0x3ed5c974	0.4175526
142	0x3e32702c	0.17425603
143	0x3f2b4c04	0.66912866
144	0x3f26965f	0.650732
145	0x3e261506	0.16218957
146	0x3f02569d	0.5091341
147	0x3e074da6	0.13213214
148	0x3f21f6d6	0.63267267
149	0x3efe570c	0.49675786
150	0xbe8c8e42	-0.27452284
151	0xbf0605a0	-0.52352333
152	0xbd9996ef	-0.074994914
153	0x3da53219	0.08066196
154	0x3f68c4f0	0.909255
155	0x3ee0ba78	0.43892264
156	0x3e9f7290	0.31142092
157	0xbec2b515	-0.3802878
158	0xbee838a9	-0.45355728
159	0x3ebdcb7d	0.37069312
160	0x3c312cd5	0.010813911
161	0xbe40c203	-0.1882401
162	0xbe9ec09d	-0.31006327
163	0xbf238c8a	-0.6388632
164	0x3ec9c441	0.39407542
165	0x3dfdc053	0.123901986
166	0xbf03723b	-0.51346177
167	0xbc3eea9d	-0.011652616
168	0xbf4ac997	-0.7921385
169	0xbfa7a19b	-1.3096193
170	0x3e701dcc	0.23448867
171	0x3dc7ff4a	0.097654894
172	0xbbfd4fd8	-0.0077304654
173	0x3b263660	0.0025362
174	0x3e28d9af	0.1648929
175	0x3f0f83ad	0.56060296
176	0x3f52806b	0.822272
177	0x3dce3e53	0.10070481
178	0xbd0696eb	-0.03285877
179	0x3f9410c9	1.1567622
180	0x3aa8f39d	0.0012889985
181	0xbed1388b	-0.4086345
182	0xbeaa43f9	-0.33254984
183	0xbe32a55d	-0.17445894
184	0x3e90908d	0.28235283
185	0x3f99a3a4	1.2003064
186	0x3e7ddf79	0.2479228
187	0x3e1a41df	0.1506419
188	0x3ea9434c	0.33059156
189	0x3eb71453	0.35757694
190	0x3f666c23	0.90008754
191	0xbfcc14e8	-1.594388
192	0xbf430b04	-0.76188684
193	0xbc439761	-0.011937947
194	0x3ec883c5	0.39163032
195	0x3e91e062	0.28491503
196	0x3ec57b79	0.38570765
197	0xbd437295	-0.047716696
198	0x3e5890f3	0.21149044
199	0x3f1ab524	0.6043265
200	0xbe6a30d2	-0.22870186
201	0xbe37f359	-0.17963924
202	0xbbbe9c4b	-0.0058169714
203	0xbe3705ae	-0.1787326
204	0xbf403dc5	-0.7509425
205	0x3cbac715	0.022800008
206	0x3d17c5f3	0.037054013
207	0xbe31b5ab	-0.17354457
208	0x3eea156e	0.45719475
209	0xbe799bcf	-0.24375843
210	0x3ce1787d	0.027523274
211	0x3e2f9de9	0.17150082
212	0x3d9e643f	0.07733964
213	0x3e6294fc	0.22127146
214	0x3f299fc5	0.66259414
215	0x3d846f78	0.064665735
216	0x3ea2ef96	0.31823415
217	0x3e8b6e27	0.27232477
218	0xbfd734ac	-1.6812949
219	0x3ceb01fc	0.02868747
220	0x3e38c0c0	0.18042278
221	0x3f50efdb	0.8161599
222	0xbe5aac11	-0.213547
223	0x3f3cd39d	0.73760396
224	0xbece9dcd	-0.40354767
225	0xbf2e148a	-0.6800009
226	0xbd0c8366	-0.034305
227	0xbf368a14	-0.7130444
228	0xbef51bf6	-0.47872895
229	0xbf474dd3	-0.77853125
230	0x3eaa1187	0.33216497
231	0x3e6803ff	0.22657774
232	0xbb06fb55	-0.0020596583
233	0xbf0328c9	-0.5123411
234	0xbf43ae9f	-0.76438326
235	0x3ea0866d	0.3135256
236	0x3fca5645	1.5807577
237	0xbd3ce117	-0.0461131
238	0x3f371fef	0.715331
239	0x3d85c01c	0.065307826
240	0x3ef6cc41	0.48202708
241	0xbf13a1f9	-0.57669026
242	0x3e799b57	0.24375664
243	0xbd25f1d2	-0.04051382
244	0x3eb6ab08	0.3567736
245	0xbe570fe6	-0.21002159
246	0x3f4f45f7	0.8096613
247	0x3fdd4737	1.7287358
248	0x3f92f51a	1.1481049
249	0xbf07a4e9	-0.5298601
250	0x3e69be44	0.22826487
251	0x3dd20301	0.10254479
252	0xbf34a1ac	-0.7055919
253	0x3f8352b0	1.0259609
254	0x3edc8fba	0.43078405
255	0xbecb347d	-0.39688483

fc2.bias f4 [128]
0	0xbdc5c7f1	-0.096572764
1	0xbe7a3572	-0.2443445
2	0x3d4e263e	0.05032944
3	0xbe79efcc	-0.24407881
4	0xbe24a46a	-0.16078344
5	0xbccfcc6f	-0.025366036
6	0x3d4453cc	0.047931477
7	0x3e23cfab	0.15997188
8	0x3f1d6770	0.6148596
9	0xbea761e7	-0.3269188
10	0xbd633d60	-0.055478454
11	0x3bc0b226	0.005880612
12	0x3f07c34c	0.53032374
13	0x3d62a2af	0.05533093
14	0x3c12030b	0.008911858
15	0xbdc8f196	-0.09811704
16	0xbdfc5258	-0.12320393
17	0x3f361759	0.71129376
18	0x3eb8c64a	0.36088783
19	0xbec9f6ab	-0.39446005
20	0xbd99cd34	-0.075098425
21	0xbd51326a	-0.05107347
22	0xbcc3043a	-0.023805726
23	0x3b42367d	0.0029634528
24	0xbdc033d3	-0.09384885
25	0xbd1637b2	-0.03667421
26	0xbf263b36	-0.649341
27	0xbc4003b9	-0.011719638
28	0x3ec00346	0.37502497
29	0xbe2831e9	-0.16425289
30	0xbd3e4a02	-0.046457298
31	0xbdf5123b	-0.11966368
32	0xbd1d1279	-0.038347695
33	0xbd024b46	-0.031810068
34	0x3e716a57	0.23575722
35	0xbdecd584	-0.115641624
36	0x3eaab431	0.333406
37	0x3cc89198	0.024483487
38	0xbcdd7ff4	-0.027038552
39	0x3d1ec5d3	0.03876288
40	0xbde0a499	-0.109688945
41	0xbc808d87	-0.015692485
42	0xbcd62119	-0.026138829
43	0xbcb1c1e3	-0.021698898
44	0xbe85ed90	-0.26157808
45	0x3c237e10	0.009978786
46	0x3f655911	0.8958903
47	0x3ce2fd2c	0.027708612
48	0xbdc28bc6	-0.09499316
49	0xbe88fb93	-0.26754436
50	0xbda5788d	-0.08079634
51	0x3ccd5d3e	0.025068875
52	0xbdb00f22	-0.08596636
53	0xbb5c9aa4	-0.003366151
54	0xbd2e491b	-0.042550188
55	0xbda1fd95	-0.07909695
56	0xbe8af59c	-0.2714051
57	0xbd27427a	-0.04083488
58	0x3e1854f0	0.14876151
59	0xbddc3d61	-0.107538946
60	0xbdadf551	-0.08494056
61	0xbd1f5cdf	-0.03890693
62	0x3ea8a51c	0.32938468
63	0xbe559a12	-0.20859554
64	0xbe870b81	-0.26375964
65	0x3d7d5b84	0.061854854
66	0xbe72697a	-0.23673049
67	0x3caa75ed	0.020808185
68	0xbdd85b63	-0.10564306
69	0xbdd895c9	-0.10575444
70	0xbdf54fee	-0.11978136
71	0xbeaf88e3	-0.34284124
72	0xbdaae15f	-0.083437674
73	0xbddbbc03	-0.1072922
74	0xbda3d18e	-0.07998954
75	0xbd76235f	-0.060092326
76	0x3d121a94	0.035669878
77	0xbf147ed4	-0.58006024
78	0x3d1d2238	0.03836271
79	0xbd8b592c	-0.068041176
80	0x3ccea812	0.025226627
81	0x3e9ae31c	0.30251396
82	0x3c5f3803	0.013624194
83	0xbe39b2d1	-0.1813462
84	0x3e1772e1	0.14789917
85	0xbe34f5b2	-0.1767185
86	0xbd8eb67a	-0.069683984
87	0xbdbec722	-0.09315325
88	0xbc6d8995	-0.014498134
89	0xbd900db5	-0.070338644
90	0xbf696be5	-0.9118026
91	0xbe9ce992	-0.3064695
92	0x3eae7940	0.3407688
93	0x3e442380	0.19154167
94	0xbdc3cdf6	-0.09560768
95	0xbe1c6367	-0.15272294
96	0x3df94e28	0.1217311
97	0x3ecddf60	0.40209484
98	0xbf13f093	-0.5778896
99	0xbd8376d5	-0.0641915
100	0xbe2679e9	-0.16257443
101	0xbdb89987	-0.09013658
102	0x3f520cb9	0.82050663
103	0x3f1a4465	0.6026061
104	0xbcf15790	-0.029460698
105	0xbdeaa2d4	-0.11456838
106	0xbd7cec8f	-0.061749037
107	0xbe320869	-0.1738602
108	0xbe1446ca	-0.14480129
109	0xbdb0e7f7	-0.08637994
110	0x3bc19e86	0.00590879
111	0xbe618479	-0.2202319
112	0xbd4c69c9	-0.049905572
113	0xbe2fd913	-0.17172651
114	0xbc4e6d95	-0.012599369
115	0xbe545d8d	-0.20738812
116	0x3e341f16	0.17589983
117	0xbdc30f4b	-0.09524401
118	0xbe12f53e	-0.14351365
119	0xbd5fb52f	-0.05461615
120	0xbf5976a8	-0.8494668
121	0xbdcd5b4c	-0.10027179
122	0x3ef231d4	0.4730364
123	0xbdfa37eb	-0.12217697
124	0x3eaa0bce	0.3321213
125	0x3eb35f9c	0.35033882
126	0xbd95c4a1	-0.073128946
127	0xbf00e895	-0.5035489

out.weight f4 [4, 128]
0	0x3dee9c78	0.11650938
1	0xbee52c0e	-0.44760174
2	0x39b658b0	0.00034779822
3	0xbf051697	-0.51987594
4	0xbf876066	-1.0576293
5	0x3d32e190	0.043672144
6	0x3d1b8558	0.037968963
7	0xbd4e7866	-0.05040779
8	0x3f3aa7dc	0.72912383
9	0xbf157a4e	-0.5838975
10	0x3d9ce6c3	0.07661202
11	0x3d165786	0.036704563
12	0x3cd74557	0.026278181
13	0xbf35aa82	-0.709633
14	0xbdafc4aa	-0.085824326
15	0xbd9b6735	-0.075880446
16	0x3dfaaec5	0.12240366
17	0x3ff5e247	1.9209679
18	0x3e1d72fe	0.15375897
19	0xbf2449ed	-0.641753
20	0xbd010aed	-0.03150456
21	0x3d799599	0.060933683
22	0xbf34e928	-0.7066827
23	0x3caa4494	0.020784654
24	0xbf16b215	-0.5886548
25	0xbc215f1b	-0.009849335
26	0xbf58583f	-0.8450965
27	0x3d43d9f4	0.04781528
28	0x3f47879a	0.77941287
29	0xbf2d09fd	-0.67593366
30	0x3d0f94c8	0.035054
31	0x3d7bd48e	0.061482005
32	0x3d0e31cd	0.034715462
33	0xbef508ff	-0.47858426
34	0x3d5ee0ba	0.054413535
35	0x3c57a4f2	0.013161885
36	0x3ddf7f45	0.109129466
37	0xbdaa5dbd	-0.083186604
38	0xbecd2c0f	-0.40072677
39	0xbdafba73	-0.08580484
40	0x3d681058	0.05665621
41	0xbd37845d	-0.044803966
42	0x3d86d7e9	0.0658415
43	0xbeb6bf7c	-0.35692966
44	0xbf6449f4	-0.89175344
45	0x3d1297ff	0.035789486
46	0x40007d05	2.0076306
47	0xbf47d6c1	-0.78062063
48	0xbcb8d4fb	-0.022562495
49	0xbf518850	-0.8184862
50	0x3920aa0e	0.0001532214
51	0x3d6b59a5	0.05745854
52	0xbee6869d	-0.45024577
53	0xbe497aeb	-0.19675796
54	0xbda0842f	-0.07837712
55	0x3cb4a161	0.022049608
56	0xbf4eed33	-0.8083069
57	0xbd2a3780	-0.041556835
58	0x3d7745e6	0.060369395
59	0x3d50b97b	0.050958138
60	0xbef7e708	-0.4841845
61	0xbeb86055	-0.36010996
62	0xc008d0ba	-2.1377397
63	0xbe182b97	-0.14860378
64	0xbf0a9f89	-0.5414968
65	0x3e5f183b	0.21786587
66	0xbf5e5640	-0.8685036
67	0x3d147fca	0.03625468
68	0xbf8546a4	-1.0412183
69	0x3d8b706d	0.06808553
70	0x3cae48d5	0.021274963
71	0x3ee90256	0.45509595
72	0x3d258c3f	0.040416952
73	0x3c495914	0.012289304
74	0xbeac03d1	-0.33596662
75	0x3ca2c0e8	0.019867375
76	0x3e713e28	0.23558867
77	0xbfaa3164	-1.3296323
78	0xbed32aa9	-0.41243485
79	0xbeea31d1	-0.45741132
80	0x40095827	2.1460054
81	0x3fdae7bf	1.7101973
82	0xbd51ad89	-0.051190887
83	0xbf0e8eb6	-0.5568651
84	0xbffd6037	-1.9794987
85	0xbebc8ae8	-0.36824727
86	0xbd3830ea	-0.044968523
87	0xbe35ec6f	-0.17765974
88	0xbe8e54dd	-0.2779912
89	0xbf6c6c77	-0.92353004
90	0xbf4973dd	-0.7869242
91	0xbf3260b0	-0.69678783
92	0x4020420a	2.5040307
93	0x3f59db88	0.85100603
94	0x3d00b66d	0.031423975
95	0xbd1a62b6	-0.037691794
96	0xbec4bd1b	-0.38425526
97	0x3f5cbbca	0.86224043
98	0xbfb980d2	-1.4492438
99	0xbef4793f	-0.47748753
100	0xbf2e60d8	-0.6811652
101	0xbea8fe63	-0.33006582
102	0x40181178	2.3760662
103	0x3ff873d4	1.9410348
104	0xbd3f354d	-0.04668169
105	0x3d78e2c0	0.06076312
106	0xbce453f0	-0.027872056
107	0xbe542055	-0.20715459
108	0xbf008529	-0.50203186
109	0xbecd6c5d	-0.40121737
110	0x3cb5669e	0.022143658
111	0xbf41e8b2	-0.7574569
112	0xbff857e6	-1.9401824
113	0xbeabb7b4	-0.33538592
114	0xbca4773c	-0.020076387
115	0xbf07c498	-0.53034353
116	0x3fb28d29	1.3949329
117	0xbca95b26	-0.020673346
118	0x3fbf9d21	1.4969827
119	0x3d08f633	0.03343792
120	0x3e20b5ec	0.15694398
121	0xbccd7dc8	-0.025084391
122	0xbfa26901	-1.2688295
123	0x3d93ca7b	0.072163545
124	0x3ff47c9a	1.9100525
125	0x401ac43a	2.4182267
126	0xbc335663	-0.010945889
127	0xbfa5c89c	-1.2951846
128	0x3c93ae4d	0.018027449
129	0xbf2291a8	-0.63503504
130	0x3cf6dfe1	0.03013605
131	0xbf0d943e	-0.55304325
132	0xbf5a7c42	-0.8534585
133	0x3c669774	0.014074195
134	0xbc43877a	-0.011934156
135	0xbf70db60	-0.9408474
136	0x3f65fee6	0.8984207
137	0xbf3487e5	-0.7051986
138	0x3d3a1201	0.045427326
139	0xbc87bb9a	-0.016568948
140	0xbf79e21d	-0.97610646
141	0xbe933231	-0.2874923
142	0xbee94683	-0.4556161
143	0x3ce4e1f8	0.027939782
144	0xba2ee551	-0.0006671744
145	0x40151cea	2.3298898
146	0x3de922fd	0.113836266
147	0xbf3ff268	-0.7497926
148	0x3bddf9b1	0.0067741503
149	0xbd6282e8	-0.055300623
150	0xbe8f552c	-0.27994668
151	0x3cf742da	0.030183244
152	0xbee9faf0	-0.45699263
153	0x3f1e4de4	0.618376
154	0xbda79728	-0.08183128
155	0x3afc22a1	0.0019236394
156	0x3dba6758	0.091017425
157	0xbec01a73	-0.3752018
158	0x3dab3d81	0.0836134
159	0xbdb9072a	-0.090345696
160	0xbd9d3e7d	-0.07677934
161	0xbee3c76b	-0.4448808
162	0xbb88ff75	-0.0041808435
163	0xbd3a68d1	-0.045510117
164	0x3db1f91b	0.08690091
165	0x3c89fd36	0.016844373
166	0xbe9ed808	-0.31024194
167	0x3ce16b8c	0.027517103
168	0xbf9dd9ce	-1.2332094
169	0x3d1df4f7	0.038563695
170	0x3c60ba54	0.013716299
171	0xbe8174ca	-0.25284415
172	0xbf1072ac	-0.56424975
173	0xbd12e323	-0.035861146
174	0x40032a0f	2.049442
175	0xbe9ff349	-0.312403
176	0xbf4daffe	-0.8034667
177	0xbf09c62b	-0.53818005
178	0x3d0e0977	0.034676995
179	0x3bdec8ab	0.006798824
180	0xbf22e216	-0.6362623
181	0xbead9a3a	-0.33906728
182	0x3c92ca94	0.017918862
183	0xbd8f198b	-0.06987294
184	0xbf32cd77	-0.69844764
185	0xbd4ac86e	-0.04950755
186	0xbf3eef90	-0.74584293
187	0xbbe469b0	-0.0069706067
188	0xbe24aa5c	-0.16080612
189	0xbe70eb6a	-0.23527303
190	0xc00405b9	-2.0628493
191	0xbeefc8f6	-0.4683301
192	0xbf3a7d4f	-0.72847456
193	0x3f592e56	0.8483633
194	0xbe83e683	-0.25761804
195	0xbc57fd34	-0.013182927
196	0xbefae947	-0.490061
197	0xbd814c94	-0.06313434
198	0xbcfa5056	-0.030555885
199	0x3faef1b6	1.3667514
200	0xbcbc3fa8	-0.022979572
201	0x3db3fca1	0.087884195
202	0xbef460b7	-0.47730038
203	0x3d8a2e89	0.06747157
204	0xbf2d58b0	-0.6771345
205	0xbec33a6d	-0.38130513
206	0xbf6a2f28	-0.91478205
207	0xbe92cb96	-0.2867095
208	0x400425cb	2.0648067
209	0x3fda4831	1.7053281
210	0xbdb832d8	-0.08994073
211	0xbf33218b	-0.6997306
212	0xbf25e624	-0.6480429
213	0xbf19b052	-0.6003467
214	0x3dee4e25	0.11635999
215	0xbec9d037	-0.39416668
216	0xbf20882c	-0.6270778
217	0xbef0e093	-0.47046337
218	0xbed84eb2	-0.4224754
219	0xbf3b3fd8	-0.7314429
220	0x401af318	2.4210873
221	0x3e885ae2	0.26631838
222	0xbd484cab	-0.04890124
223	0xbd05b2a9	-0.032641087
224	0xbe95b948	-0.2924292
225	0x3f2326c3	0.6373102
226	0x3d880103	0.06640818
227	0xbf18c0f6	-0.59669435
228	0xbedf57b4	-0.436216
229	0xbf29cfd1	-0.6633273
230	0x40042024	2.0644617
231	0x3ffcef88	1.9760599
232	0x3da28f82	0.07937528
233	0x3d91a619	0.07111759
234	0x3bf9b81c	0.0076208245
235	0xbf0f3a8a	-0.559487
236	0xbf131ec9	-0.5746885
237	0xbf06e9c1	-0.5270043
238	0xbc3e2612	-0.011605756
239	0xbeb36260	-0.35035992
240	0xbfefd3cf	-1.8736514
241	0xbe8557a9	-0.26043442
242	0x3ccdae82	0.025107626
243	0xbf1ce931	-0.6129332
244	0x3fc8be0e	1.5683
245	0x3d600655	0.05469354
246	0x3fbac67a	1.459182
247	0xbceff27a	-0.029290427
248	0xbfd47fa1	-1.6601449
249	0xbc7508fb	-0.014955754
250	0xbf796078	-0.97412825
251	0x3c6cc6af	0.014451667
252	0x401037d9	2.2534087
253	0x400d3c54	2.2068071
254	0x3d93c812	0.07215895
255	0xbfac4cf7	-1.3460988

out.bias f4 [4]
0	0x3ee29015	0.4425055
1	0xbd4db5aa	-0.050222076
2	0x3ecfb018	0.40564036
3	0x3e9893c2	0.2980023
