DQN/models/dqn_ep200_20250415_151601.pth (torch, 75580 bytes, 6 tensors)

fc1.weight f4 [128, 8]
00000000: c3b1 e1be 9eec bfbd 6011 c0be a390 1d3e
00000010: 8ccc f1be 8f94 8ebf 9ca7 81bb 07a4 4a3f
00000020: e965 fabe b39a 523e 25e5 8c3e d22d 60bd
00000030: a3a7 e9bd c73e b13f 6294 0fbe ead3 a23e
00000040: 84ee dfbe 25e7 ae3d bfc9 24be 9f70 d7bd
00000050: e0e1 9c3f e9bd b03f 0994 f23e a964 debe
00000060: c451 8dbf f02e 633e 98c2 50bf d1fa 153d
00000070: a35e 96bf 6b8c 96be 0dc9 82be b6cc a1bf
00000080: 11cb c03e 4ea3 c43f a995 02c0 5cbe cfbe
00000090: a5d2 c3be 9932 a9be 5be4 aebe 8dc6 3cbe
000000a0: c218 86be 7b59 febd 9773 00bf d67c c9bd
000000b0: 71cb 7e3f d397 81bf 3be2 05c0 4b1f 833e
000000c0: 2971 9d3f 85db 36be 676f 48bf 27da 90be
000000d0: f097 043f 7b5b 27be d697 c43e d5af 87be
000000e0: 62ba debf ec80 893f e7f2 f1be ff06 acbd
000000f0: aab5 b93e 0f10 cd3d 1988 e8bf 56f7 123d
00000100: c116 1f3f 249f fdbf 7765 a13e 5587 9c3e
00000110: b779 9ebd da03 a4be fcf0 c53e 6bb2 f7be
00000120: 7bc7 62bf e1c5 8b3e ae0a 3bbf 2964 fe3d
00000130: 2bc4 3f3f bbfd 83bf 7939 bbbf 35e9 cd3e
00000140: 8357 353e 54a6 62be 7ba1 0bbd 4723 2a3e
00000150: 868b 60be ac5d fe3d 7a2c 4dbe 2e66 9bbd
00000160: ac87 873e 60d8 d8bf 5310 57bf ae39 f73f
00000170: fc06 44bf 5242 93bf 5623 383f a9f1 bf3e
00000180: 6058 1d3f 459c aabe 476c 613f a7f6 62be
00000190: 584d 453e a7a9 fabf d665 f7be 2d65 7dbf
000001a0: 84b1 563f 941b 5dbe 7c7e ed3e 35df 6f3d
000001b0: 9a77 3bbf 3cdd e5bf 993d d33e 2b04 ca3e
000001c0: b72c 6ebf a840 b2be 10e3 803f bf32 a93e
000001d0: 040e 953e 6ef3 993f d76c 353e 2009 003f
000001e0: 822e 20bd b509 94be 4c35 2bbe 389f d8be
000001f0: 3f87 683e 9aaa 093e c538 ffbe 1420 343c
00000200: c86b 8d3f 7282 c13e 5d5d ac3e 52d6 1bbd
00000210: e103 a5bf 0a31 85be 8837 623e e9d4 f93e
00000220: 55e0 f5bf 65b6 753f 08ee 313b 7498 48be
00000230: 7c6a c0bd fd26 8d3d d815 ffbf a5ff ddbe
00000240: 6831 f8bc 9003 4abe bbd6 70be c2f5 bbbe
00000250: 73b0 1a3f 36f1 783f 4a1d b13d 714c d7be
00000260: 3720 543e ceac 97be 2c3a 5abe a5bd aa3c
00000270: 4dad 8abe 96c4 2d3f a900 643e d103 97be
00000280: 1c5c 3f40 45a3 d33e 30fd e33d 9b4e b13e
00000290: 7ccc 8ebe 6d25 0ebe f31a 7cbe f281 30be
000002a0: 6212 48be c402 cebf 8fec 63be cf80 c6bf
000002b0: 9dc1 ae3c 7e66 f5bb bfb8 cf3c 9b64 ce3e
000002c0: 6026 273f ca0b c83e 032f dabe 23ed 1b3f
000002d0: adaa 9c3f c583 dfbc f865 5cbf 1c06 273e
000002e0: 2a7a afbe a6fa afbf 68e7 583d 80e0 ef3e
000002f0: cfa9 443e 7d44 95be ed72 b53e aeba f23e
00000300: 8b5b 4a3f 5581 a4be 99b5 a6bf 543d 8fbd
00000310: c351 833f 25b3 13be d3ed dbbd 0cb7 8cbe
00000320: 52a7 123f a089 0a3c 5525 503e ba80 00be
00000330: e814 8b3e 7f9e 8fbf 3023 0cbd 00c1 a4be
00000340: 0c8b acbf 77fb bb3f b561 853b 42fd 383d
00000350: 4333 893d 8654 173d 2bbd aebf 472e f9bd
00000360: 90d4 80bb 61ef 873d 3866 3e3e 15c7 3bbf
00000370: 7aec 763f f716 d0bf ce92 1dbf 87bb f13e
00000380: 009c d5bd cb54 123e 2fd6 6ebe 91a9 59bf
00000390: f2a3 0a3e f767 66bc 8da7 61bf cf70 523e
000003a0: 314a 59bf 729d 0d3f d682 a93e 6e85 12be
000003b0: 7a41 0bbf e36f d43e f456 20bf 4db4 04bf
000003c0: 5d23 8a3f ba63 833f 25ff 673f 5e4c 9d3f
000003d0: 1f1c 41be 0771 c03c 8498 debb 4d63 4a3e
000003e0: 13ea 713f f00f a63e 846a a7be da6f 04bf
000003f0: 54e4 c0be aaae 5d3e 970d c7be 28e4 623f
-0.44080934 -0.09371303 -0.37513256 0.15387206 -0.4722637 -1.1139086 -0.003956748 0.79156536
-0.48905876 0.20566826 0.27518573 -0.054731198 -0.11408927 1.3847283 -0.14021447 0.31802303
-0.4373666 0.08540181 -0.16092585 -0.10519528 1.2256432 1.3807956 0.47378567 -0.43436173
-1.1040578 0.22185874 -0.81546926 0.03661615 -1.1747631 -0.29404005 -0.25544015 -1.2640598
0.37654927 1.5362337 -2.0403845 -0.4057492 -0.38246647 -0.33046415 -0.34158596 -0.18435116
-0.26190764 -0.12419411 -0.50176376 -0.09838264 0.99529177 -1.0124458 -2.091933 0.25609812
1.2300159 -0.17857178 -0.78294986 -0.28291437 0.5179434 -0.16343491 0.38397092 -0.26501337
-1.740063 1.0742469 -0.47255632 -0.08399772 0.3627141 0.100128286 -1.8166534 0.03588041
0.62144095 -1.9814191 0.31522724 0.30572 -0.07738059 -0.32034189 0.3866042 -0.4837831
-0.88585633 0.27299407 -0.7306317 0.12421448 0.74908704 -1.0311807 -1.4626914 0.40216985
0.17709164 -0.22133762 -0.034089547 0.1661502 -0.21928224 0.1242021 -0.20036498 -0.075878486
0.26470697 -1.6941032 -0.84009284 1.9314477 -0.7657316 -1.1504614 0.7192892 0.3748906
0.61462975 -0.3332235 0.88055843 -0.22164403 0.19267786 -1.9583024 -0.48319882 -0.98982507
0.8386462 -0.21592551 0.46385562 0.058562476 -0.7322937 -1.795814 0.41257933 0.39456305
-0.9303698 -0.34814954 1.0069294 0.3304653 0.29112256 1.2027414 0.177173 0.50013924
-0.039106853 -0.28913656 -0.1671955 -0.42308974 0.22707842 0.13443986 -0.49848 0.010993976
1.1048517 0.37794834 0.3366498 -0.03804619 -1.2891809 -0.26013976 0.22091496 0.4879525
-1.9209086 0.95981437 0.0027149934 -0.19589406 -0.0939531 0.06892202 -1.9928541 -0.43359104
-0.030296996 -0.19727921 -0.23519413 -0.36710936 0.6042549 0.9724306 0.086481646 -0.42050508
0.20715414 -0.29624027 -0.21311253 0.020842383 -0.27085343 0.6787809 0.22265877 -0.294951
2.989997 0.41335502 0.11132276 0.34630284 -0.27890384 -0.13881464 -0.24619655 -0.1723707
-0.19538262 -1.6094594 -0.22258209 -1.5508059 0.021332556 -0.0074890247 0.025356648 0.4031113
0.6529293 0.39071494 -0.42613992 0.60908717 1.2239586 -0.027284512 -0.8609309 0.16310924
-0.3427289 -1.3748367 0.05295506 0.46850967 0.19205402 -0.29153815 0.35439244 0.4740805
0.79045933 -0.32129923 -1.3024169 -0.06994119 1.0259327 -0.14423807 -0.10738721 -0.27483404
0.5728656 0.008455664 0.20326741 -0.12549105 0.27164388 -1.1220244 -0.034213245 -0.32178497
-1.3479934 1.4686116 0.0040704855 0.0451634 0.066992305 0.036945842 -1.365148 -0.1216703
-0.0039315894 0.06637455 0.18593681 -0.7335065 0.96454585 -1.6257008 -0.6155213 0.47213385
-0.10430145 0.14290158 -0.23323892 -0.8502436 0.13539103 -0.014062873 -0.8814629 0.20550846
-0.8487883 0.5531837 0.33107632 -0.14308712 -0.54396784 0.41491613 -0.6263268 -0.5183762
1.0792042 1.0264809 0.90623695 1.228893 -0.18858384 0.023491396 -0.0067930836 0.19764443
0.94497794 0.32434034 -0.32698452 -0.5173317 -0.376742 0.2164866 -0.38877556 0.8862939

fc1.bias f4 [128]
00000000: 4135 f43d 3af1 86be e59a cfbe d7e2 8fbe
00000010: a440 213e 31d0 f5be 94f1 0f3e 678e 4fbd
00000020: 3a8f 3d3f 0e6e bfbe 7afd c6be e476 e6bd
00000030: 9ad2 3fbe 9f38 b1be 2b81 0f3f fb82 243f
00000040: 1f94 39bf 3a30 b53e 3752 d93e 7662 ec3e
00000050: 7eea b43d 04c4 33be 5bba 193f 5951 983f
00000060: 15c2 173f b23b a73e d6b6 283e dfc4 2ebf
00000070: 1634 943e 1370 403f 2fa3 3f3f 322e e7bd
00000080: 8a76 cbbe 133e 2ebf ed50 263e e562 023e
00000090: 55b8 e7bd 8415 193f ddf5 4f3e d71d 403f
000000a0: 5489 15bf 1f71 693e 2efb b13e 2030 78bd
000000b0: 5ea8 17bf ff80 d73d 13e0 27bf 8da7 00bf
000000c0: 26fe 353f 9d06 e03c fbaf 883e 05b2 8a3e
000000d0: 38a0 31bf 5b2c 6d3e 0411 133e 3bb2 7cbe
000000e0: f846 883d 8490 2cbf 5d1c 023f 0726 60bf
000000f0: 273c f53e 504c 9f3e 1613 9b3e 577c f8be
00000100: b8ee 1dbf 36f3 473f ee58 23bd 34f0 b43e
00000110: bfc2 2d3f e75e 39bf 99fc 2c3d 8400 963e
00000120: 708a 063f b86c d8bd 6a22 97be 0e3d d23d
00000130: 1fdf 8abd f71d f93e 617e abbe ffad 0b3f
00000140: 47c8 a6be 6516 083f 0a2c 7c3e 12e7 f3bc
00000150: b285 dcbd 09c4 023f 1174 9fbe bc5f 4dbe
00000160: 108b 18bc 52bb 393e 67ea 91be 6cad b73e
00000170: 21ae 183f 1c3e f03e 504a 6a3e 58c9 253f
00000180: 8dda 853e 5105 b03c daac cc3b a7cb bf3e
00000190: 5b21 ee3e e3c5 00bf c6cf c0bd cccd 043e
000001a0: e14a 4fbf 1df0 533e 8df0 163f 55ef b93e
000001b0: 2a0f 263f 7e22 f4bd 291f 083e be47 99bd
000001c0: 25f5 203e 270b 0cbf 80fa 6f3e a110 b83e
000001d0: 9696 c3be 2a45 1a3d 5a74 a8be 7ee5 e3bd
000001e0: 733b 013f 3d7f c9bc 4ea6 2c3e 8068 ce3e
000001f0: 14e3 d8be 5b82 32bf 9cf1 8f3e 3e7a 9bbe
0.1192422 -0.26355916 -0.40547863 -0.28102753 0.15747315 -0.480104 0.14056998 -0.050672915
0.7404667 -0.37388653 -0.38865262 -0.11253145 -0.18732682 -0.3461351 0.5605647 0.6426236
-0.7249164 0.35388356 0.42445537 0.4616887 0.08833788 -0.17555243 0.6004998 1.1899825
0.5928052 0.3266273 0.16475996 -0.6826915 0.28945988 0.7517101 0.74858373 -0.11288108
-0.39738876 -0.6806347 0.16241808 0.12733038 -0.113144554 0.59798455 0.20308633 0.7504553
-0.5841267 0.22797059 0.34761947 -0.06059277 -0.5924128 0.10522651 -0.65576285 -0.5025566
0.71090925 0.027346903 0.26696762 0.27088943 -0.693851 0.23161452 0.1436196 -0.24677365
0.06654161 -0.67408013 0.5082453 -0.87558025 0.47897455 0.3111291 0.30288 -0.48532364
-0.6169238 0.78105485 -0.03987973 0.3533951 0.67875284 -0.72410434 0.042233083 0.29297268
0.5255499 -0.105676115 -0.29518443 0.102655515 -0.06780838 0.48655674 -0.33494857 0.5456237
-0.32574674 0.5315917 0.24626175 -0.029773269 -0.10767688 0.51080376 -0.3114324 -0.20056051
-0.009310499 0.18137863 -0.28499147 0.35874498 0.596407 0.46922386 0.2287991 0.6476035
0.26143304 0.02148691 0.0062461914 0.37460062 0.46509823 -0.5030195 -0.0941463 0.1296913
-0.8097363 0.20697065 0.589608 0.36315408 0.6486689 -0.11920641 0.13293137 -0.07484387
0.15718515 -0.5470452 0.23435402 0.35950187 -0.38200825 0.037663616 -0.3290127 -0.111277565
0.5048134 -0.024596805 0.16860315 0.40314102 -0.42360747 -0.69730157 0.2811402 -0.303667

fc2.weight f4 [128, 128]
00000000: 78ba 99be 318a 9c3e 915d c03e 380e b0be
00000010: cc77 1b3e 0550 5cbc 4e73 7fbe 7597 8b3e
00000020: 7cf2 84bf 1f53 10be 213b 47bd eeb7 ccbf
00000030: 4197 783e 8e50 5b3e a3c0 20bf 9923 05bd
00000040: e930 273f 88d5 8b3e 7516 cabc 6a09 0ebe
00000050: ba61 913e 0f3c a33e da0a 6fbd c15d efbd
00000060: 6a8b a2bd 818f 3c3f 8f01 023f 8404 053f
00000070: 7c2b e13e ab32 863e 6885 b63e 3eac fbbd
00000080: 2072 10bd 34d3 253f 8010 d6bd b518 eabe
00000090: 3854 eabe 3261 84bd 02f2 a43e 60e0 dd3d
000000a0: 48a9 993e b2a3 d83e acd1 f73d 8a5f 9b3e
000000b0: 0d61 2d3f 5d35 88bf f981 553f 2a98 15bf
000000c0: 8c54 e3bb 4795 633d 809b c63a d11c d9be
000000d0: fb2a e43e 1782 dbbf 3245 cfbe c993 283e
000000e0: d407 413e cc66 ecbe e3be 603e 1763 de3e
000000f0: 257d cfbc 1638 7ebe 4468 8a3e 4d3b 0ebf
00000100: 4512 513f 5626 ec3e 4a50 a5be 45c7 c5bd
00000110: 43ad bc3e 2c50 f03d 6f47 0abe 6508 aebc
00000120: fa3d 06be 63f3 ce3e 107d f43e 5038 853d
00000130: 8368 f0bc 208c 0d3d fe67 3d3e 75e9 da3e
00000140: c036 383f e8e9 143f 28d1 3dbb 3a4b 133f
00000150: 1923 d03d 62d4 2a3e d8e8 b6be f23d f73c
00000160: ec2a 763e 9530 e63e 8ab8 b23e b24f ddbd
00000170: a06a 6abe 9be2 9cbd efd6 a03e 58be bd3d
00000180: e38b 6fbe bdf2 223e fd4a 303e 172e 81be
00000190: 26ed 63bd 4378 943d 923e e0bd 59bc 6f3f
000001a0: 0aa0 32bf 9672 73bd 103f 9e3c 6118 8e3e
000001b0: c8e5 b33e 6647 f43e bb92 bd3f 4a50 213e
000001c0: 80ef 753d b542 57bf 60c2 17bd f1bc fbbe
000001d0: 0f99 a93e b0c5 bbbe 71d3 81bd 7b84 283f
000001e0: fdf3 1d3e 3878 e93f 5a13 cfbd 9dbe 6f3f
000001f0: d0fa 3bbf 8b7a 873f 7a38 833e 8494 cd3e
00000200: 6642 98bd e16a 97bd 98ad c9bc e4b7 d73b
00000210: 562f cfbd ba01 65bd ff21 80bd bdc5 adbd
00000220: b331 063d 836a 04bb 1c01 8cbd 40aa 80bd
00000230: 86b5 4abd 18ee d0bd 20b5 92bd c713 d3bc
00000240: 3746 813c f932 86bd 0609 9abc 8595 803c
00000250: ad1c be3b b838 0abc 2f02 483d f4a3 66bd
00000260: ac28 78bc 38fb 433d 3ef1 483d 7e26 d3bd
00000270: a40a b0bd 0cff 293c d543 b2bd 1cad 3cbd
00000280: f948 afbd e51b c1bc e782 cdbd ed38 1bbd
00000290: 43a3 9dbd b0a9 ebbc fce0 bdbd bd95 373d
000002a0: e172 68bd 29ac 65bd f4f5 50bd f593 f9bc
000002b0: 7378 92ba 4d6c 323c 5115 b7bd 53d0 0ebd
000002c0: 9dfd 453d 7728 8e3c 12af e23c 9ce9 a4bd
000002d0: ca9f 8d3d fa45 873c 4a37 c53c a77a 833d
000002e0: 2fee 813d 790a f43b 58e5 e03c 02c2 9abc
000002f0: 60c8 95ba 60e0 383b a4b2 c8bd 29f9 a53b
00000300: 2861 2f3c 9a87 c43b e5c7 143d 40ed a63d
00000310: 93ea 1fbd eac0 25bd fe65 c4bc 0f9f babd
00000320: 1bbc 803d 883b 30ba f750 b13c fdfb 08bd
00000330: 7b38 ac3b ebd8 893c 9720 b4bc efe4 5d3d
00000340: f50e b3bc fe71 5f3d 9d7c 68bd 08b4 633d
00000350: 83eb 87bb 68e5 5ebd 897b e53c 4d73 34bc
00000360: a27a bdbb ce45 93bc 171c c3bc 0486 b5bd
00000370: aef5 8ebd 515d 5fbd 5d70 923c e462 8a3c
00000380: b855 5abd 8354 40bd b892 71bd 62c6 f5bc
00000390: 4e78 78bc d5b6 62bd 7184 2f3d e389 c9bd
000003a0: cdaa 613d 7005 93bd e08c 10bd 0a56 bf3c
000003b0: c319 16bd 0e5e 753d b6a4 8ebd 4afa 8bbd
000003c0: c59c 59bc cc07 80bd c044 56bc ae96 81ba
000003d0: 7546 38bd 0b3a 0c3c 0734 fabc 7963 a9bd
000003e0: 8cf2 843c a073 fabc e402 7c3d 3794 c83c
000003f0: 9bab a23d af18 433d 96a0 b6bd d4ec b1bd
-0.30025077 0.30574182 0.37571386 -0.34385848 0.15182418 -0.0134468125 -0.24946329 0.2726399
-1.03865 -0.14094208 -0.048640374 -1.5993631 0.24276449 0.21417448 -0.6279394 -0.03250465
0.65309006 0.2731135 -0.024668911 -0.13870779 0.28394872 0.3188176 -0.05835996 -0.11687804
-0.07936747 0.7365647 0.5078363 0.51960015 0.43978488 0.26210532 0.35648656 -0.12288712
-0.035265088 0.64775395 -0.10452366 -0.45721975 -0.4576738 -0.06463851 0.32215887 0.10833812
0.30011964 0.4231239 0.121005386 0.30346328 0.6772621 -1.0641285 0.8340145 -0.5843531
-0.006937569 0.055562284 0.0015152544 -0.42404798 0.44564041 -1.7149075 -0.4048248 0.16462626
0.18850642 -0.46172178 0.21947818 0.43434975 -0.025328228 -0.24826083 0.27032673 -0.55559236
0.816685 0.46122998 -0.32287818 -0.09657148 0.36850938 0.117340416 -0.13503812 -0.021244237
-0.1310958 0.40420064 0.47751665 0.065048814 -0.02934671 0.03455746 0.18496701 0.4275624
0.7195854 0.5816941 -0.0028963778 0.5753666 0.10162944 0.1668258 -0.3572452 0.030180905
0.24039811 0.4495894 0.34906417 -0.10806216 -0.22892237 -0.07660409 0.3141398 0.09264821
-0.23393206 0.1591291 0.17216106 -0.25230476 -0.055646084 0.072495006 -0.10949434 0.9364677
-0.6977545 -0.05943545 0.01931718 0.27752975 0.35136247 0.47710723 1.4810404 0.15753284
0.060042858 -0.8408616 -0.037050605 -0.49167588 0.33124587 -0.3667426 -0.063391574 0.6582715
0.15425105 1.8239813 -0.10111113 0.9365023 -0.73429585 1.0584272 0.25629026 0.4015237
-0.074345395 -0.073934324 -0.024618909 0.006583201 -0.101164505 -0.05590985 -0.06256484 -0.08484981
0.03276224 -0.0020205087 -0.06836149 -0.062824726 -0.04948952 -0.10201663 -0.07163453 -0.025766267
0.015780551 -0.06552691 -0.01880313 0.015696296 0.0058017583 -0.008436374 0.048830207 -0.0563087
-0.015146416 0.047847003 0.04905819 -0.10310076 -0.085957795 0.010375749 -0.08704344 -0.046063527
-0.0855884 -0.023572871 -0.10034733 -0.037896086 -0.07697155 -0.028767437 -0.09271428 0.044820536
-0.056750182 -0.056072388 -0.05101581 -0.03046606 -0.0011174813 0.010890079 -0.08939613 -0.034866642
0.048337568 0.01735328 0.02767137 -0.0805237 0.06915243 0.01651286 0.024074215 0.064198785
0.06344258 0.0074475375 0.02745311 -0.018891338 -0.0011427514 0.002820991 -0.09799698 0.0050651026
0.010704316 0.0059976103 0.036323447 0.081507206 -0.039042067 -0.04046718 -0.023974415 -0.09112369
0.06285878 -0.0006722738 0.021645052 -0.03344344 0.0052557564 0.016827067 -0.021988196 0.054173406
-0.021857718 0.05455207 -0.056759465 0.055591613 -0.004147948 -0.054417998 0.028013008 -0.011013818
-0.0057824412 -0.017977621 -0.023817105 -0.08863452 -0.069804534 -0.054532353 0.017875845 0.016892858
-0.053304404 -0.046955597 -0.058977813 -0.030001823 -0.015165402 -0.055350143 0.042850915 -0.09840753
0.05509453 -0.071787715 -0.0352906 0.023356456 -0.036645662 0.05990415 -0.0696501 -0.06834848
-0.013282006 -0.06251487 -0.013077915 -0.0009886825 -0.044989068 0.00855876 -0.030542387 -0.08270926
0.016228937 -0.030572712 0.061526194 0.024484737 0.079428874 0.047630962 -0.08917348 -0.086877495

fc2.bias f4 [128]
00000000: 3cc0 2ebe 3847 a03c 6588 7c3b 262d 06bc
00000010: c439 4bbc 30e8 5e3d cd83 1cbd dffb 7e3e
00000020: d4a5 933d 922d eebd 4934 13be c468 9cbd
00000030: 737f bbbd 4590 c2bd a2fb 113d 474d 423d
00000040: 7cd7 b7bd 626d 703d 1a3e 43bd 5422 2bbc
00000050: d04f 7fbd 975c 843e 340a cdbc 4b3d 03bc
00000060: 08f3 96bc 13c7 cdbd e0f8 663d e11a 0fbd
00000070: 58ed bf3e 967e 0f3e bf9f 093d 1844 3b3d
00000080: d3b1 433f e408 07be 2d02 bdbd 8c53 e1bd
00000090: 6fc5 72bd e496 debd 8045 06be ac9c d9bd
000000a0: 0d0a 8a3d f575 a9bd 79ac a8bd 156d 8e3d
000000b0: 8e4d 5a3d 9f28 083e 0441 63bd c20d bc3e
000000c0: 69f5 b5bd ddea 143f b187 ccbb 2410 aebd
000000d0: ffbf 223d a60b 1abe 3b17 393b 93fe a63d
000000e0: 7e8a 04bd 5b33 4a3f c612 acbd 2483 613f
000000f0: 7a2d 14bc 8123 463e cfd6 9a3d edde 85bc
00000100: 8aba dfbd 2d95 85bd bb67 4c3c f75e 0b3d
00000110: 33bc c1bd b4e5 d6bd f2ce 24bc e2d7 34bd
00000120: d3d9 0dbe 61c9 7dbe fdee 1b3f e7c4 6c3e
00000130: 1c6f 25bc 077f 62bd 3dac b9bd 67f8 0dbe
00000140: e305 c9bd 8c30 41bd 9241 cabd c0bc 11bd
00000150: b928 963b cc2f 9e3c 2b1e dbbc 92d5 0fbd
00000160: ae88 afbd cc75 8f3c 6b70 e6bd 9ad1 e73e
00000170: 0bbf babd 9123 8cbd 6939 84bc 6776 3cbd
00000180: 0412 09bd d6a0 463f 7833 aebd dc45 86bd
00000190: 2121 efbd 1ba7 44bd c44d a0bd 381c f7bd
000001a0: 20af eabd d1e6 06bd 5f22 01be c502 77bd
000001b0: cce4 cebd 8481 92bd 6b4e 473e f098 afbd
000001c0: 18db 393e 57c8 9dbd e1a1 46bd 70ab b63e
000001d0: f127 723e 516a 06be 96b3 2ebe bdaa adbd
000001e0: fe1b c83b 491a cd3c 7466 f4bd e5d2 18be
000001f0: a0dd f03e 121e ac3d 931c 6b3f 3013 a63e
-0.17065519 0.01956521 0.0038533446 -0.008189475 -0.012403909 0.05442065 -0.038211633 0.24900769
0.072093636 -0.116297856 -0.14375414 -0.0763717 -0.091551684 -0.095001735 0.035640366 0.04743698
-0.08976647 0.058698066 -0.047666647 -0.010445196 -0.062331975 0.2585189 -0.02502928 -0.008010219
-0.018426433 -0.10047736 0.05638969 -0.034937743 0.37485766 0.14013132 0.03359961 0.045719236
0.76443213 -0.13186985 -0.092289306 -0.110022634 -0.05927032 -0.10868624 -0.1311245 -0.10625586
0.06740198 -0.08274452 -0.082360215 0.069543995 0.05329662 0.13296746 -0.055481926 0.36729246
-0.08884699 0.5817087 -0.0062417616 -0.08499172 0.039733883 -0.15043506 0.0028242606 0.08154025
-0.03235864 0.7898461 -0.08402018 0.8809073 -0.009044046 0.19349481 0.07560503 -0.01634165
-0.109242514 -0.06522594 0.012475903 0.034026112 -0.09459724 -0.10493031 -0.010059105 -0.044151194
-0.13852625 -0.24783851 0.6091154 0.23121987 -0.010097291 -0.055296924 -0.09066055 -0.13864289
-0.09815576 -0.04716544 -0.09875788 -0.035580397 0.0045824912 0.0193099 -0.026747784 -0.035115786
-0.085709915 0.017512225 -0.11251911 0.452771 -0.0911847 -0.06842721 -0.016140657 -0.046011355
-0.033464447 0.77589166 -0.08505911 -0.06556293 -0.11676241 -0.048010927 -0.078273326 -0.12065929
-0.11459184 -0.032934967 -0.12610768 -0.060305376 -0.10102233 -0.071536094 0.19463508 -0.085740924
0.18149984 -0.077042274 -0.048494224 0.3567767 0.23648049 -0.13126494 -0.17060694 -0.08479831
0.0061068526 0.025036948 -0.11933604 -0.149242 0.47044086 0.08404173 0.91840476 0.32436514

out.weight f4 [4, 128]
00000000: a814 493e 1c80 7d3d 4ff2 35bf 9826 43bf
00000010: f97b c03c 40d7 17bf 880c c2be 4e34 e3bf
00000020: b9ae 8dbf e478 863d f543 cabe 62b5 f8bc
00000030: bcf9 80bf cb82 78bc 9170 723c daae 38bd
00000040: f46e fabe 8ea7 05bf e895 12bf 13cc 20bf
00000050: 3756 bfbd 50c4 bd3d 5f56 44bd bec5 41bf
00000060: cb5e 09bf 4955 1fbf 1db9 0ebf 9114 a8bc
00000070: 4853 6338 df60 61bf 3fa3 0fbf ddad 8dbd
00000080: d603 a93f 52e2 7abd 790a 9cbe 9ba8 9bbc
00000090: 29c1 7abe a028 f1be 0c39 f6be cbad 12bf
000000a0: 858e 35bb 9cce 223d a630 04bf 0698 22bf
000000b0: e13f 0dbf fe63 ecbe 7d9d 07bf b25d d13f
000000c0: 51dd 48bf 1fb6 bb3f 41d0 15bf 8751 6e3c
000000d0: f900 23bf 9ea4 b63f e053 4f3d 1075 1ebf
000000e0: 34ca 013d b64c a43f e33b 34bf abd5 df3f
000000f0: 1a53 0cbc 04dc 6bbf 97a1 1bbf 41d7 2cbf
00000100: 7c6e d1be 5945 443d af0e 74bc 5c9b 21bf
00000110: 7d69 22bf 7785 663c 9448 e1be 2497 023d
00000120: bf79 8dbd 82a3 023f 7ed3 2440 39d9 61bf
00000130: 1e84 09bd 3383 a43d 743c a33d 89f7 1abf
00000140: 6e88 4abd ede6 1dbf 8f66 0cbf 2ce2 0bbf
00000150: 9a19 f13c 14f7 b43d 6467 dfbc 5eac 233c
00000160: 435c 21bf 00d5 53bd 4405 013f 575b 7c3f
00000170: b697 43bf 8122 7d3d c655 bfbe de28 27bf
00000180: bb88 12bf 4752 953f 4ef1 09bf 9676 73bf
00000190: 9974 06bf 89dc bd3d 6252 25bf 6a96 0ebf
000001a0: 432c 1fbf 5586 3a3d 8d6a 24bf 7ac5 9dbf
000001b0: 77b4 b2bb 513a 963d 926c 3cbf 1a98 e83f
000001c0: dd92 86bf 96d9 55bd c3d9 e43c 144e 933f
000001d0: a73c 1040 415c 90bc be84 d1be d659 923f
000001e0: 569a bc3c 849c 21bf e0ec dabe f270 1ebf
000001f0: 429d 523f e770 09bf 5f18 3a40 9cd4 2a3f
00000200: caf4 47bf bc4a 823d 30dd 0dbf 0df2 3dbf
00000210: 804e 9d3d eb8b 18bf 9223 c2be 5b32 26c0
00000220: 4797 083f a633 68bd ef8e 3b3e 6461 593c
00000230: 0fef 82bf 5aa0 47bd 2b92 783c 83c2 033d
00000240: 9cfb d4be 1b31 4abf 6a43 3bbf 50c1 34bf
00000250: caab 8ebc 2ecd c63e cf4f 27bd e592 42bf
00000260: 027e 32bf 888c 82bd 61ac eabe d8a9 a03d
00000270: 6d90 ef3f 7385 96bf 80d3 d7be df24 6b3d
00000280: 3cc5 1540 4332 5a3c 4f49 25bf 891d 2ebb
00000290: 9115 02bd cae3 81be 7232 c3bd c8fc 0bbf
000002a0: 7f43 853d a552 d8bb 580c b4be f460 39bf
000002b0: e13d d8be 59fa 87bf 5aab f1be 8850 c43f
000002c0: f0cd fcbe bf77 1540 e473 50bf 8c2f f1bc
000002d0: 8b12 2abf 98b7 ba3f 28fc 40bc 2b5e 7bbf
000002e0: 2a99 633b 2a25 493c 4bde 30bf fcc7 0940
000002f0: 4cf6 ca3c 63f4 64bf ef6c 96bd 66bc 0dbf
00000300: 0d9c 0cbf 42ca 8c3d c889 2bbd c430 d7be
00000310: 327a 03bf 2537 483c e136 20bf 6b72 6b3d
00000320: ed27 4f3d c0ee 0b40 6e85 8d3f b711 cd3f
00000330: dbff 203d f5e3 64bd e416 373c ae97 86bf
00000340: a25e a6bc c71e 5ebf 75d9 08bf ec15 76bf
00000350: 89bd 553d 6994 22bc 1450 38ba 06ca 443d
00000360: c550 abbe a2dd 89bd d11e e3be 167c 1c40
00000370: dcb2 06bf 44ab 3abd e35f 12bf 9c23 21bf
00000380: 34b2 0dbf ba23 0840 e5bf 74bf cca4 a9be
00000390: d34f fabe ae2f 2cbf fc43 0bbf 9d5d e7be
000003a0: a0a1 ffbe 5271 85bd 5dd8 04bf 2190 67bf
000003b0: a4a4 0dbe b6ab 1cbd 4d6b 213e 6780 c93f
000003c0: e762 c93e 41d1 30bd 9534 c43c 57c2 b4be
000003d0: 8176 8a3f 353d 9e3d efe9 2abf 8317 8bbf
000003e0: e2b6 4bbd 963e 16bf f77a b2be eeed febe
000003f0: 29e3 ae3f a2c7 42bf 133a 1b40 b0e0 1b3e
0.19636786 0.061889753 -0.7107286 -0.76230764 0.023496615 -0.5931282 -0.37900186 -1.7750337
-1.1068946 0.06566027 -0.39504972 -0.030359928 -1.0076213 -0.015167902 0.014797346 -0.045088626
-0.48912776 -0.52208793 -0.5725999 -0.6281139 -0.09342616 0.09265959 -0.047933932 -0.75692356
-0.5366027 -0.6223951 -0.5575121 -0.02051762 5.419858e-05 -0.8803844 -0.5610847 -0.069179274
1.3204296 -0.061250992 -0.3047674 -0.019001296 -0.24487747 -0.47101307 -0.48090398 -0.5729644
-0.0027703356 0.03974782 -0.5163673 -0.6351322 -0.55175596 -0.46170038 -0.52974683 1.6356719
-0.784627 1.4664954 -0.58520895 0.014545805 -0.6367336 1.4268987 0.0506171 -0.61897373
0.031686977 1.283591 -0.7040388 1.7487081 -0.008564735 -0.9213259 -0.6079344 -0.6751595
-0.40904605 0.047917698 -0.014896079 -0.63127685 -0.6344221 0.014069906 -0.44000685 0.03188242
-0.06907987 0.51030743 2.5754085 -0.8822208 -0.033573262 0.08032837 0.07970515 -0.6053396
-0.049446516 -0.6168049 -0.5484399 -0.54641986 0.029431153 0.08836189 -0.02727098 0.009989826
-0.63031405 -0.051716805 0.5039866 0.98576874 -0.7640337 0.061800484 -0.37370127 -0.65296733
-0.57239884 1.1665734 -0.53883827 -0.9510282 -0.52521664 0.09270579 -0.6457883 -0.55698264
-0.62176913 0.045538265 -0.64225084 -1.232589 -0.005453642 0.07335342 -0.73603165 1.8171418
-1.0513569 -0.05220946 0.027935868 1.1508203 2.253702 -0.017622115 -0.40921587 1.1433666
0.023022812 -0.6312945 -0.42758846 -0.6189109 0.82271206 -0.536879 2.9077375 0.66730666
-0.78107893 0.06361911 -0.5541563 -0.74197465 0.07680988 -0.595885 -0.37917763 -2.5968235
0.5335583 -0.05668988 0.18316244 0.013267849 -1.0229205 -0.048736908 0.015171568 0.032167923
-0.41598213 -0.7898118 -0.7314974 -0.7060747 -0.0174159 0.38828415 -0.040847596 -0.76005393
-0.6972352 -0.063744605 -0.4583464 0.07844895 1.871595 -1.1759475 -0.4215355 0.05740821
2.3401632 0.013317647 -0.64564985 -0.0026567897 -0.03175885 -0.25369102 -0.09531106 -0.5468259
0.065070145 -0.006601649 -0.35165668 -0.72413564 -0.4223471 -1.0623275 -0.47201043 1.5337076
-0.49375868 2.3354337 -0.81426835 -0.029441617 -0.66434544 1.4587278 -0.011778869 -0.98190564
0.0034728744 0.012276927 -0.6908919 2.152831 0.024775647 -0.89435405 -0.07344996 -0.553656
-0.54925615 0.06874515 -0.041879445 -0.42029393 -0.5135833 0.012220179 -0.6258374 0.057482164
0.050575186 2.1864471 1.1056345 1.6021031 0.039306503 -0.05588146 0.011174891 -1.0515039
-0.020308796 -0.8676571 -0.53456813 -0.961272 0.052182708 -0.009923079 -0.00070309755 0.048044227
-0.3346006 -0.06731726 -0.4435945 2.4450736 -0.5261667 -0.045573488 -0.5717756 -0.6294496
-0.5535004 2.1271806 -0.9560531 -0.33133543 -0.48889026 -0.67260253 -0.5440061 -0.4518861
-0.49927998 -0.06515755 -0.51892644 -0.904543 -0.13832337 -0.038249694 0.15763588 1.574231
0.3933327 -0.04316831 0.023950854 -0.3530452 1.0817415 0.07726518 -0.66763204 -1.086655
-0.049734958 -0.5868925 -0.3485944 -0.497909 1.3663074 -0.76085865 2.4254196 0.1522243

out.bias f4 [4]
00000000: fefc 973e 9669 143e 4342 d53d ae6e 64bd
0.29685205 0.14493403 0.10413029 -0.055769615
