DQN/models/dqn_ep300_20250415_151620.pth (torch, 75580 bytes, 6 tensors)

fc1.weight f4 [128, 8]
0	0xbf2187da	-0.6309792
1	0xbe0eb4de	-0.13936183
2	0xbedad417	-0.42739937
3	0x3c753b7d	0.014967796
4	0xbdd3702b	-0.10324129
5	0xbf86ff33	-1.0546631
6	0x3d6467a9	0.05576292
7	0x3f459de2	0.77194035
8	0xbf2cbb1e	-0.6747302
9	0x3e458d6e	0.19292232
10	0x3e45d439	0.19319238
11	0x3d7863c9	0.060642038
12	0xbf830aee	-1.023771
13	0x3f927ca8	1.1444292
14	0xbdfdc06a	-0.12390216
15	0x3eb88f4e	0.36046833
16	0xbf1f209a	-0.6215912
17	0x3d3ed4ca	0.04658965
18	0xbe7263a5	-0.23670824
19	0xbe03c625	-0.12868555
20	0x3f93f01b	1.1557649
21	0x3fa44429	1.2833301
22	0x3f169cf3	0.58833236
23	0xbf0b2782	-0.5435716
24	0xbf888326	-1.0665023
25	0xbd402d33	-0.046918105
26	0xbf96ee6b	-1.1791509
27	0x3e639be5	0.22227438
28	0xbf0faf9b	-0.5612733
29	0xbe905499	-0.28189543
30	0xbea40723	-0.32036695
31	0xbfb0a8fe	-1.3801572
32	0x3ef521de	0.478774
33	0x3fca7293	1.5816215
34	0xc0066ca1	-2.1003802
35	0xbf048d48	-0.5177808
36	0xbf051441	-0.5198403
37	0xbe253b02	-0.16135791
38	0xbe9fb5ad	-0.31193295
39	0xbe32e5b0	-0.17470431
40	0xbec50aaa	-0.384847
41	0xbec68f84	-0.3878137
42	0xbf11dada	-0.56974566
43	0xbe63d0eb	-0.22247665
44	0x3f9ce83e	1.2258375
45	0xbf890683	-1.0705112
46	0xc00a128d	-2.1573822
47	0x3e5f1161	0.21783973
48	0x3faf9030	1.3715878
49	0xbe581c79	-0.21104611
50	0xbf0f1a8e	-0.55899894
51	0xbf1ab436	-0.6043123
52	0x3ee6d519	0.45084456
53	0xbd6b96a0	-0.057516694
54	0x3ec38580	0.3818779
55	0xbeca17a3	-0.39471158
56	0xc0026500	-2.0374146
57	0x3f7485f0	0.9551687
58	0xbf37c2c0	-0.7178154
59	0x3e4156e4	0.18880802
60	0x3ee19167	0.44056246
61	0x3cb64baf	0.022252886
62	0xbfec984a	-1.8483975
63	0x3dccd792	0.10002054
64	0x3f6db204	0.92849755
65	0xbf91baa6	-1.1385086
66	0x3f402b41	0.75066
67	0xbe85132c	-0.2599119
68	0xbeaf4c60	-0.34237957
69	0xbe27cdc6	-0.1638709
70	0x3eb90544	0.3613683
71	0xbefeac3a	-0.49740773
72	0xbf6bdbd9	-0.92132336
73	0x3e3dcb86	0.1853467
74	0xbf60464a	-0.8760725
75	0x3cbc0753	0.022952711
76	0x3fa9ba6a	1.3260014
77	0xbf686bc6	-0.9078945
78	0xbfda6670	-1.7062511
79	0x3ea93f06	0.33055896
80	0x3e355783	0.17709164
81	0xbe62a654	-0.22133762
82	0xbd0ba17b	-0.034089547
83	0x3e2a2347	0.1661502
84	0xbe608b86	-0.21928224
85	0x3dfe5dac	0.1242021
86	0xbe4d2c7a	-0.20036498
87	0xbd9b662e	-0.075878486
88	0x3f0a0aa5	0.5392249
89	0xbfbad594	-1.4596429
90	0xbf6a1dbc	-0.9145162
91	0x3fe4d26c	1.7876716
92	0xbf36d683	-0.7142107
93	0xbf89e7a8	-1.0773821
94	0x3f4253f7	0.7590937
95	0x3ea7ed06	0.32798022
96	0x3f13a482	0.57672894
97	0xbe59a98e	-0.21256086
98	0x3f57b353	0.84258
99	0xbddc0e7d	-0.10744951
100	0x3da3eb2e	0.08003841
101	0xbffe0873	-1.9846328
102	0xbdc00933	-0.093767546
103	0xbf70f5d5	-0.9412511
104	0x3f64a5a6	0.8931526
105	0xbe08791d	-0.13327451
106	0x3e749de5	0.23888357
107	0x3d8aa6d5	0.06770102
108	0xbf5dd42f	-0.8665189
109	0xbf9b3710	-1.2126179
110	0x3f0515e1	0.5198651
111	0x3f08ef56	0.534902
112	0xbf8771c8	-1.0581598
113	0xbe50e73f	-0.20400713
114	0x3f12d8ea	0.57362235
115	0xbd1fc6ee	-0.039008074
116	0x3e00d843	0.12582497
117	0x3f99fa56	1.2029521
118	0x3e3e05f9	0.18556966
119	0x3f01e644	0.5074198
120	0xbced5932	-0.028973196
121	0xbe8c87f6	-0.2744748
122	0xbea046bb	-0.31303963
123	0xbf0f588b	-0.5599448
124	0x3e4f99d5	0.20273526
125	0x3dbac5a6	0.0911973
126	0xbef0f008	-0.4705813
127	0xbcce41d3	-0.025177872
128	0x3f95a19e	1.1689947
129	0x3eb87415	0.36026064
130	0x3ebb3d7a	0.3657034
131	0x3d0f5532	0.034993358
132	0xbfab4d02	-1.3382876
133	0xbe4874ba	-0.19575778
134	0x3e635c2b	0.22203128
135	0x3f1d15de	0.6136149
136	0xc006c705	-2.1058972
137	0x3f61f7b9	0.8826862
138	0xbe861a46	-0.2619192
139	0xbdd75c7d	-0.105156876
140	0xbbd8af20	-0.0066126734
141	0x3d00735e	0.031360023
142	0xc004699a	-2.0689454
143	0xbeb357e9	-0.35028008
144	0x3e331719	0.1748928
145	0xbe851779	-0.2599447
146	0x3df5cf2b	0.12002405
147	0xbeaba338	-0.33522964
148	0x3f21cd4c	0.63203883
149	0x3f63093d	0.8868597
150	0x3de0364d	0.10947857
151	0xbeeebff9	-0.4663084
152	0x3e0d77c6	0.13815221
153	0xbe574cb6	-0.21025357
154	0xbec9045f	-0.39261147
155	0x3d8facae	0.07015358
156	0xbe206b1b	-0.15665857
157	0x3f1d52e1	0.6145459
158	0x3e760c28	0.24028075
159	0xbe90f2ac	-0.28310144
160	0x4049cb0c	3.153018
161	0x3dc12fdd	0.09432957
162	0x3f13e116	0.5776533
163	0x3e0a39f8	0.13498676
164	0xbf1be962	-0.6090299
165	0xbe015d7a	-0.12633315
166	0xbdea2395	-0.11432568
167	0x3d4c03df	0.04980838
168	0x3de109c5	0.109881915
169	0xbfc8365a	-1.5641587
170	0xbe0ca654	-0.13735324
171	0xbfe7a197	-1.8096188
172	0x3e1d84b3	0.15382652
173	0x3ba1cd62	0.0049378136
174	0xbdeab99e	-0.11461185
175	0x3ee96a98	0.45589137
176	0x3ea8cd24	0.3296901
177	0x3ef22dc6	0.47300547
178	0xbf1c0b5b	-0.6095483
179	0x3f0b6704	0.54454064
180	0x3fc5b6b5	1.5446383
181	0x3d2701d9	0.040773246
182	0xbf833326	-1.0249984
183	0x3b33322a	0.0027343133
184	0xbed08e78	-0.40733695
185	0xbf746620	-0.9546833
186	0x3e01574e	0.1263096
187	0x3e4625fb	0.19350426
188	0x3ed03b43	0.40670213
189	0xbe350f00	-0.17681503
190	0x3eb74428	0.35794187
191	0x3ed64b89	0.41854504
192	0x3f5bff22	0.85936177
193	0xbf17836d	-0.59184915
194	0xbf90eeea	-1.1322911
195	0xbe023ba0	-0.12718058
196	0x3fd1ec55	1.6400248
197	0x3d4f60e0	0.050629497
198	0xbe098743	-0.13430505
199	0xbebab13a	-0.36463338
200	0x3f1127fe	0.5670165
201	0x3ca5c3c1	0.020234944
202	0x3e04c41b	0.12965433
203	0xbdc3eb1a	-0.095663264
204	0x3e0b73fe	0.13618466
205	0xbf895001	-1.072754
206	0xbc70cbf6	-0.014697066
207	0xbeb2b0e6	-0.34900588
208	0xbfc21bfc	-1.516479
209	0x3fbab18e	1.4585435
210	0xbe722943	-0.23648553
211	0x3e9c2fcc	0.30505216
212	0x3e4b2cf0	0.19841361
213	0xbd4f0d41	-0.05054975
214	0xbfb2c1d5	-1.3965403
215	0xbe0b4a3a	-0.13602534
216	0xbec890c6	-0.39172953
217	0x3d36008f	0.044434126
218	0x3d2d9eb6	0.042387687
219	0xbf5d101d	-0.8635271
220	0x3f2a0ce8	0.66425943
221	0xbfc80184	-1.5625463
222	0xbf064177	-0.5244364
223	0x3edfc68f	0.43706176
224	0xbcf8ba01	-0.030362131
225	0x3e3593c0	0.17732143
226	0xbe2573fb	-0.16157524
227	0xbf2411ba	-0.6408955
228	0x3e8d7673	0.27629432
229	0xbe6ba05f	-0.23010395
230	0xbf8c0673	-1.0939468
231	0x3e1f8ddb	0.15581457
232	0xbf74221e	-0.9536456
233	0x3f3a0886	0.72669256
234	0x3e6b18fb	0.22958748
235	0xbe0ee187	-0.1395322
236	0xbf10fd93	-0.56636924
237	0x3f09e66b	0.53867215
238	0xbf13faf8	-0.5780482
239	0xbef9d6e9	-0.48796776
240	0x3f9f27be	1.2434003
241	0x3f7a1859	0.976934
242	0x3f6bf1ac	0.92165637
243	0x3fb7213b	1.4307016
244	0xbe8d162a	-0.27555972
245	0x3c97ee08	0.01854612
246	0x3d8c94cc	0.06864318
247	0x3e90facf	0.28316352
248	0x3f9d8cc5	1.2308584
249	0x3eac0233	0.33595428
250	0xbe618585	-0.2202359
251	0xbf1c7cec	-0.61128116
252	0xbf05f38f	-0.52324766
253	0x3eab04f4	0.33402216
254	0xbe9a582e	-0.301454
255	0x3f5877c7	0.84557766

fc1.bias f4 [128]
0	0x3e1add58	0.15123498
1	0xbec47c77	-0.3837621
2	0xbedb1ccb	-0.42795405
3	0xbe5c1efb	-0.21496193
4	0x3e3bffc4	0.18359286
5	0xbed329a7	-0.41242716
6	0x3e0277e4	0.12741047
7	0xbe1ade65	-0.151239
8	0x3f516efb	0.8180997
9	0xbecbd8aa	-0.3981374
10	0xbec6fd7a	-0.38865262
11	0xbd3c4848	-0.04596737
12	0xbe7ef284	-0.248972
13	0xbee506df	-0.44731805
14	0x3f150d51	0.58223444
15	0x3f1e5ed9	0.61863476
16	0xbf470340	-0.77739334
17	0x3e82c0a3	0.25537595
18	0x3ee65fdd	0.44995013
19	0x3eea0008	0.4570315
20	0x3dd16063	0.102234624
21	0xbe66ecb3	-0.22551231
22	0x3f283b5c	0.65715575
23	0x3fa364d5	1.2765146
24	0x3f22853a	0.6348454
25	0x3eb2397f	0.3480949
26	0x3e2a27d8	0.16616762
27	0xbf60b236	-0.8777193
28	0x3e829313	0.25502834
29	0x3f181e23	0.59420985
30	0x3f427367	0.7595734
31	0xbdf882cc	-0.121343225
32	0xbe870120	-0.26368046
33	0xbf4795d2	-0.7796298
34	0x3e276212	0.16346005
35	0x3e4b474b	0.19851415
36	0xbe2f5899	-0.17123641
37	0x3f1ef847	0.6209759
38	0x3ea7191b	0.3263634
39	0x3f461a8e	0.7738427
40	0xbf173670	-0.5906744
41	0x3e7cf6b9	0.24703492
42	0x3eaf821f	0.34278962
43	0xbe0510b6	-0.12994656
44	0xbf7aa943	-0.9791452
45	0x3e0ff7db	0.14059393
46	0xbf811ee7	-1.0087556
47	0xbf009ba2	-0.50237477
48	0x3f275ae6	0.65373075
49	0xbba2e724	-0.0049714018
50	0x3e9f663b	0.31132683
51	0x3e984719	0.29741743
52	0xbf26d5f4	-0.65170217
53	0x3e883d69	0.26609352
54	0x3e329d88	0.17442906
55	0xbed6dbb5	-0.41964498
56	0x3c3fc3d0	0.0117044
57	0xbf52c73e	-0.8233527
58	0x3f07bd2d	0.53023034
59	0xbf805d0b	-1.0028394
60	0x3ed3e73e	0.4138736
61	0x3ebb4f04	0.36583722
62	0x3ec5109e	0.3848924
63	0xbf12b158	-0.57301855
64	0xbf14166d	-0.5784672
65	0x3f42689d	0.7594088
66	0xbd2c9129	-0.042130623
67	0x3eb75688	0.35808206
68	0x3f345cc3	0.70454043
69	0xbf23eed7	-0.64036316
70	0x3c76fd5f	0.015075057
71	0x3e940640	0.28911018
72	0x3ee26709	0.44219235
73	0x3e2697b8	0.16268814
74	0xbec8398e	-0.3910641
75	0x3df2ddbc	0.11858699
76	0x3d54f90d	0.051995326
77	0x3eed257c	0.4631766
78	0xbee05f95	-0.43822923
79	0x3f105972	0.5638648
80	0xbedf2ed2	-0.4359041
81	0x3f136d6f	0.5758886
82	0x3e8eeca8	0.2791493
83	0xbe2392db	-0.1597399
84	0xbe1b162c	-0.15145177
85	0x3ed558fe	0.41669458
86	0xbead807f	-0.33887097
87	0xbe8cf1f5	-0.2752835
88	0x3d336198	0.043794245
89	0x3e99b55f	0.30021188
90	0xbed4b772	-0.41546208
91	0x3e408303	0.18799977
92	0x3f13c388	0.5772023
93	0x3ec6cff9	0.38830546
94	0x3e8a0c3e	0.26962465
95	0x3f172a8c	0.59049296
96	0x3ea22520	0.3166895
97	0x3b91f188	0.0044538416
98	0x3b882db8	0.0041558407
99	0x3ec6d864	0.38836968
100	0x3ec8e182	0.3923455
101	0xbeeb51f9	-0.45960978
102	0xbe20b034	-0.15692216
103	0x3e0d8069	0.13818516
104	0xbf5b1a55	-0.85587054
105	0x3e234e5e	0.15947863
106	0x3ec87c8d	0.39157525
107	0x3ecbdd08	0.3981707
108	0x3f2aceb4	0.66721654
109	0xbe862a7b	-0.26204285
110	0x3df573ba	0.11984964
111	0xbd43fa46	-0.0478461
112	0x3da8d143	0.082430385
113	0xbf1caab1	-0.61197954
114	0x3e460f78	0.19341838
115	0x3e44b3e1	0.19209243
116	0xbecfb691	-0.40568975
117	0x3daa0303	0.08301356
118	0xbf059f51	-0.5219622
119	0xbe97d885	-0.2965738
120	0x3f07b621	0.5301228
121	0x3e042491	0.12904574
122	0x3e42c2c3	0.19019608
123	0x3edf50f2	0.43616444
124	0xbe6f0099	-0.23340072
125	0xbf472c57	-0.7780203
126	0x3eae7495	0.3407332
127	0xbee40c85	-0.44540802

fc2.weight f4 [128, 128]
0	0xbe8bb676	-0.27287644
1	0x3eb396ac	0.3507589
2	0x3e877f43	0.2646428
3	0xbe22bc72	-0.15892199
4	0x3e5d04b4	0.21583825
5	0x3e66f08c	0.22552699
6	0xbedb5403	-0.42837533
7	0x3e651c4d	0.22374077
8	0xbf8e3d00	-1.1112366
9	0x3e970168	0.2949326
10	0xbd473b21	-0.048640374
11	0xbfc228bf	-1.5168685
12	0x3eebe22e	0.46071
13	0x3e1636f6	0.14669403
14	0xbefbdbed	-0.49191228
15	0x3d696b31	0.05698699
16	0x3eac53c0	0.33657646
17	0x3ea5edce	0.32407993
18	0x3c1b132a	0.009465018
19	0xbe6facdc	-0.23405784
20	0x3e2eff01	0.17089464
21	0x3e8663ce	0.2624802
22	0xbc3f3f93	-0.011672872
23	0xbddebc32	-0.10875739
24	0x3dbe1fdb	0.0928342
25	0x3f4eb8d8	0.807508
26	0x3f13ccb8	0.5773425
27	0x3f207a71	0.6268683
28	0x3f0d63d3	0.55230445
29	0x3ea2ff6f	0.31835505
30	0x3eb16a32	0.34651333
31	0xbe965a13	-0.29365596
32	0xbf113c8c	-0.5673301
33	0x3f0603b1	0.5234938
34	0x3cd06478	0.025438532
35	0xbf24b20a	-0.64334166
36	0xbee06b63	-0.4383193
37	0xbe080cd5	-0.13286145
38	0x3eea504a	0.4576438
39	0x3e34484e	0.17605707
40	0x3f623375	0.8835977
41	0x3f06e056	0.5268606
42	0x3d293183	0.041306984
43	0x3ea8cab3	0.32967147
44	0x3f53e51c	0.8277147
45	0xbf623aba	-0.8837086
46	0x3f83d946	1.0300682
47	0xbefcd041	-0.49377635
48	0x3c3ac8f8	0.011400454
49	0xbd68d493	-0.05684335
50	0xbe14ab21	-0.14518405
51	0xbf1713de	-0.5901469
52	0x3e8d4981	0.27595142
53	0xbfe33a07	-1.7752084
54	0xbece06c8	-0.4023955
55	0x3e9d26a7	0.30693552
56	0x3dce048e	0.100594625
57	0xbe115624	-0.14193016
58	0x3e6ecbad	0.23319884
59	0x3f5c60f6	0.8608545
60	0xbd5ed253	-0.0543998
61	0xbdd20a5c	-0.10255882
62	0x3e386c9b	0.1801018
63	0xbe620cb8	-0.22075164
64	0x3f6ba35b	0.92046136
65	0x3f06bb5c	0.5262964
66	0xbf12b952	-0.57314026
67	0x3dc056d5	0.09391562
68	0x3ed78f43	0.42101488
69	0x3ea5b891	0.32367375
70	0xbe6682c9	-0.22510828
71	0xbd55bf04	-0.05218412
72	0xbd6be3c3	-0.057590257
73	0x3ed3e46c	0.4138521
74	0x3f19159e	0.5979861
75	0x3dc8ed29	0.0981086
76	0xbe60e3b6	-0.21961865
77	0xbd83b789	-0.06431491
78	0xbd92d3fb	-0.07169338
79	0x3f076f40	0.5290413
80	0x3f45d23c	0.7727392
81	0x3f29c64c	0.663182
82	0xbe1e9a95	-0.15488656
83	0x3f0a7663	0.54086894
84	0x3da92d70	0.0826062
85	0x3e5deb1e	0.21671721
86	0x3d0060c9	0.0313423
87	0xbce8d1d0	-0.028420359
88	0x3e523773	0.20528965
89	0x3eddd11b	0.43323597
90	0x3e32560e	0.1741564
91	0xbe851840	-0.25995064
92	0xbe08bc1f	-0.13353013
93	0xbe16d2f4	-0.1472891
94	0x3ea4facd	0.32222596
95	0x3df1f9b9	0.11815209
96	0xbe7da944	-0.24771601
97	0xbde6457d	-0.112437226
98	0x3e18ca4d	0.14920922
99	0xbe8c8a0a	-0.27449065
100	0x3d681347	0.05665901
101	0xbc51f1d4	-0.012814004
102	0xbc237a33	-0.009977865
103	0x3f4775b2	0.77913964
104	0xbed63576	-0.41837662
105	0xbe0d42dd	-0.13795038
106	0x3b82caa7	0.003991443
107	0x3eabfaa0	0.3358965
108	0x3ecb87e9	0.3975213
109	0x3ee89e5c	0.4543332
110	0x3fa21711	1.2663289
111	0x3deeb9d9	0.116565414
112	0x3e0e07f6	0.13870224
113	0xbebf8117	-0.37403175
114	0xbcea886a	-0.0286295
115	0xbf1e0a7e	-0.6173476
116	0x3f151aac	0.58243823
117	0xbde0a66f	-0.10969245
118	0xbe455454	-0.1927045
119	0x3f2d7832	0.6776153
120	0x3e20da0d	0.1570818
121	0x3fd46008	1.6591806
122	0xbe349dd0	-0.17638326
123	0x3f81871c	1.0119357
124	0xbf5f5295	-0.87235385
125	0x3f61fb5e	0.8827418
126	0x3f0194be	0.5061759
127	0x3eb5d011	0.35510305
128	0xbd984266	-0.074345395
129	0xbd976ae1	-0.073934324
130	0xbcc9ad98	-0.024618909
131	0x3bd7b7e4	0.006583201
132	0xbdcf2f56	-0.101164505
133	0xbd6501ba	-0.05590985
134	0xbd8021ff	-0.06256484
135	0xbdadc5bd	-0.08484981
136	0x3d0631b3	0.03276224
137	0xbb046a83	-0.0020205087
138	0xbd8c011c	-0.06836149
139	0xbd80aa40	-0.062824726
140	0xbd4ab586	-0.04948952
141	0xbdd0ee18	-0.10201663
142	0xbd92b520	-0.07163453
143	0xbcd313c7	-0.025766267
144	0x3c814637	0.015780551
145	0xbd8632f9	-0.06552691
146	0xbc9a0906	-0.01880313
147	0x3c809585	0.015696296
148	0x3bbe1cad	0.0058017583
149	0xbc0a38b8	-0.008436374
150	0x3d48022f	0.048830207
151	0xbd66a3f4	-0.0563087
152	0xbc7828ac	-0.015146416
153	0x3d43fb38	0.047847003
154	0x3d48f13e	0.04905819
155	0xbdd3267e	-0.10310076
156	0xbdb00aa4	-0.085957795
157	0x3c29ff0c	0.010375749
158	0xbdb243d5	-0.08704344
159	0xbd3cad1c	-0.046063527
160	0xbdaf48f9	-0.0855884
161	0xbcc11be5	-0.023572871
162	0xbdcd82e7	-0.10034733
163	0xbd1b38ed	-0.037896086
164	0xbd9da343	-0.07697155
165	0xbceba9b0	-0.028767437
166	0xbdbde0fc	-0.09271428
167	0x3d3795bd	0.044820536
168	0xbd6872e1	-0.056750182
169	0xbd65ac29	-0.056072388
170	0xbd50f5f4	-0.05101581
171	0xbcf993f5	-0.03046606
172	0xba927873	-0.0011174813
173	0x3c326c4d	0.010890079
174	0xbdb71551	-0.08939613
175	0xbd0ed053	-0.034866642
176	0x3d45fd9d	0.048337568
177	0x3c8e2877	0.01735328
178	0x3ce2af12	0.02767137
179	0xbda4e99c	-0.0805237
180	0x3d8d9fca	0.06915243
181	0x3c8745fa	0.01651286
182	0x3cc5374a	0.024074215
183	0x3d837aa7	0.064198785
184	0x3d81ee2f	0.06344258
185	0x3bf40a79	0.0074475375
186	0x3ce0e558	0.02745311
187	0xbc9ac202	-0.018891338
188	0xba95c860	-0.0011427514
189	0x3b38e060	0.002820991
190	0xbdc8b2a4	-0.09799698
191	0x3ba5f929	0.0050651026
192	0x3c2f6128	0.010704316
193	0x3bc4879a	0.0059976103
194	0x3d14c7e5	0.036323447
195	0x3da6ed40	0.081507206
196	0xbd1fea93	-0.039042067
197	0xbd25c0ea	-0.04046718
198	0xbcc465fe	-0.023974415
199	0xbdba9f0f	-0.09112369
200	0x3d80bc1b	0.06285878
201	0xba303b88	-0.0006722738
202	0x3cb150f7	0.021645052
203	0xbd08fbfd	-0.03344344
204	0x3bac387b	0.0052557564
205	0x3c89d8eb	0.016827067
206	0xbcb42097	-0.021988196
207	0x3d5de4ef	0.054173406
208	0xbcb30ef5	-0.021857718
209	0x3d5f71fe	0.05455207
210	0xbd687c9d	-0.056759465
211	0x3d63b408	0.055591613
212	0xbb87eb83	-0.004147948
213	0xbd5ee568	-0.054417998
214	0x3ce57b89	0.028013008
215	0xbc34734d	-0.011013818
216	0xbbbd7aa2	-0.0057824412
217	0xbc9345ce	-0.017977621
218	0xbcc31c17	-0.023817105
219	0xbdb58604	-0.08863452
220	0xbd8ef5ae	-0.069804534
221	0xbd5f5d51	-0.054532353
222	0x3c92705d	0.017875845
223	0x3c8a62e4	0.016892858
224	0xbd5a55b8	-0.053304404
225	0xbd405483	-0.046955597
226	0xbd7192b8	-0.058977813
227	0xbcf5c662	-0.030001823
228	0xbc78784e	-0.015165402
229	0xbd62b6d5	-0.055350143
230	0x3d2f8471	0.042850915
231	0xbdc989e3	-0.09840753
232	0x3d61aacd	0.05509453
233	0xbd930570	-0.071787715
234	0xbd108ce0	-0.0352906
235	0x3cbf560a	0.023356456
236	0xbd1619c3	-0.036645662
237	0x3d755e0e	0.05990415
238	0xbd8ea4b6	-0.0696501
239	0xbd8bfa4a	-0.06834848
240	0xbc599cc5	-0.013282006
241	0xbd8007cc	-0.06251487
242	0xbc5644c0	-0.013077915
243	0xba8196ae	-0.0009886825
244	0xbd384675	-0.044989068
245	0x3c0c3a0b	0.00855876
246	0xbcfa3407	-0.030542387
247	0xbda96379	-0.08270926
248	0x3c84f28c	0.016228937
249	0xbcfa73a0	-0.030572712
250	0x3d7c02e4	0.061526194
251	0x3cc89437	0.024484737
252	0x3da2ab9b	0.079428874
253	0x3d4318af	0.047630962
254	0xbdb6a096	-0.08917348
255	0xbdb1ecd4	-0.086877495

fc2.bias f4 [128]
0	0xbe1134d9	-0.14180316
1	0x3ca04738	0.01956521
2	0xbb26b1e2	-0.0025435616
3	0xbdc8447e	-0.09778689
4	0xbc4b39c4	-0.012403909
5	0x3db3f7f6	0.08787529
6	0xbd752c64	-0.059856787
7	0x3e811004	0.2520753
8	0x3d2c2e43	0.042036306
9	0xbdee2d92	-0.116297856
10	0xbe0e9e66	-0.13927612
11	0xbd9c68c4	-0.0763717
12	0xbda83a8a	-0.082142904
13	0xbdc29045	-0.095001735
14	0x3d11fba2	0.035640366
15	0x3d424d47	0.04743698
16	0xbdda1afa	-0.106496766
17	0x3e048850	0.12942624
18	0xbd134ef4	-0.035963967
19	0x3c355af8	0.011069052
20	0xbd7f4fd0	-0.062331975
21	0x3e8c23f5	0.27371183
22	0xbccd0a34	-0.02502928
23	0xbda457ec	-0.08024582
24	0xbd689cfe	-0.056790344
25	0xbe01b9fa	-0.126686
26	0x3dafed96	0.08590238
27	0xbd0f1ae1	-0.034937743
28	0x3ecde538	0.40213943
29	0x3dc06ebd	0.09396122
30	0x3bc48383	0.0059971227
31	0x3d3b4418	0.045719236
32	0x3f478e87	0.77951854
33	0xbe0708e4	-0.13186985
34	0xbe00460d	-0.12526722
35	0xbde1538c	-0.110022634
36	0x3b6e616d	0.0036373988
37	0xbdd3eaa4	-0.103474885
38	0xbe18f9fe	-0.14939114
39	0xbe03e584	-0.12880522
40	0x3d8a0a0d	0.06740198
41	0xbda975f5	-0.08274452
42	0xbdff278c	-0.12458715
43	0x3cc8b8e2	0.024502221
44	0xbc400269	-0.011719325
45	0x3e414c54	0.18876773
46	0xbd60b40d	-0.05485921
47	0x3eadc50c	0.33939397
48	0xbdc3a101	-0.095521934
49	0x3f31df7c	0.69481635
50	0xbc988414	-0.018617667
51	0xbdae1024	-0.08499172
52	0x3aecbc53	0.0018061496
53	0xbdf39b08	-0.11894804
54	0x3b39173b	0.0028242606
55	0x3dcfd641	0.101482876
56	0xbd048a7e	-0.03235864
57	0x3f4646f6	0.7745203
58	0xbdf2ad2f	-0.118494384
59	0x3f5f53bc	0.87237144
60	0xbc142d7a	-0.009044046
61	0x3e679f19	0.22619285
62	0x3b445650	0.0029958673
63	0xbd809e17	-0.06280153
64	0xbe1e0e82	-0.15435222
65	0xbd85952d	-0.06522594
66	0x3c4c67bb	0.012475903
67	0xbd1b3cac	-0.037899658
68	0xbe4aef76	-0.1981791
69	0xbdd6e5b4	-0.10493031
70	0x3b9f1c30	0.004855655
71	0xbd34d7e2	-0.044151194
72	0xbe0dd9d3	-0.13852625
73	0xbe33e4a1	-0.17567684
74	0x3f1f0671	0.62119204
75	0x3e4c4bad	0.19950743
76	0xbc256f1c	-0.010097291
77	0xbd627f07	-0.055296924
78	0xbdb9ac3d	-0.09066055
79	0xbe40fe70	-0.1884706
80	0xbdc905e3	-0.09815576
81	0xbd733399	-0.05937538
82	0xbe03ab62	-0.12858346
83	0xbd767282	-0.060167797
84	0x3b9628b9	0.0045824912
85	0x3c9e2fcc	0.0193099
86	0xbcdb1e2b	-0.026747784
87	0xbd0fd592	-0.035115786
88	0xbe2ffd98	-0.17186582
89	0x3c8f75cc	0.017512225
90	0xbe26c326	-0.1628538
91	0x3ee0e049	0.43921116
92	0xbe26747a	-0.1625537
93	0xbd8c2391	-0.06842721
94	0xbd261145	-0.040543813
95	0xbd2a262d	-0.041540314
96	0xbdae22ac	-0.08502707
97	0x3f41d507	0.7571568
98	0xbe18db04	-0.14927298
99	0xbd1186df	-0.035529014
100	0xbe1c82b0	-0.15284228
101	0xbd06cd3c	-0.03291057
102	0xbe01e294	-0.12684089
103	0xbe4042eb	-0.18775527
104	0xbdf3b544	-0.11899808
105	0xbd06e6d1	-0.032934967
106	0xbdba7852	-0.091049805
107	0xbd3cd3b0	-0.04610032
108	0xbe2637e1	-0.16232254
109	0xbd928184	-0.071536094
110	0x3e14ff6d	0.14550562
111	0xbe442879	-0.19156064
112	0x3e587e8d	0.21142025
113	0xbd9dc857	-0.077042274
114	0xbd46a1e1	-0.048494224
115	0x3e9a5c61	0.30148605
116	0x3eabd732	0.33562618
117	0xbe066a51	-0.13126494
118	0xbe1fbaef	-0.15598653
119	0xbd188846	-0.037239335
120	0x3bc81bfe	0.0061068526
121	0x3c7f73ec	0.015591603
122	0xbe2c6443	-0.16835122
123	0xbe524c36	-0.20536885
124	0x3ebe74b1	0.37198403
125	0x3d8a8b93	0.06764903
126	0x3f6b0d5e	0.9181727
127	0x3ec4f347	0.38466856

out.weight f4 [4, 128]
0	0x3e10a852	0.14126709
1	0x3d7d801c	0.061889753
2	0xbf3e33b2	-0.7429763
3	0xbf5b503d	-0.8566931
4	0x3cc07bf9	0.023496615
5	0xbf0cac21	-0.5495015
6	0xbf0f7448	-0.56036806
7	0xbff6e6f6	-1.9289234
8	0xbf91674f	-1.1359652
9	0x3d8678e4	0.06566027
10	0xbe8930c1	-0.2679501
11	0xbcf8b562	-0.030359928
12	0xbf8e7226	-1.1128585
13	0xbc7882cb	-0.015167902
14	0x3c727091	0.014797346
15	0xbd38aeda	-0.045088626
16	0xbf1be1eb	-0.608916
17	0xbee9e64e	-0.4568352
18	0xbef1b8cf	-0.4721131
19	0xbf1f0372	-0.6211463
20	0xbdbf5637	-0.09342616
21	0x3e3b0bb5	0.18266185
22	0xbd44565f	-0.047933932
23	0xbf51c91b	-0.8194749
24	0xbf3620a0	-0.7114353
25	0xbf0236e5	-0.5086501
26	0xbefb573d	-0.49089995
27	0xbca81491	-0.02051762
28	0x3e7da6a3	0.24770598
29	0xbf8d51f4	-1.1040635
30	0xbf0da1aa	-0.55324805
31	0xbd8daddd	-0.069179274
32	0x3f9adeab	1.2099203
33	0xbd7ae252	-0.061250992
34	0xbeb257e9	-0.34832695
35	0xbc9ba89b	-0.019001296
36	0xbd870c7d	-0.06594179
37	0xbf004404	-0.50103784
38	0xbe37e0b8	-0.17956817
39	0xbf1b8e1b	-0.6076371
40	0xbb358e85	-0.0027703356
41	0x3d22ce9c	0.03974782
42	0xbeae08eb	-0.3399118
43	0xbf408011	-0.75195414
44	0xbed2d692	-0.4117933
45	0xbf0a6883	-0.5406572
46	0xbede949f	-0.43472764
47	0x3ff662cd	1.9248902
48	0xbf794d54	-0.9738362
49	0x3fceb5ab	1.6149191
50	0xbf2b562c	-0.6692836
51	0x3c6e5187	0.014545805
52	0xbf232f60	-0.63744164
53	0x3fb4745c	1.409801
54	0x3d4f53e0	0.0506171
55	0xbf28716c	-0.6579807
56	0x3d01ca34	0.031686977
57	0x3fa7029b	1.304767
58	0xbf3d8740	-0.740345
59	0x3fd19f8b	1.6376814
60	0xbc0c531a	-0.008564735
61	0xbf780528	-0.9688287
62	0xbf067296	-0.52518594
63	0xbf13ab77	-0.5768351
64	0xbede7b42	-0.43453413
65	0x3d444559	0.047917698
66	0xbc740eaf	-0.014896079
67	0xbf0bc3bc	-0.5459554
68	0xbf20aec5	-0.6276668
69	0x3c668577	0.014069906
70	0xbeb78b91	-0.35848668
71	0x3d029724	0.03188242
72	0xbd8d79bf	-0.06907987
73	0x3f843d7d	1.0331265
74	0x401a87c7	2.4145372
75	0xbf45922c	-0.77176166
76	0xbd09841e	-0.033573262
77	0x3da48333	0.08032837
78	0x3da33c74	0.07970515
79	0xbf2a702b	-0.66577405
80	0xbd4a886e	-0.049446516
81	0xbf04dd90	-0.5190058
82	0xbeea1014	-0.45715392
83	0xbf29cdbe	-0.6632956
84	0x3cf1199a	0.029431153
85	0x3db4f714	0.08836189
86	0xbcdf6764	-0.02727098
87	0x3c23ac5e	0.009989826
88	0xbf00c74b	-0.50304097
89	0xbd53d500	-0.051716805
90	0x3f20a2db	0.627485
91	0x3f9e0b7c	1.2347255
92	0xbf6acc62	-0.91718113
93	0x3d7d2281	0.061800484
94	0xbe6cb8dc	-0.23117393
95	0xbf055a2e	-0.5209073
96	0xbf21612e	-0.6303891
97	0x3fa4f7e8	1.2888155
98	0xbf21119d	-0.629175
99	0xbf94cab2	-1.1624358
100	0xbeacb796	-0.33733815
101	0x3e04cb3e	0.12968156
102	0xbf1d193d	-0.61366636
103	0xbee29271	-0.4425235
104	0xbf137f83	-0.5761644
105	0x3d3a8655	0.045538265
106	0xbf4687cb	-0.77550954
107	0xbfb7a5ab	-1.4347433
108	0x3cacb4de	0.021082338
109	0x3d963a51	0.07335342
110	0xbec936f5	-0.3929974
111	0x3fce9903	1.6140445
112	0xbf87d50b	-1.061189
113	0xbd55d996	-0.05220946
114	0x3ce4d9c3	0.027935868
115	0x3f889d9e	1.0673101
116	0x400f9657	2.243551
117	0xbc905c41	-0.017622115
118	0xbf1b0436	-0.605533
119	0x3f86a791	1.0519887
120	0x3cbc9a56	0.023022812
121	0xbf4d85dd	-0.80282384
122	0xbeb5078b	-0.35357317
123	0xbf1ff384	-0.6248095
124	0x3f85b61b	1.0446199
125	0xbee5c8c1	-0.44879726
126	0x40380c9a	2.8757691
127	0x3f288f0d	0.6584328
128	0xbf438d1d	-0.76387197
129	0x3d824abc	0.06361911
130	0xbf183d4b	-0.59468526
131	0xbf460f22	-0.7736684
132	0x3d9d4e80	0.07680988
133	0xbefe272a	-0.49639255
134	0xbefba471	-0.49148896
135	0xc02782dc	-2.617362
136	0x3ee85419	0.4537666
137	0xbd6833a6	-0.05668988
138	0x3df5ac96	0.11995809
139	0x3c596164	0.013267849
140	0xbfa62b6f	-1.2982005
141	0xbd47a05a	-0.048736908
142	0x3c78922b	0.015171568
143	0x3d03c283	0.032167923
144	0xbee5598f	-0.4479489
145	0xbf434731	-0.76280504
146	0xbf2c4c79	-0.6730419
147	0xbf35e82a	-0.7105738
148	0xbc8eabca	-0.0174159
149	0x3e846efb	0.2586592
150	0xbd274fcf	-0.040847596
151	0xbf63e5db	-0.89022607
152	0xbf2a4077	-0.66504616
153	0x3d30f727	0.043204453
154	0xbeb8ac74	-0.3606907
155	0x3da0a9d8	0.07844895
156	0x40050dfa	2.078978
157	0xbfa4424a	-1.283273
158	0xbea38de6	-0.31944197
159	0x3d6b24df	0.05740821
160	0x40191507	2.3919084
161	0x3c5a3243	0.013317647
162	0xbf169497	-0.5882048
163	0xbb2e1d89	-0.0026567897
164	0xbac3b0b6	-0.0014929983
165	0xbe84f6db	-0.25969586
166	0x3d4a9cac	0.04946582
167	0xbef7ae41	-0.48375133
168	0x3d85437f	0.065070145
169	0xbbd852a5	-0.006601649
170	0xbe96911a	-0.2940758
171	0xbf3164cf	-0.69294447
172	0xbeadaadf	-0.33919427
173	0xbf91a109	-1.1377269
174	0xbf1a0583	-0.6016466
175	0x3fbbac55	1.4661967
176	0xbee76ff4	-0.452026
177	0x40181297	2.3761346
178	0xbf582abb	-0.844402
179	0xbcf12f8c	-0.029441617
180	0xbf120c94	-0.5705044
181	0x3fd59efb	1.6689142
182	0xbc40fc28	-0.011778869
183	0xbf6bd62a	-0.92123663
184	0x3b63992a	0.0034728744
185	0x3c783a3b	0.015150602
186	0xbf1f2836	-0.6217073
187	0x400108b8	2.0161572
188	0x3ccaf64c	0.024775647
189	0xbf5d2cc2	-0.8639642
190	0xbd519e41	-0.051176313
191	0xbef80ab3	-0.48445663
192	0xbf06a1de	-0.5259074
193	0x3d8cca42	0.06874515
194	0xbd2b89c8	-0.041879445
195	0xbeb7c8ec	-0.3589548
196	0xbee18fed	-0.4405512
197	0x3c483725	0.012220179
198	0xbf01c3d3	-0.5068943
199	0x3d6b726b	0.057482164
200	0x3d4f27ed	0.050575186
201	0x400c2630	2.1898308
202	0x3f7e6b74	0.9938271
203	0x3fd0a602	1.6300662
204	0x3d20ffdb	0.039306503
205	0xbd64e3f5	-0.05588146
206	0x3c3716e4	0.011174891
207	0xbf6e1287	-0.9299702
208	0xbca65ea2	-0.020308796
209	0xbf65196b	-0.8949191
210	0xbeecbb56	-0.46236676
211	0xbf619eeb	-0.88133115
212	0x3d55bd89	0.052182708
213	0xbc229469	-0.009923079
214	0xba385014	-0.00070309755
215	0x3d44ca06	0.048044227
216	0xbe910b57	-0.28328964
217	0xbd89dda2	-0.06731726
218	0xbee7668d	-0.45195428
219	0x402440a2	2.5664449
220	0xbf0a9c09	-0.5414434
221	0xbd3aab44	-0.045573488
222	0xbee3deaa	-0.44505817
223	0xbf0f1f81	-0.55907446
224	0xbf0b12d5	-0.5432561
225	0x4007921d	2.118293
226	0xbfa07c94	-1.2538018
227	0xbed88692	-0.4229017
228	0xbee1b65c	-0.44084442
229	0xbf19f027	-0.6013207
230	0xbef27b49	-0.47359684
231	0xbec6b39a	-0.388089
232	0xbee22ef1	-0.44176438
233	0xbd857152	-0.06515755
234	0xbf0b41f1	-0.54397494
235	0xbf928d5b	-1.1449388
236	0xbe307f1d	-0.1723599
237	0xbd1cabb6	-0.038249694
238	0x3eb5e174	0.3552357
239	0x3fd38821	1.6525918
240	0x3ed66075	0.41870466
241	0xbd30d141	-0.04316831
242	0x3cc43495	0.023950854
243	0xbe98eaf6	-0.2986676
244	0x3f93e9cb	1.1555723
245	0x3d9e3d35	0.07726518
246	0xbf1aa5cb	-0.6040923
247	0xbfd9b42b	-1.7008108
248	0xbd4bb6e2	-0.049734958
249	0xbf2e09a5	-0.67983466
250	0xbe8e7981	-0.27827075
251	0xbed12c09	-0.4085391
252	0x3fabde41	1.3427202
253	0xbf2ff8ca	-0.68738997
254	0x4018714a	2.3819146
255	0x3e3c5aeb	0.18394057

out.bias f4 [4]
0	0x3eae2d6e	0.34019035
1	0x3e0ece90	0.13945985
2	0x3e5cb7cd	0.2155449
3	0x3c8df46e	0.017328467
