DQN/models/dqn_ep100_20250415_155027.pth (torch, 75580 bytes, 6 tensors)

fc1.weight f4 [128, 8]
00000000: aa5b 64bf b6ab 6c3e 90ed 03bd c7ae cdbe
00000010: a289 2a3f be9c 723f 1c96 8c3e 1a4d debd
00000020: 7df1 cebe 218f f5bd c876 353e edcc 7abf
00000030: 6ee1 983e f0de e2be b6e2 113f f0c6 3b3e
00000040: a408 8f3e d0fe f23d d314 8abe a1b9 c6be
00000050: 078d 673e cc60 b4bf 93f9 31bf 7170 983e
00000060: e445 2cbe 5b0a c03e d18c 34be 3bcf 69be
00000070: f7f2 6a3f 9ac7 a5bf 2431 febd c7f6 c7be
00000080: fffe 1b3e 6cff 46be 8ec6 60be 2cd3 a0be
00000090: e12f 553f 990a 3ebf 0b7a 413f f79b 233f
000000a0: 9b23 aa3d c259 02c0 f5bf b7be 6a7f 2dbf
000000b0: fa4b 293f c976 6d3e f392 023e 94ba 8e3e
000000c0: 7695 2fbf 510f 4f3e 8af4 9c3d 4f19 b1bd
000000d0: c4ad ac3e b8a0 5abf 906c d43e d021 ffbe
000000e0: 6a80 8ebc dd69 50bf adce 253f ce62 1cbf
000000f0: e438 fa3e 6cbf 1b3e 6a2c 1fbf e510 d2bd
00000100: e7e6 52bf 4005 023f 39f3 6dbe b849 10bf
00000110: 0da4 d3bf 8dda 1fbf 243c 1dbe 40f9 6abe
00000120: 7a8e b23f 0040 383e b01f 7d3d 9a54 dabe
00000130: cbb1 0fbf 0a34 05bf aa3d bb3d 4e54 d93e
00000140: e0a1 0abf 37dd 593e d680 61be 47c4 b2be
00000150: 03b9 c83e ee98 dd3f 80b4 173e 3841 18bf
00000160: 655a 073f 47cb 943e fc17 8a3f c8e0 ba3f
00000170: 16ea 613e 0e37 cfbd 06dd 753f 15b6 a6bd
00000180: 2da0 bebc 748a 1cbe 6e57 04be 0b0b 0f3f
00000190: 1046 40bd d367 5bbf f031 b7bd d235 b4bd
000001a0: ca88 06bf 997e 683e d204 bdbe 620d 1a3f
000001b0: 3c0f b33e 122a a33f 08f0 683e 4694 57bd
000001c0: 1dfc 3b3f ec31 5fbe 041a c83c 5365 61be
000001d0: fbaf 033f 809d 69bf bd77 453f 7a00 cb3e
000001e0: 68e2 283f 57db 8cbf c617 3e3f d0b5 a8bf
000001f0: 5331 873e 245d c4bf d8a0 be3c 080c 3a3f
00000200: 5c0a a63f 47fc 333e d5d0 ab3f 61bc 273f
00000210: 9f4b 25bf fff5 583e df8a 2fbd ff22 10be
00000220: cc21 b23f 718c 0a3f 738e 043f 5a28 15bf
00000230: 3f9a 9fbe 52e8 403e 4004 adbe aa88 783f
00000240: 6b32 9e3e 3a47 c2bf 7b5b 6ebe e9f4 9dbf
00000250: 8a25 1b3f a214 403f 00f4 d13e e28e e43d
00000260: f945 b2be 7448 183d 5bf0 01bf f76b f3be
00000270: a9c2 e93e 6798 bb3f 46bb 113f c554 113f
00000280: 8f8f babe 5bf1 323b ccd6 a83d fddf 4cbf
00000290: d9ea 91bf ee5c 3abf 07d4 a5bf 46db 6f3f
000002a0: f5db 9a3e 27e5 14bd 6c8c 81be 82c3 3c3e
000002b0: 9644 383f ff80 a6bf 7190 68be f43c da3c
000002c0: 00eb 073e 1fc9 043f a50e ae3e efb9 bcbd
000002d0: 280f 06c0 b433 80bf 7b95 403f 58c3 ad3c
000002e0: 6de8 a8bd 5d8d 11c0 4cd3 7bbe 3e73 10bf
000002f0: e7ee b83c 52be 9abf 76b1 3f3f 2b6e bd3e
00000300: 2266 033f e16e efbe 1726 c9bc 54b9 88be
00000310: e853 643f bd64 6abe 8d70 533e 753b 9f3e
00000320: b5df 84be 2bd9 10be 0012 a53d db16 05bf
00000330: e425 bfbe 9b4d 8e3e 5a03 da3d bb51 7fbe
00000340: dc7b 0bc0 45ba 6fbe 0c4a 1dbf 87e3 a4be
00000350: c5d7 083d 4e22 d93e 5514 aabb 6cec a93c
00000360: 0f8d fb3d cfc4 45be caca 72bd fa14 713e
00000370: 6c1a 483f a78a 92bf 3788 fdbe e151 133f
00000380: 5a4a cbbe d4f9 0abe e45f 393e 1e03 82bf
00000390: a992 f73e 000d 16bf 3bf1 073f c458 ff3e
000003a0: d1fe cabf 00dd 04be d59f bbbe 0123 5dbe
000003b0: 16ca 7ebf afb9 59be 09da c1bf ce1d 173f
000003c0: 9aa9 40bf cc92 bcbe 2826 e0bd 507a 41bf
000003d0: d1be 703e e3c7 643f e593 e73e 286a 8cbf
000003e0: b426 a43e a93d 6abd 4688 353f 8cb2 bf3e
000003f0: f4e9 dfbe dc5a ebbf 99f3 4dbf effb f8bc
-0.8920237 0.23112378 -0.03220898 -0.40172407 0.6661626 0.9477042 0.27458274 -0.1085455
-0.40418616 -0.1199019 0.17721093 -0.9796894 0.2985949 -0.44310713 0.5698656 0.18337607
0.2793628 0.11865008 -0.26969013 -0.388135 0.22612391 -1.409204 -0.69521445 0.29773286
-0.16823536 0.375079 -0.17631842 -0.22832958 0.91776985 -1.2951539 -0.124117166 -0.39055464
0.15233992 -0.19433373 -0.21950743 -0.3141111 0.8327618 -0.7423492 0.7557685 0.6390986
0.083075725 -2.0367284 -0.3588864 -0.67772543 0.66131556 0.23189844 0.12751369 0.27876723
-0.68587434 0.20220686 0.076638296 -0.08647405 0.33726323 -0.8540149 0.41489077 -0.49830484
-0.017395217 -0.81411535 0.6476849 -0.61088264 0.4887153 0.1520974 -0.62177145 -0.102571286
-0.8238358 0.5078926 -0.23237313 -0.56362486 -1.6534439 -0.6244286 -0.15354973 -0.22946644
1.394973 0.17993164 0.061797798 -0.4264267 -0.56130666 -0.5203253 0.09142621 0.42447132
-0.5415325 0.21275793 -0.22021803 -0.34915373 0.39203653 1.7312295 0.14814949 -0.59474516
0.52872306 0.29061338 1.078857 1.4599848 0.22061953 -0.10117923 0.9604038 -0.08140198
-0.023269737 -0.1528719 -0.12923977 0.55876225 -0.046941817 -0.857053 -0.08945072 -0.08799328
-0.52552474 0.22704543 -0.3691774 0.6017667 0.3497256 1.2747214 0.22747815 -0.05263164
0.7343157 -0.21796387 0.024426468 -0.22011308 0.514404 -0.9125595 0.7713583 0.396488
0.6597047 -1.1004437 0.74255025 -1.3180485 0.2640482 -1.5340924 0.023270056 0.7267461
1.2971911 0.17576705 1.3423105 0.6552182 -0.64568514 0.2118759 -0.042857047 -0.1407585
1.3916564 0.54120547 0.5177986 -0.58264697 -0.31172368 0.18838623 -0.33792305 0.9708353
0.3089784 -1.5177987 -0.23277085 -1.2340366 0.60604155 0.75031483 0.4100647 0.11160065
-0.3481901 0.03717847 -0.5075738 -0.47543308 0.45656326 1.4655885 0.5692638 0.56769973
-0.36437652 0.0027304504 0.08244094 -0.8002928 -1.1399795 -0.7279805 -1.2955331 0.9369396
0.3024594 -0.03635135 -0.25302446 0.18433955 0.71979654 -1.3008116 -0.2271135 0.026640393
0.13273239 0.51869386 0.33995548 -0.092151515 -2.094675 -1.0015779 0.7522809 0.021211311
-0.08247457 -2.2742531 -0.24592322 -0.56425846 0.022574855 -1.2089331 0.7488016 0.36998114
0.5132772 -0.4676428 -0.024554295 -0.26703894 0.8919053 -0.22889991 0.20648403 0.3110005
-0.25951925 -0.14145343 0.08060074 -0.51988 -0.37333596 0.27793583 0.106451705 -0.24933521
-2.1794348 -0.234109 -0.6144111 -0.3220484 0.0334089 0.42408985 -0.005190412 0.020742618
0.12282764 -0.19313358 -0.059275426 0.23543158 0.78165317 -1.1448563 -0.49517986 0.5754681
-0.39705163 -0.13571864 0.18102986 -1.0157201 0.4835408 -0.58613586 0.53102463 0.4987241
-1.5859014 -0.1297493 -0.3664538 -0.21595384 -0.9952711 -0.21262239 -1.5144664 0.59029853
-0.7525879 -0.36830747 -0.10944778 -0.7557726 0.2351029 0.893675 0.45230022 -1.0969896
0.32060778 -0.05718771 0.7091106 0.37440908 -0.4373318 -1.8387103 -0.80449826 -0.030393569

fc1.bias f4 [128]
00000000: 8148 24bf 9cb7 923e 905d 1f3f 564f 26bf
00000010: b56c 9d3e 9e38 bf3e 93d3 053f 6c4d 0b3f
00000020: f1b9 663e 002c db3d 10bc 47bf d294 bb3e
00000030: 0e99 ed3e c4df 3dbf 7237 c23e ed3e c0be
00000040: 9310 d53d 87a0 033e f13a 75bd d82f b1be
00000050: 371b 53be b89b 593e 1ae0 343f 1dfe bd3e
00000060: 7016 b13e 2aec 153f a847 77be 5594 f33e
00000070: d80e c73e 7c83 1b3e 4fdc 8fbe 3983 f2be
00000080: 9711 80be a15d 52bc 95ed 3d3d 064f 3d3d
00000090: a13e 0bbe 06a8 c6be 483a 2d3d c2e0 ae3e
000000a0: eb2c f5ba 60a7 b6be 7889 cdbd a77b a83e
000000b0: eae0 6fbf 00b3 a33d 8e96 173d 62d7 41be
000000c0: a4da 93be c9b7 d8be 645e 1a3e 86ca c9be
000000d0: 8ca7 b63e 3c22 6abd f5ad adbd cf39 a83e
000000e0: 86d3 213e b875 813e 50ed 0dbf 68b5 183f
000000f0: bdbd 52be 42c7 47bc dba8 23bf 09fd a0be
00000100: 6ae8 153f c03a 1e3f 16b0 e6be ebcf 243e
00000110: 2d51 cd3e 40df e93e 9bdd eebe ee9a f2bd
00000120: 0b0b 46bf 7448 383f e1cf b03e 241c 53bd
00000130: 04dc 6f3f ebe8 603e 8ee6 24bf edb6 233e
00000140: 9d59 36be 40a0 c23e abdf 293e f655 9ebe
00000150: d937 85be f485 ba3e 9ef5 643e d877 223e
00000160: fd87 b83e 5a4c 5e3e 3684 2ebf 17bd f53e
00000170: 1ba7 733e f600 a8bd 3e72 f73e 8020 03bf
00000180: c45d ce3d e069 b03e 4edd 523e b4d5 063f
00000190: b8eb eb3e 3687 923e 8b6f 403d 3f1a 193f
000001a0: 4d66 7d3e 6882 8d3e 92cf cc3e e17f 43be
000001b0: aa28 a5bd efb7 113f 6c70 563e f71b 163f
000001c0: 4047 12bd 4c43 ef3e 332b 053f d51e 2e3a
000001d0: bf02 0dbe e2df d83e 4825 40be 05e3 c0be
000001e0: 7f89 f4be 25f0 6e3e 649e b7be ff93 0d3f
000001f0: 4912 14bf 4c55 fabd 3a89 983e 60a4 593e
-0.6417313 0.28655708 0.6225214 -0.6496481 0.30747 0.37347883 0.5227596 0.5441501
0.22531869 0.10701752 -0.78021336 0.36636978 0.46405834 -0.74169564 0.37932926 -0.3754801
0.10403552 0.12854205 -0.059870664 -0.34606814 -0.2061585 0.21250808 0.7065445 0.37107936
0.3458743 0.5856348 -0.24148428 0.47574106 0.38878512 0.15186876 -0.2809777 -0.4736574
-0.2501342 -0.012839706 0.046369154 0.04621794 -0.1359811 -0.38800067 0.04229191 0.34155852
-0.0018705403 -0.35674572 -0.10035986 0.3290684 -0.93702567 0.07993126 0.037008815 -0.18929818
-0.28877747 -0.42327717 0.1507507 -0.39412326 0.35674703 -0.057161555 -0.08480445 0.32856604
0.15803346 0.25285125 -0.55440235 0.59651804 -0.20580192 -0.012193503 -0.6392953 -0.3144305
0.5855776 0.61808395 -0.45056218 0.1609494 0.40100995 0.4567814 -0.46653447 -0.11845957
-0.773606 0.71985555 0.345336 -0.05154051 0.9369509 0.21963851 -0.644143 0.1598775
-0.17807622 0.38012886 0.16589229 -0.30924958 -0.2601917 0.36430323 0.2235932 0.1586603
0.3604125 0.21708813 -0.6817049 0.47995827 0.23794214 -0.08203308 0.48329347 -0.51221466
0.10076478 0.34455776 0.20592234 0.52669835 0.46078277 0.28618783 0.046981376 0.59805673
0.24746056 0.27638555 0.40002114 -0.1909175 -0.08064397 0.56921285 0.20941323 0.5863642
-0.03571248 0.4673103 0.5201904 0.00066421676 -0.13770579 0.4235831 -0.18764222 -0.37673202
-0.4776115 0.23333795 -0.3586303 0.5530395 -0.578404 -0.122233 0.29792196 0.2125411

fc2.weight f4 [128, 128]
00000000: 6f60 c8bc cc37 52bc 17b9 59bd 65f9 eabc
00000010: fa93 95bd 60cf 3bbd 17e6 31bd 1484 4fbd
00000020: 1516 913d 1ec9 1ebc 24c8 4fbd 4df2 1c3d
00000030: 4194 453d 9ecc 573d 7886 42bd 98e1 953b
00000040: 09b8 18bd 0161 043c 3e39 a13d 3b7f 103b
00000050: ac64 30bd 6e12 d73a 1c5c ebbd bb7b adbc
00000060: 1246 8bbd 3ffb 7dbc 1424 d3bc 6c8a 69bd
00000070: acd4 07be d0e7 fcbd 5d75 843b 7718 353c
00000080: b733 443d 43d7 f4bc bd23 e9bd edb6 833d
00000090: 51a7 0b3d 94e4 8d3d 5db1 723d e5ea cf3c
000000a0: c165 17be 3898 c7bc fbfb 8a3d 8a9d 0abe
000000b0: c9b9 a3bd 8cd8 72bd 549a 653d 9478 5339
000000c0: 717b f93c 8386 713b 34e9 04bd 9208 783d
000000d0: 4405 b3bd 617b e93b b7b6 bf3c 7148 873c
000000e0: 2dd8 abbd 54cd f8bd e36e e8bc 6932 a9bc
000000f0: bf89 743d e361 56bc fa6d 563d 982b 2b3d
00000100: 8bf4 2ebd c4ab 113c 8209 acbd 738d a2bd
00000110: 8f64 173d 7366 8d3d 670e 2ebb 05a3 32bd
00000120: 8ade c0bd 3b2e 48bd fff6 6dbd 28e8 423b
00000130: 2b60 2bbd 12e9 303c eeec a5bd 6e08 c3bd
00000140: 2733 2cbd 731a 51bd 0539 0eba d034 d6bd
00000150: 113b a4bb 43ee f2bc 3629 413a 207a 9cbd
00000160: 51bf 91bd 0c32 c73c e0e8 7abc 3441 643d
00000170: e0e7 273d fc2a abbd acd5 01be cf48 c0bd
00000180: 1cb9 9dbd 79a3 67bd 4314 da3c 44c4 af3c
00000190: 58c1 b63c 6389 25bd 3e48 5b3d 8fa1 79bd
000001a0: 286d 5dbd f80d e53a 29c3 123d 275a 273d
000001b0: 852e 433d 4f65 56bd fc7e 87bc 2405 2d3d
000001c0: 9ff0 f63c d25a 9c3c 7ade 8bbc 1e06 5d3d
000001d0: 2554 cabd 22ef dfbd 6215 5f3d fc2d 25bd
000001e0: 79ce bebc 9358 0cbe fe06 a7ba e82e adbd
000001f0: dd37 1abd 283c 553d 706e a1bd 0a94 8a3c
00000200: e92e 3f3f e6f5 bc3e 30fe c1be 41ad 813e
00000210: d6e1 b43e a7aa 28bf 4536 4bbd 293c 083f
00000220: 2799 cb3d 5524 cb3d e717 423e fbc6 96be
00000230: 393f 183d 11d9 c43e db14 8e3e 06ce 273f
00000240: 0e7f 063f 10c3 873e 008b ab3e cae4 843d
00000250: 32b6 983e 9bb5 cc3e 9a7a 91be a423 00bf
00000260: e969 86bd a909 e63c ecc8 563f 1e68 153f
00000270: 2606 943e 4014 97be 3ee4 d9be 9aa9 823e
00000280: d52c 313c 97d9 2bbd 5175 02bf 0ce8 f0be
00000290: d023 e03e 0d05 2b3e 4e28 d4bd 79e2 913d
000002a0: 6e97 92bf 7e2b 78bf 5694 653d a6a1 ae3d
000002b0: 3ad2 903e ad61 cf3e 80aa 813e cf4f 9a3e
000002c0: 800f 003f 32c9 2b3e 0129 7f3d 7b80 bd3f
000002d0: 2a42 64be 0fab e9be 45e2 bdbe f3f7 cdbd
000002e0: eca6 d7bd cad6 db3e f482 003f 055e 6c3e
000002f0: 0a05 de3e aef7 063e f36b 423e 48d6 44bf
00000300: 7b4a a4be a908 7e3d 7969 323e c8b9 533e
00000310: e5d3 1b3f 340d 12bd 760e 6b3e 6d77 ed3e
00000320: 173f 093e f9c8 71bd 7fa0 03be 1eb4 72be
00000330: 29d2 ecbe 0cf8 173e 94b3 473c cd33 e2be
00000340: 1572 a53e 9728 3bbd e9a1 1d3d 6a06 0cbe
00000350: 3f64 9e3d e846 d23d be22 083f da34 02be
00000360: 9463 ab3e a7ed ca3e 2069 94bf 5d96 2cbc
00000370: d120 583e ff03 4f3f 14c8 a1bd 681b 2d3f
00000380: 0d6d 293e 30c0 f9be f1ed 883d 2e06 123e
00000390: 6ba5 e8be 382e 3cbf 2d02 003f 6963 d03d
000003a0: 759b 493e 278b 99bd 1b18 23bf 3d4b cc3e
000003b0: 954f cb3f 9356 d13e a301 163f d3dc ab3e
000003c0: 16d6 b53e 8072 bbbe 09f2 493e e263 6e3c
000003d0: 0a13 a93e 73a4 513d 6b36 ac3e ac3f 863f
000003e0: b0aa c93f f02b 813e 9b78 263e a5cc 5b3e
000003f0: bb82 1ebf 8b0c 693e 9ab1 ee3c 4851 d6be
-0.024460046 -0.012830686 -0.05315503 -0.028683374 -0.07303615 -0.045852065 -0.04343232 -0.05066307
0.0708429 -0.009691505 -0.05072798 0.038317014 0.04823709 0.052685373 -0.04749152 0.004574012
-0.037284885 0.008079768 0.07872246 0.0022048492 -0.04306476 0.0016408691 -0.11492178 -0.021177163
-0.06800474 -0.015501796 -0.02577404 -0.057016775 -0.13264722 -0.12348902 0.004042311 0.011053196
0.04790088 -0.029887801 -0.1138377 0.06431375 0.034095112 0.069283634 0.059251178 0.025380561
-0.1478491 -0.024364576 0.06786343 -0.13536659 -0.0799442 -0.059288546 0.056055382 0.00020167447
0.03045437 0.0036853857 -0.032448962 0.06055505 -0.08741239 0.0071253036 0.023402555 0.016514035
-0.08390842 -0.12148538 -0.028373187 -0.02065392 0.059701677 -0.013084861 0.052350976 0.04178962
-0.042713683 0.00889105 -0.08400251 -0.079371355 0.036961135 0.06904306 -0.0026558877 -0.0436125
-0.09417446 -0.048872214 -0.058096882 0.0029740427 -0.04183976 0.010797756 -0.081018314 -0.09523092
-0.04204097 -0.051050615 -0.00054253667 -0.10459292 -0.005011924 -0.029654628 0.00073685066 -0.07640481
-0.07116569 0.024315856 -0.015314311 0.055726245 0.040992618 -0.08357808 -0.12679166 -0.09388887
-0.077013224 -0.056552384 0.02662099 0.021455891 0.02230899 -0.040414225 0.053535692 -0.06094509
-0.054059178 0.0017475476 0.03583065 0.04085746 0.047651786 -0.05234271 -0.016540043 0.04224123
0.030144034 0.019086275 -0.017073859 0.053960912 -0.098793305 -0.10934283 0.05446375 -0.040327057
-0.023291813 -0.13705663 -0.0012743173 -0.08456212 -0.03765093 0.052059323 -0.078823924 0.016916294
0.74680954 0.36906356 -0.37889242 0.25327495 0.3532855 -0.65885395 -0.049612302 0.532168
0.09941321 0.09919039 0.1895443 -0.29448685 0.03716967 0.3844686 0.27750286 0.6554874
0.5253762 0.26516008 0.33504486 0.064889506 0.29826504 0.39982304 -0.2841385 -0.50054383
-0.065631695 0.028080778 0.8390033 0.58361995 0.2891094 -0.29507637 -0.42556947 0.2552002
0.010813911 -0.041955557 -0.5096026 -0.47052038 0.43777323 0.16701145 -0.1035925 0.07123274
-1.1452463 -0.96941364 0.056049667 0.08526926 0.2828539 0.40504208 0.25325394 0.30139014
0.5002365 0.16775969 0.062294964 1.4804834 -0.22290865 -0.4563832 -0.37086692 -0.10057058
-0.10529885 0.4293731 0.5019982 0.2308274 0.4336322 0.1318042 0.18986492 -0.7688947
-0.32088074 0.062019978 0.17423047 0.20676339 0.608702 -0.035657123 0.22954735 0.46380177
0.13402973 -0.059029553 -0.12854193 -0.23701522 -0.4625409 0.14840716 0.012188811 -0.44180146
0.323136 -0.045693006 0.038484488 -0.13674322 0.07733964 0.102674305 0.5317801 -0.12715474
0.3347441 0.3963444 -1.1594582 -0.010533896 0.21106268 0.8086547 -0.0789949 0.67619944
0.16545506 -0.4877944 0.06686009 0.1426017 -0.45438704 -0.73508024 0.5000332 0.10175211
0.19688208 -0.07497244 -0.6370866 0.39901152 1.5883662 0.40886363 0.5859625 0.33566913
0.35514897 -0.36610794 0.19721235 0.014550181 0.33022338 0.05118222 0.33635268 1.0488181
1.5755215 0.25228834 0.16256945 0.21464784 -0.6191823 0.22758691 0.029137421 -0.41858888

fc2.bias f4 [128]
00000000: f1c7 c5bd a052 34bd 3e26 4e3d 8746 f1bd
00000010: 10b4 d23a 6fcc cfbc cc53 443d 8df4 9d3e
00000020: dfcf e43e 4dfb c1bd 603d 63bd 26b2 c03b
00000030: 25cd d63e ac64 b63d 24bd d23c 96f1 c8bd
00000040: 5852 fcbd 938e c53e 9d1a d13e 5348 edbd
00000050: 34cd 99bd 812b 9ebc 16ce 903c 7d36 423b
00000060: 50db e0bd bf0a e33d 54fc c0be b903 40bc
00000070: 8af4 9e3e 93d4 463c 024a 3ebd 330c b4bd
00000080: 7912 1dbd d42e 1dbd 29a0 833e 84d5 ecbd
00000090: 429b 9d3e 9891 c83c b69e 85bd d3c5 1e3d
000000a0: 2b1d 8fbd 878d 80bc b6ae b3bb e427 203c
000000b0: 2389 9d3b 107e 233c 818c 4f3f 5f35 1b3d
000000c0: 0095 743c 1109 33bd 8d78 a5bd 3e5d cd3c
000000d0: 638e 583d 0679 333c 1b49 2ebd a7e1 41bd
000000e0: f73c 2cbd 7a42 27bd bd59 d13d 613d dcbd
000000f0: 1a9c 45bd 3eb6 9bbd f852 e73e 479e 223d
00000100: cc9f 06bc e709 633e 01db debd 9056 573d
00000110: ef7a a7bd da9a 86bd ee4f f5bd 6021 79be
00000120: 5fe1 aabd 03bc dbbd b96a aabc 5f23 76bd
00000130: 9cd9 cc3b 4921 f5be 2a92 e53d 04b8 6a3d
00000140: d2d8 223e f813 bd3d 0338 5f3c 2a7c 96bd
00000150: 2bf6 443e 741c 0bbe 7ab6 8ebd 8043 b8bd
00000160: e992 143c 566f d4bc 62dd eebe 30ef 27be
00000170: b619 b73e d23b aa3d f6cd c3bd 6763 1cbe
00000180: adf8 023e 1745 6c3e 965e 0cbf ab30 a3bc
00000190: ae58 9abd cebf 053c 2a36 403f d250 133f
000001a0: 9057 f1bc d4a2 eabd 8fec 7cbd 833e fbbd
000001b0: d71e 8ebd f933 cbbc 869e c13b c4c0 2ebd
000001c0: 7ce3 44be d8ee 98bd 956d 4ebc 679c 09bd
000001d0: ae78 c53d dd03 bbbd 4a65 67bd 2fb5 5fbd
000001e0: d7b8 40bf 4c5b cdbd ac13 d23e eb37 fabd
000001f0: ece2 c23e ac4e bc3e a1c4 95bd 4fc5 a6be
-0.096572764 -0.04402411 0.05032944 -0.1178103 0.0016075391 -0.025366036 0.047931477 0.3085064
0.44689843 -0.0947176 -0.055478454 0.005880612 0.41953388 0.089059204 0.025724955 -0.09811704
-0.12320393 0.38585338 0.40840617 -0.115860604 -0.075098425 -0.019307854 0.017676394 0.0029634528
-0.109793305 0.11086034 -0.3769251 -0.011719638 0.31045943 0.012135643 -0.046457298 -0.08791389
-0.038347695 -0.038374737 0.2570813 -0.115641624 0.30782515 0.024483487 -0.06524412 0.03876288
-0.06987985 -0.015692485 -0.0054834737 0.009775136 0.0048076077 0.009978786 0.81073767 0.037892696
0.0149281025 -0.04370982 -0.08079634 0.025068875 0.052870166 0.010954147 -0.042550188 -0.04733434
-0.042050328 -0.04083488 0.10222194 -0.107538946 -0.048244573 -0.07603119 0.45180488 0.039701726
-0.0082168095 0.22171746 -0.108816154 0.052572787 -0.081777446 -0.06572504 -0.11978136 -0.24329138
-0.083437674 -0.1072922 -0.020802842 -0.060092326 0.006251527 -0.47876957 0.11209519 0.057304397
0.15903023 0.09232324 0.013624194 -0.07347901 0.1923453 -0.13585073 -0.069683984 -0.089972496
0.009068229 -0.025931995 -0.46653277 -0.16399837 0.35761803 0.08312191 -0.09560768 -0.15272294
0.12790175 0.2307323 -0.54831827 -0.019920668 -0.075364456 0.008163406 0.7508265 0.57545197
-0.029460698 -0.11456838 -0.061749037 -0.122677825 -0.06939476 -0.024805056 0.00590879 -0.042664304
-0.19227403 -0.07467431 -0.012599369 -0.033596423 0.096421584 -0.09131596 -0.05649308 -0.05461615
-0.75282043 -0.10027179 0.41030633 -0.12217697 0.38063753 0.36778772 -0.073128946 -0.3257241

out.weight f4 [4, 128]
00000000: 789c ee3d 2342 dabe b058 b639 f675 e1be
00000010: 4087 1abf 90e1 323d 5885 1b3d 4c6e 9cbc
00000020: 6c35 f43e 58e6 c1be c3e6 9c3d 8657 163d
00000030: a4d8 7abd 4033 ecbe fc8b aebe 3567 9bbd
00000040: c5ae fa3d 1a34 bd3f 7b68 9b3d 5a87 c6be
00000050: ed0a 01bd 9995 793d bef0 2cbf 9444 aa3c
00000060: 62eb febe bc9c 2bbe bf71 3dbf f4d9 433d
00000070: 045d 513f c19d d5be c894 0f3d 8ed4 7b3d
00000080: cd31 0e3d 5aee f6be 7ce9 36be f2a4 573c
00000090: 4174 73be bd5d aabd 239b f7be 73ba afbd
000000a0: e0e3 82be 5d84 37bd 4609 a13d f70f fabe
000000b0: f97c ffbe ff97 123d 3596 da3f a786 05bf
000000c0: fa9c a7be 523c 03bf 0eaa 2039 a559 6b3d
000000d0: 2730 d9be 9758 c0be 2f84 a0bd 61a1 b43c
000000e0: 9fed f9be 8037 2abd d571 c8bd 7bb9 503d
000000f0: d571 ecbe b736 d8be f2c1 6ebf 934c c4be
00000100: ccc1 bdbe f841 993e 2179 0cbf ca7f 143d
00000110: aa73 55be bdd2 513d d548 ae3c 0763 3c3f
00000120: 3f8c 253d 1459 493c f55c bbbe e8c0 a23c
00000130: d015 d6be 29f3 52bf 2b3f f8be 2d30 f2be
00000140: 5285 0540 321a b23f 89ad 51bd 494a dbbe
00000150: 31c7 6dbf 3c74 bcbe ea30 38bd ee0b d3be
00000160: 64a9 ebbe 591e 85bf 959c 2dbf dd00 d2be
00000170: f60b f43f d9e4 4f3f 6db6 003d b662 1abd
00000180: e065 e9be a65a 343f d788 5abf 9670 e7be
00000190: 8e57 0dbf 125b d9be d070 1640 6b27 fe3f
000001a0: 4d35 3fbd c0e2 783d f053 e4bc 89cd bebe
000001b0: dbd1 debe 248f d9be 9e66 b53c 4fb5 17bf
000001c0: edb7 81bf 4c61 05bf 3c77 a4bc fe62 f7be
000001d0: d39a ba3f 78b5 41bd 7ece be3f 33f6 083d
000001e0: a14e 2bbe c87d cdbc d1c6 cdbe 7bca 933d
000001f0: 22bc fb3f 0963 1140 6356 33bc d329 80bf
00000200: 4dae 933c 8e81 d4be e1df f63c 11b5 e0be
00000210: 841a f5be 7497 663c 7a87 43bc 9f90 69bf
00000220: debb 163f 0e33 b2be 0112 3a3d 9abb 87bc
00000230: 4a1e 2fbf 1e0c e9be c62e c6be f8e1 e43c
00000240: 51e5 2eba 9c1c c53f 14eb 973d 052d b7be
00000250: b1f9 dd3b 1f4f b2bd ac05 babe da42 f73c
00000260: d680 e1be 0d97 9dbe 5cd1 193d a122 fc3a
00000270: c59e 7cbd 2374 b1be 813d ab3d 2a07 b9bd
00000280: 7d3e 9dbd 1b9e d4be cad2 a3bd d168 3abd
00000290: 5d02 4c3e 36fd 893c d831 bcbe 8c6b e13c
000002a0: 7d76 11bf f7f4 1d3d 9ce7 0d3a 2553 9bbe
000002b0: 4981 bebe 23e3 12bd ec5a f13f 290d b3be
000002c0: 24e0 0fbf bf78 acbe 7709 0e3d abc8 de3b
000002d0: 42ae f2be 3521 c0be 94ca 923c 8b19 8fbd
000002e0: d729 bfbe 6ec8 4abd ef5f 1fbf b069 e4bb
000002f0: ccde 88be e5a6 93be a133 99bf 596c 92be
00000300: 76b0 e8be f990 133f dfda 91be 34fd 57bc
00000310: c63e 3cbf b348 20bc 5650 fabc 4d9d 913f
00000320: a83f bcbc a1fc b33d 1be2 cfbe 892e 8a3d
00000330: 2962 c3be cf0e 1fbe b27c 1bbf 7d8a 9cbe
00000340: a3a4 0040 114b 8e3f d832 b8bd 1b17 e0be
00000350: 6faa a13d 93c7 fdbe 254e ee3d 04fb c8be
00000360: 7e83 0dbf f880 01bf 3bff 60be d586 c0be
00000370: a5d2 0b40 f34a cc3c ab4c 48bd a9b2 05bd
00000380: 7e8a 92be 3589 353f b266 d4bd 38a4 eebe
00000390: f1ff c5be 90c8 e9be ab51 0640 68bd 0140
000003a0: 828f a23d 19a6 913d 1cb8 f93b 5d52 fabe
000003b0: f66d e6be 589e e6be 1226 3ebc 2462 96be
000003c0: 4e9b 1ac0 b0fd 8cbe 82ae cd3c 419a d2be
000003d0: 2769 d83f a8b3 883d f182 8d3f 7af2 efbc
000003e0: ce9a a8bf fb08 75bc 69bb 72bf afc6 6c3c
000003f0: 7cc6 0940 f681 ee3f 12c8 933d aaf3 22bf
0.11650938 -0.42628583 0.00034779822 -0.4403531 -0.60362625 0.043672144 0.037968963 -0.019095562
0.47697008 -0.3787105 0.07661202 0.036704563 -0.06124176 -0.4613285 -0.34091175 -0.075880446
0.12240366 1.4781525 0.075882874 -0.3877514 -0.03150456 0.060933683 -0.67554843 0.020784654
-0.49788958 -0.16759008 -0.7400169 0.04781528 0.81782556 -0.4172192 0.035054 0.061482005
0.034715462 -0.48228723 -0.17862505 0.013161885 -0.23774816 -0.083186604 -0.48360547 -0.08580484
-0.2556448 -0.044803966 0.07863097 -0.48840305 -0.49900034 0.035789486 1.707709 -0.5215859
-0.3273695 -0.51263916 0.0001532214 0.05745854 -0.4241955 -0.3756759 -0.07837712 0.022049608
-0.48814103 -0.041556835 -0.09787337 0.050958138 -0.46180597 -0.42229244 -0.9326469 -0.38339671
-0.37061918 0.29933143 -0.5487233 0.03625468 -0.20844904 0.051226366 0.021274963 0.73588604
0.040416952 0.012289304 -0.36594358 0.019867375 -0.41813517 -0.8240228 -0.48485693 -0.4730238
2.0862622 1.3914244 -0.051190887 -0.42830113 -0.92882067 -0.3680743 -0.044968523 -0.4122004
-0.46027672 -1.0399886 -0.6781705 -0.41016284 1.906615 0.8120857 0.031423975 -0.037691794
-0.45585537 0.7045082 -0.8536505 -0.45203084 -0.5521172 -0.42452294 2.3506355 1.985578
-0.04668169 0.06076312 -0.027872056 -0.37266186 -0.43519482 -0.4249202 0.022143658 -0.5926103
-1.0134255 -0.5210159 -0.020076387 -0.48317713 1.4578499 -0.047292203 1.4906766 0.03343792
-0.16729213 -0.025084391 -0.40190747 0.072163545 1.9666789 2.2716696 -0.010945889 -1.0012764
0.018027449 -0.41505092 0.03013605 -0.43888143 -0.47871792 0.014074195 -0.011934156 -0.912363
0.5888041 -0.34804577 0.045427326 -0.016568948 -0.6840559 -0.45517057 -0.3870756 0.027939782
-0.0006671744 1.5399356 0.074178845 -0.35776535 0.0067741503 -0.087064974 -0.36332452 0.030183244
-0.44043607 -0.30779305 0.037553176 0.0019236394 -0.061674852 -0.34658918 0.0836134 -0.090345696
-0.07677934 -0.41526875 -0.07999189 -0.045510117 0.19922777 0.016844373 -0.36756778 0.027517103
-0.56821424 0.038563695 0.00054132356 -0.30336872 -0.37208012 -0.035861146 1.8855872 -0.34970978
-0.56201386 -0.33685872 0.034676995 0.006798824 -0.47398573 -0.37525335 0.017918862 -0.06987294
-0.3733661 -0.04950755 -0.6225576 -0.0069706067 -0.2673248 -0.28838268 -1.1968881 -0.28598288
-0.4544713 0.57643086 -0.28487298 -0.013182927 -0.73533285 -0.009782958 -0.030555885 1.1376129
-0.022979572 0.087884195 -0.40602192 0.06747157 -0.38160828 -0.15532993 -0.60737145 -0.30574408
2.0100486 1.1116658 -0.08994073 -0.43767628 0.07893836 -0.49566326 0.11635999 -0.3925401
-0.55278766 -0.50587416 -0.21972363 -0.3760287 2.1847317 0.024938082 -0.04890124 -0.032641087
-0.28621286 0.70912486 -0.1037115 -0.46609664 -0.3867183 -0.4566083 2.0987346 2.0271854
0.07937528 0.07111759 0.0076208245 -0.48890963 -0.4500577 -0.45042682 -0.011605756 -0.2937175
-2.415729 -0.27537298 0.025107626 -0.4113331 1.690709 0.06674892 1.1055585 -0.029290427
-1.3172243 -0.014955754 -0.94817215 0.014451667 2.1527395 1.8633411 0.07215895 -0.6365305

out.bias f4 [4]
00000000: c0b8 e63d 021d 963d 4881 9d3e 5de1 373d
0.11265707 0.073297516 0.30762696 0.044892658
