DQN/models/dqn_ep200_20250415_142550.pth (torch, 75580 bytes, 6 tensors)

fc1.weight f4 [128, 8]
00000000: b625 08bf fabf 51be 713c 8cbf 49ec 17be
00000010: 1093 bf3e d7a9 1ebf db82 003f f858 253e
00000020: 17e9 f5bc b967 1d3f 44a3 eabe 66a2 8bbe
00000030: 54e1 00bb 0a70 ff3e b8e5 b0bf 388a 3fbf
00000040: 203b 9c3f 8f45 a5be 1328 913e 137b 87bf
00000050: 032d a5bd a653 91be b058 743e f230 50be
00000060: 0697 4e3c 9a46 d93e 1f72 ccbd 645f b0bd
00000070: 5177 42bf 910c babd a77b abbd 03e1 eabe
00000080: 1fbd 27bc b50a c73e 9185 733c 0673 9e3e
00000090: 1db3 ac3c c70d 4b3e afe8 073d 2860 793c
000000a0: f279 87bf 91c5 0fc0 3203 7b3d d888 2a3e
000000b0: 5453 03be db72 173e 2200 25bf 0bb9 d43e
000000c0: a7c9 59bd 16d5 45be a668 863c 9471 843e
000000d0: d117 203e 901b d2bd 3e73 2dbd 7dbe a43d
000000e0: 3fc0 afbd 197c 2e3f 2c5b 52bf 5c0b 833e
000000f0: 220f 133e 8b4f b7be 8b11 52bf 1d9b abbf
00000100: 6ec8 893f cc8b c6bd 8257 05bf b117 9bbf
00000110: 2dcc 7e3f c3aa 8a3d e414 173e abd1 373d
00000120: 399e f1be f1e9 80c0 8704 8ebe b937 d1be
00000130: 1530 a63e 2d3a 1abf cbf5 083e d526 b8be
00000140: e06b 29be 4122 8c3e 7dcd 82be 7aac 983e
00000150: d8af 923e 2179 103f 68af cc3e 8b2c 12be
00000160: 59c5 a7be 4ec1 88bf 1840 3cbd 17d0 b2bf
00000170: 618a 3b3f d33f a43e 8cfd 8e3c 795d e6bd
00000180: a834 493f 1f0e 03bf bd50 883f 48d8 c83f
00000190: c8a3 8a3f e979 df3e 1393 50be 5f56 063f
000001a0: e5d5 703f cb8a c6bd 74ec ebbd 5807 0e3f
000001b0: 06b8 1fbd 02ae 473f 1a7d ef3d 7b32 8f3e
000001c0: 4bdb 21bf 0fda 92be 5872 f03e 9d1d cb3e
000001d0: 63bd ecbf 352d e73d bd5d 08be c989 c83e
000001e0: da8c 11bf 6d05 0a3e 8b11 f53e 8e0d 38bd
000001f0: af2c 4abe a647 a53e d3f8 09be 0718 bc3e
00000200: d594 823e 65af 173f 7b4b 04bd 6d73 e13d
00000210: 0e7a 7cbe ec14 953d 7fdb 1bbe 1a21 fabb
00000220: d8c1 3bbf 677e 29be 635e 32bf 7e05 0cbf
00000230: 8785 06be 0091 49bf 28a8 0b3f 1408 af3e
00000240: 4a58 d1be 51e5 e33e cff2 d33d a431 d43c
00000250: a79c 243e 48a4 b8bf 7f2e 81bd 69b0 1dbe
00000260: 1351 0b3f 7fbf 8abe f6df 26bf fbe0 ac3d
00000270: 3e5a cdbb a26a 393f 9a7f 1d3f 7bd0 cdbd
00000280: 1429 fabe 458f 663e bcdf f23d efbc 523e
00000290: 3416 88be 8cce 473f ef97 38be 463a dd3e
000002a0: 53f4 69bf 5cfc 753e b24d 92be 465f 47bf
000002b0: 7ed5 36bf 2c28 cf3e c389 873e b85b 9ebe
000002c0: 5613 4f3f b962 bcbd 6923 a93f 0fcc 89bf
000002d0: 93db 423f fd2d 86be f8aa 33bf 93d4 83bd
000002e0: 51d6 fb3d e55b 173f 90d8 2abf 705a bd3f
000002f0: 0033 a8bd b8e3 c4bf b404 583e 7e0b 42be
00000300: 2f5c ea3f b131 2d3f e2ea 9c3e 2f9c a4be
00000310: 0832 233e 6bb6 c4be f0c6 30bd ca93 713e
00000320: d635 83bf 9df8 00be ffa8 673f 1aee b2bf
00000330: a970 c53f e08f e93e 172c 333e 158a 65be
00000340: 7021 0fbe 1c37 8abd 329c 87bc b4b4 b13e
00000350: 1e07 473d d9ad 08be b444 69be bd8a bf3b
00000360: bbb4 0ebe c6f6 3fbe 8b97 793d 8e53 2a3e
00000370: 10e4 3ebd 0c61 89bd 10dc 28be 08ee 92be
00000380: 2212 9dbe e6ee a93e ac86 cdbd 0bf8 9a3e
00000390: c0e3 2fbf df99 2dbf 04a6 fc3e 2975 febe
000003a0: 075a 543e dfbe 23c0 aef4 dd3e d2c3 213f
000003b0: bfc2 96bf 1c5d acbe 344b a2bd 355b e23d
000003c0: 5e18 d5be 43a7 83bf 8ef5 c83d f7b5 a3bf
000003d0: 9da9 b63e 106d 603e 8793 5abd d442 8a3e
000003e0: 2032 4dbd cfa9 2d3f de6d e03e dc3b 513e
000003f0: 5537 16bf 7d1e bcbf af48 b5bf ad11 2fbf
-0.5318254 -0.2048339 -1.0955945 -0.1483623 0.37416887 -0.61977905 0.5019967 0.1614722
-0.030018372 0.61486393 -0.45827687 -0.27272338 -0.0019665556 0.49890167 -1.3820105 -0.7482028
1.2205544 -0.32279631 0.28350887 -1.0584434 -0.08065226 -0.2838413 0.23861957 -0.20331171
0.012609249 0.42436677 -0.09982704 -0.08611944 -0.7596331 -0.09084428 -0.08373194 -0.45874795
-0.010237961 0.38875356 0.014863388 0.3094713 0.021081502 0.19829474 0.03318089 0.015220679
-1.058409 -2.2464335 0.061282344 0.16653764 -0.12824756 0.14789908 -0.6445333 0.41547427
-0.053170826 -0.19319567 0.016407322 0.25867903 0.15634085 -0.102591634 -0.04234623 0.08044145
-0.0858159 0.6815811 -0.8217037 0.25594604 0.14361241 -0.35802874 -0.8205802 -1.3406712
1.0764291 -0.09694633 -0.5208665 -1.2116605 0.995303 0.067708515 0.14754063 0.04487769
-0.47191027 -4.0285573 -0.2773783 -0.40862826 0.3245856 -0.6024502 0.13375013 -0.35967126
-0.16545057 0.27369884 -0.255474 0.2981909 0.28649783 0.5643483 0.39977574 -0.14274804
-0.32767752 -1.0683992 -0.045959562 -1.3969754 0.73258024 0.32079944 0.017454885 -0.11248297
0.7859597 -0.5119342 1.0649639 1.5691004 1.0831232 0.43647698 -0.20368604 0.5247554
0.9407638 -0.096944414 -0.11519709 0.55479956 -0.038993858 0.7799989 0.11693783 0.279682
-0.6322524 -0.2868199 0.46962237 0.3967103 -1.8495296 0.112879194 -0.13317008 0.39167622
-0.5685555 0.13478632 0.47864947 -0.0449348 -0.19743608 0.32281226 -0.13473825 0.3673708
0.25504175 0.59252006 -0.032298546 0.11008344 -0.24655935 0.07279381 -0.1522045 -0.0076333405
-0.7334266 -0.16552125 -0.6967527 -0.5469588 -0.13136874 -0.7873688 0.5455346 0.3418585
-0.40887672 0.44510892 0.103490464 0.025902577 0.16075383 -1.4425135 -0.063076966 -0.15399326
0.54420584 -0.27099225 -0.6518549 0.08441349 -0.006266861 0.72428334 0.6152283 -0.1004953
-0.48859465 0.2251559 0.1185908 0.20579885 -0.2657944 0.7804954 -0.18026708 0.43208522
-0.91388434 0.24022049 -0.28574902 -0.7787975 -0.71419513 0.40460336 0.2647229 -0.3092935
0.8088888 -0.09198517 1.3213931 -1.0765399 0.76116294 -0.2620696 -0.7018275 -0.0643703
0.12296737 0.59124595 -0.667367 1.4793224 -0.082128525 -1.5381994 0.21095544 -0.18949696
1.8309382 0.6765395 0.3064795 -0.3215041 0.15937054 -0.38420424 -0.04315847 0.23591533
-1.0250804 -0.12594838 0.9049224 -1.3978913 1.5425006 0.4561758 0.17497288 -0.22415955
-0.13977599 -0.067487925 -0.016553972 0.34708178 0.04859077 -0.13347568 -0.22780114 0.0058453963
-0.1393613 -0.1874648 0.06093554 0.16633436 -0.046604216 -0.06707963 -0.16490197 -0.28697228
-0.30677897 0.33190078 -0.10035452 0.30267367 -0.68706894 -0.67812914 0.4934541 -0.4969876
0.20737468 -2.5585248 0.43350738 0.63189423 -1.1778182 -0.33664787 -0.079245 0.110525526
-0.41620153 -1.0285419 0.09812461 -1.2789906 0.3567628 0.21916604 -0.05336335 0.2700411
-0.05009663 0.6783723 0.43833822 0.20432991 -0.5867818 -1.4696804 -1.4162806 -0.68386346

fc1.bias f4 [128]
00000000: 8fe7 333e b906 383f e48a 2f3f 2e19 393f
00000010: 2bb4 013f 9448 753e 602b afbe 74bf 12bf
00000020: d9b6 a7be 2faa a83e 75db d23d 6df0 6cbe
00000030: 4805 3fbf 99c2 863e 91a4 d33e a44a 863e
00000040: 0662 103f a5f3 e23e 84d9 f73e ebb6 ae3e
00000050: a2ce 4c3f 97c6 1b3e 85f2 fb3d 2718 563f
00000060: 2b94 c53e 7129 b73e eb7a a7be 21e5 52be
00000070: c8de 563f 9241 e73e 6d46 dcbe 451f ec3e
00000080: 1714 873e 7e70 923b fd4d ee3e 2175 a43e
00000090: 0d22 99be 3a53 783f e37a 52bf bbc4 003f
000000a0: 234f e1bd 66d5 023f 95d8 9c3e 6dc3 e23d
000000b0: cfaa 323e 40ac 2f3d 86e5 c53d 9072 f0be
000000c0: a86d a3be 70b6 423e 534f 0a3e f2d6 323f
000000d0: c9f9 953f 9841 033f cd27 233f e50c 8abd
000000e0: 2f02 813c 6eaa 0b3f 6813 813c 279a 97be
000000f0: 8eaf b83d 5648 07bf 39b8 c9be ccc5 a33c
00000100: 2841 fb3e bbd2 543f c655 a0be f4ec 643e
00000110: fed7 0d3f c734 84be b5a8 7ebd ab14 8fbe
00000120: 89a6 c6be 54ba 3e3f b5c9 bb3d 3b5d 423f
00000130: a20a e7be 9e36 73be aad5 373f d899 613f
00000140: eefb bbbc 4f03 a9be cbf6 88bd e26e 1b3e
00000150: af54 753f 08c4 adbe 34e1 cabe 9e77 2c3d
00000160: 1818 53be be1d 4ebe 1766 89bf d928 273e
00000170: b9a0 3abd 6b50 a2bd f924 183f 01e5 143d
00000180: c574 a3be e1ba 923f 9d42 ad3e 37d6 0d3f
00000190: 9974 6e3e 2e17 5f3f 82dd e13e 6593 153f
000001a0: ca8c bb3d 03f9 dabd 282a 923e 2eec fc3e
000001b0: 16ea 1cbf 2f29 cc3e 627f 80be c738 563f
000001c0: bb13 873e ddfd 0cbe 5341 8b3e 4fdc 0abf
000001d0: 5cd6 a1bd 950e eb3e e203 a13e 4827 21bd
000001e0: ff1d d03d 4352 f2be e8b1 073f 9427 3a3f
000001f0: eafd a3be 4498 07bf 21c7 8dbe 28af 623f
0.17568801 0.7188526 0.68571305 0.72304046 0.5066554 0.23953468 -0.3421278 -0.57323384
-0.3275669 0.3294234 0.10295764 -0.2313859 -0.74617434 0.2632034 0.41336492 0.2622882
0.5639957 0.4432651 0.4840814 0.3412393 0.80002797 0.15212475 0.12302116 0.83630604
0.38589606 0.35773805 -0.32710966 -0.20595218 0.8393369 0.45167214 -0.4302248 0.46117607
0.26382515 0.0044689765 0.46543875 0.32120612 -0.2990879 0.97001994 -0.8221876 0.50300187
-0.11001422 0.5110687 0.3063399 0.11072431 0.17447971 0.04288888 0.09662919 -0.46962404
-0.319196 0.19014907 0.13506822 0.6985923 1.1716853 0.51271963 0.63732606 -0.06740741
0.015748112 0.5455693 0.015756324 -0.29609796 0.090178594 -0.5284475 -0.39398363 0.019991778
0.49073148 0.8313405 -0.3131544 0.22356015 0.554077 -0.25821516 -0.06217261 -0.27945456
-0.3879893 0.74503064 0.09169332 0.7592351 -0.451253 -0.23751304 0.718104 0.8812537
-0.022947278 -0.33010337 -0.06687697 0.15179017 0.9583234 -0.33938622 -0.3962494 0.042106263
-0.2061466 -0.20128533 -1.073428 0.16324176 -0.045563433 -0.07925495 0.59431416 0.036351208
-0.31925026 1.1463281 0.33839884 0.5540499 0.23286666 0.87144744 0.4411431 0.5842803
0.09157713 -0.106920265 0.28547788 0.4939894 -0.61294687 0.3987517 -0.25097185 0.83680385
0.2638224 -0.13768716 0.27198276 -0.54242414 -0.07902214 0.45909563 0.31448275 -0.039344102
0.10161971 -0.47328386 0.5300584 0.7271664 -0.3202966 -0.52966714 -0.27690986 0.8854852

fc2.weight f4 [128, 128]
00000000: ea8b 30bd 2714 30bf e93e 133f 2fc5 01be
00000010: b5da 24be ea61 f23d ed04 79bc a9f5 4abf
00000020: b47d 4e3f 42a9 94bd 4e6a 0b3e dc97 ae3e
00000030: 3aab adbf a230 043f 38b7 20bf c62d 993d
00000040: c95b 04be 76d2 8b3e e51c c33d 13de 30bd
00000050: 6a60 a9bd f89b ac3d 0f06 9fbf d19d e0be
00000060: 8266 1bbf 8d55 3bbf 174d 143d 0c39 abbc
00000070: c9d3 0dbf ad5b e0be e558 b43e 43d8 de3e
00000080: 0d28 ebbe 9aa7 133c d963 bd3c efba dc3e
00000090: acb6 313f 3125 63be 30b8 cd3f df19 a6be
000000a0: f032 2ebe a6b1 d2bd d9da 0cbe 3714 3b3f
000000b0: 2c5d 913d 0a78 303f 1f54 143d 9e5e 92be
000000c0: fbec 5fbd 3a63 433f cad1 e6bc 9561 46be
000000d0: 2cde d2be c99a 8c3e 8e83 833d d334 003e
000000e0: 30dc 253e 89a5 7bbe 8f43 c6be c590 22c0
000000f0: 02bc 8c3e cc6a 983f f886 e33e a494 d53e
00000100: e79b e03d 9d2c 9cbe 8c7f a53d d445 53bf
00000110: dc96 223f 1b2f 87bf c5f4 d0be c938 8d3f
00000120: 2ae6 6ebf d277 da3d 6fcf c9bc 705e d5bd
00000130: de34 20bd 826d 8a3e 3070 07bf 1eb0 ecbe
00000140: 8450 873f 938d af3f 4432 de3e edd6 fbbe
00000150: 767d 64be 05be 03bf 565f 5d3e aeb4 913e
00000160: 726a 4abf 60c5 173f dba0 34bf f1d5 8c3f
00000170: 0a42 5cbd 310d 2bbd c5b1 91be be4c d5bd
00000180: 7d6e ffbd c410 f1be 656b fcbd 2daf d83e
00000190: dc39 243e 0c18 9fbd 7536 903e 7a82 e3be
000001a0: fd68 7e3e d039 323d 0857 5b3e 8b6a 223e
000001b0: b2bf 453e dae5 f7ba 8e72 a53d 95c7 5fbe
000001c0: dece 473e acd8 5ebc 6495 1b3b 1f2d 533e
000001d0: 7fc2 40bf 27f8 b93d db2f 9ebd e5d7 933d
000001e0: 0615 2c3b 0d98 1b3f d20b de3d 75db 453e
000001f0: a04f d93e 76d0 0e3f 9360 a33f 48d2 5dbe
00000200: 23c9 d1bd a6d1 a0b8 e760 373d 1d1b 3bbd
00000210: 0887 fcbd 40dd 96bc 3da3 6a3d 9174 883d
00000220: 0c16 2e3d d6d1 953d 260b 69bd d906 013c
00000230: 882e 863d bef2 f33c c3e4 42bd 6a2b 35bd
00000240: a2e1 85bd 599e 42bd 2bb3 22bd c6af 33bd
00000250: 62b4 643c 8556 553d b292 7cbd cc01 57bd
00000260: 00d4 0bbd c006 06bd 0451 6ebd d95a 40bd
00000270: 734a a5bd cd75 80bd be6c 4b3c 0f27 cc3c
00000280: db76 113d 2cb7 c6bc 1fa5 153d 038f 97bd
00000290: 5de1 453d db26 56bd e946 833d a7f1 b5bd
000002a0: 3efe 223d ab1e acbd 534f aa3c 9cf3 4cbd
000002b0: de7c 75bc 000f 94bc 7347 07bc 875d febd
000002c0: cc10 0cbd aac8 cabc f980 19bd f5ff ccbd
000002d0: a3f6 a3bd 25b0 adbd 11c6 9ebd f94d 2d3d
000002e0: 4b8e d53c 347c 973c ac39 63bd 3fb3 0fbd
000002f0: 8139 14bb dfc0 aebd f538 e5bc 2ce9 673c
00000300: a028 90bd 42c8 b9bd 9322 213c 3fcb 84bc
00000310: b87f 6ebd a117 13bc f9b1 47bd 3752 f1bd
00000320: 790c 233d 430d 4a3d 9d5e 25bd d0b4 6cbd
00000330: 718c bbbd 4630 e2bd 9ecd 1abd a40c 6bbc
00000340: 2dde b0bc 5033 2cbd ee0a 693c 5902 48bd
00000350: 3b26 68bd 5ae9 853b 6cb8 7fbc 6349 a7bd
00000360: b05f e4bc 0e9c b03a 1632 993b 78de debd
00000370: 9262 0f3c e9ee 77bd 1f0e 02be 4c0d 8abd
00000380: ce87 2bbd 8e8d 543d 8c17 65bd 0677 1b3d
00000390: 702d cdbc cf97 203d 317b 873c d732 0bbd
000003a0: dbcb cfbd 9708 99bd 4f25 f73c 0524 32bd
000003b0: ed79 47bc b5c8 9dbd 6165 c6bd 369f 5b3c
000003c0: fb40 49bd a953 bd3b fa29 5dbd d67e a4ba
000003d0: 547f c5bb 5419 d53c 06e8 2dbd d138 39bc
000003e0: 3011 5cbd d44b a7bd 671d dcbc 3933 23bd
000003f0: d62a 2dbd 55a5 18bd 217e b5bb ca72 96bd
-0.043102182 -0.6878075 0.5751787 -0.12672876 -0.16099055 0.11835082 -0.015198928 -0.792811
0.8066056 -0.07258846 0.13614771 0.34100235 -1.3567879 0.5163671 -0.6277957 0.07479434
-0.12925638 0.27309006 0.095269956 -0.043180536 -0.08270343 0.08428186 -1.2423724 -0.43870404
-0.6070329 -0.73177415 0.03620633 -0.020901226 -0.55401284 -0.43819943 0.3522407 0.4352437
-0.45928994 0.009012127 0.0231189 0.4311137 0.6941936 -0.22182156 1.6071835 -0.32441613
-0.17011619 -0.1028779 -0.13755359 0.7307772 0.07097849 0.68933165 0.036213037 -0.28587812
-0.05466936 0.7632328 -0.028176207 -0.19373162 -0.4118513 0.27461842 0.064215764 0.12520151
0.16197276 -0.24574865 -0.38723418 -2.540086 0.2748719 1.1907592 0.4443891 0.41714966
0.10967236 -0.30502787 0.08080968 -0.82528424 0.63511443 -1.056125 -0.40811744 1.1032954
-0.9331995 0.10667385 -0.024635045 -0.10418403 -0.039112918 0.27036673 -0.5290556 -0.46228117
1.0571446 1.371508 0.43397725 -0.49187413 -0.22313485 -0.5146182 0.21618399 0.2845816
-0.7906867 0.59285545 -0.70557946 1.100279 -0.053773917 -0.041760627 -0.2845594 -0.10415028
-0.12472246 -0.47083104 -0.123251714 0.4232115 0.16037697 -0.077682585 0.28166547 -0.44435483
0.24844737 0.043512166 0.21419919 0.15860955 0.19311407 -0.0018913106 0.0807849 -0.21853478
0.19512507 -0.013601463 0.0023740167 0.20622681 -0.7529678 0.090805344 -0.077239715 0.07218913
0.0026257648 0.60778886 0.10842098 0.19321997 0.42443562 0.55786836 1.2763847 -0.21662247
-0.10243442 -7.6684446e-05 0.044770148 -0.045680154 -0.12330443 -0.018416047 0.057284582 0.06662858
0.042501494 0.07315414 -0.056895398 0.007875168 0.06551844 0.029778834 -0.047581445 -0.044230856
-0.06537177 -0.047514293 -0.03972165 -0.043868802 0.013959022 0.052084465 -0.061663337 -0.052491948
-0.034137726 -0.03272128 -0.05818273 -0.04696164 -0.08070841 -0.06272469 0.012416063 0.024920968
0.03551374 -0.024257265 0.036534425 -0.07400324 0.048310626 -0.05228315 0.064100094 -0.08883982
0.039793245 -0.08404287 0.020789778 -0.05003701 -0.014983384 -0.018073559 -0.008256781 -0.12420183
-0.034195706 -0.024753887 -0.037476514 -0.100097574 -0.080060266 -0.084808625 -0.07752622 0.04231069
0.026068827 0.018491842 -0.055474922 -0.03508305 -0.0022617283 -0.08532881 -0.02798126 0.014154714
-0.070389986 -0.09071399 0.009834903 -0.016210197 -0.05822727 -0.008977802 -0.048753712 -0.11783259
0.039806817 0.049329054 -0.040373433 -0.057789624 -0.091576464 -0.11044364 -0.037793748 -0.0143462755
-0.021590317 -0.042041123 0.014223797 -0.048830364 -0.056677084 0.0040866556 -0.015607934 -0.08168294
-0.027877659 0.0013474242 0.00467516 -0.10882276 0.008751528 -0.060530577 -0.127007 -0.067408174
-0.04187756 0.05189281 -0.05593066 0.037955306 -0.02504608 0.039207276 0.016538234 -0.03398403
-0.10146304 -0.074723415 0.030169157 -0.043491382 -0.012175065 -0.077042975 -0.09687305 0.013404658
-0.049134236 0.0057777953 -0.05399511 -0.0012550007 -0.0060271416 0.026013054 -0.042457603 -0.01130505
-0.05372733 -0.0816876 -0.026869489 -0.03984377 -0.04227718 -0.037267048 -0.0055387174 -0.07346113

fc2.bias f4 [128]
00000000: e23e 30be 2119 14bd c609 18bc 0ddf 36be
00000010: a763 263d c214 9a3e 3747 6e3c 6ce3 e5bd
00000020: 826d 663e b8be 0f3f aa15 4a3e ac2a 8b3e
00000030: c434 dcbd c3ca 67bd 8ec7 b1bd 6d15 84bd
00000040: a1ab d23e 61f5 8b3e da53 cb3c 4636 373e
00000050: 31c7 e5bd e508 353f 1e17 663c db1e 15be
00000060: 34cb 5c3e 722a b83e 148e f7bd d06c 653c
00000070: 8912 873e 8765 333d 5f46 31bd 716b 99bd
00000080: a1e3 87bd 9780 a0be 0eca f73d e4d4 283e
00000090: ab8f 7e3d 61b4 7f3e 7078 4a3d 2276 213f
000000a0: 7312 ef3e ab8f 183f fe16 a1bd a650 183d
000000b0: feb8 efbe 6c01 bc3e f6d5 60bd 3faa 453c
000000c0: c6ab 933e ce06 123f 5920 563e 9396 3bbe
000000d0: d533 b43e f89f 443e 8936 babd 6842 4a3e
000000e0: b48a f33c 2547 1dbd 379a 2abc d511 96bd
000000f0: a689 9dbd 06ad af3e 9c10 093f 18da a43d
00000100: d013 14bb 8dc5 2f3e dbf8 15bd ac2f ee3e
00000110: 762d 8a3e 749d f83e 25cd 0a3f e7d6 e23e
00000120: dac5 0d3f d0e5 203f c56c 0a3e a121 c6bd
00000130: 26c6 bf3d 358d ce3e 23c4 17be 9de6 a1bb
00000140: e242 6c3e 054e bebd c950 b3be ac86 adbd
00000150: f9aa 5abd ddbc 3c3e f496 09bc c08f 293d
00000160: 8e8b 4a3c b0c8 9bbc f654 dbbd cdd0 773e
00000170: d82a 9fbc 79d9 743d 1180 123f a282 c93d
00000180: 0406 b53d 3d10 eb3d 3432 d03e bd2d 563e
00000190: 476f c33e 026d 8e3c 00a0 963e 3d2d 713d
000001a0: f63b ea3e ac23 f13d 1cdc 24bd a36f fcbd
000001b0: 2c2f 773e edc4 34bd 2d4d 66be f761 663e
000001c0: dc43 5a3d 49e2 273f d183 6c3d 9df4 1f3e
000001d0: 5d4b c13e 0066 963e 25f5 c7bd 9027 8a3e
000001e0: e391 a7bd 3e10 2dbe 895b 68bc d359 0d3f
000001f0: 6ff7 813e 85d6 1b3d b31a a8bd 9f93 b33d
-0.17211488 -0.036156777 -0.009279674 -0.17858525 0.04062238 0.30093962 0.014543346 -0.11225018
0.22502711 0.5615039 0.19734827 0.27180994 -0.10752252 -0.056589853 -0.0868064 -0.06449399
0.41146567 0.27335647 0.024820257 0.17891797 -0.11219633 0.70716697 0.0140435975 -0.14562552
0.21561891 0.35969883 -0.12087646 0.014002994 0.2638133 0.043797996 -0.04328 -0.07491196
-0.06635214 -0.31348106 0.12099086 0.16487461 0.06214873 0.24971153 0.049431264 0.6307088
0.46693763 0.5959422 -0.078657135 0.037186287 -0.46820825 0.36719835 -0.05489155 0.012064516
0.2884199 0.57041633 0.20910777 -0.18319158 0.35195795 0.19201648 -0.09092433 0.19751894
0.029729225 -0.038397927 -0.010412744 -0.0732762 -0.0769227 0.34311694 0.5354097 0.080494106
-0.0022594817 0.17165203 -0.03661428 0.46520746 0.2698781 0.48557627 0.54219276 0.44304582
0.5538002 0.62850666 0.13518055 -0.09674383 0.09363966 0.40342107 -0.14820914 -0.0049408213
0.23072389 -0.09292225 -0.35022572 -0.08472952 -0.05338571 0.1843142 -0.008397806 0.041396856
0.012362374 -0.019016594 -0.107095644 0.24200745 -0.01942961 0.05977771 0.57226664 0.09839369
0.08839038 0.114777066 0.40663302 0.20915885 0.38170835 0.017385963 0.29418945 0.058881033
0.45748872 0.11774382 -0.040248975 -0.123259805 0.24139088 -0.044133116 -0.22490378 0.22498308
0.053287372 0.6557966 0.057742897 0.15620656 0.3775281 0.29374695 -0.097635545 0.2698331
-0.081821226 -0.16900727 -0.01418198 0.55215186 0.2538409 0.03804638 -0.082082175 0.08768391

out.weight f4 [4, 128]
00000000: a65f d1be b314 ffbb 9e18 7a3d 1fec 31bd
00000010: a911 5abd 0524 8bbf 621a 1c3d 7945 073d
00000020: d56a f6bd 02eb 0fbf 25cb 2bbf 1df9 b8be
00000030: 7fe5 d93a 1cef 90bd 60c2 61bf f26e c4be
00000040: 9738 2d3f abfc ccbf b818 c73c 35e0 6abf
00000050: 456f bcbc 5d46 07bf 6539 11bd 6b69 f03c
00000060: 7788 c8be 2c12 cdbe 57c5 04bd 6fcc 2d3f
00000070: 0bb8 00bf bf0d a0be b2fd 07bb db53 463b
00000080: a2f0 3e3c aa6a 5ebf f465 4d3e 9263 8e3f
00000090: b9fa 4cbf dd61 fb3e f0c2 8b3a 9712 45bf
000000a0: 7621 673f e05e 05bd 5889 69bd cd02 edbe
000000b0: 3a8e d73e 17db d33f 1ab1 87bc 81ca bbbd
000000c0: a686 d4bd 60a4 af3f 10ea 11bf aa0b 0e3e
000000d0: 8e8a 6abf 7e01 753f bdb7 cfba edca 73bf
000000e0: e0e3 9fbd 0da2 3abf 3e0b 48bf e726 663c
000000f0: 0807 8e3c 7c7a 53bf 7e4b 293f 6adb 56bf
00000100: c2ca 07bf 7838 f43e 4c81 123b 6df2 43bf
00000110: 6e15 00bf d656 3640 8767 0f3f ce6f 873f
00000120: b88b b03e 40dd 3cbf 52d8 46bf e1a6 993d
00000130: 87e7 50bf ecb9 7e3f 207e 1dbe 95d8 a83f
00000140: 0dba 9d3e 08d3 ea3c ea5d f1bd d8d0 833c
00000150: 1257 4f3d bcfb 263f 9615 a53c 1077 4bbf
00000160: 9f40 043f 3b20 67bf f208 1ebd 331f 2c3e
00000170: bbb8 813c bbe1 443e 0028 febe 0655 7ebf
00000180: e763 5cbf 9d17 c03f d313 32bf b158 fd3f
00000190: ce3c ef3e 06c6 16bf 9984 9dbe ae09 19bd
000001a0: 788f 1fbf 7ae8 3bbf bb55 8b3f 3842 29bf
000001b0: 8431 23bf 25f3 07bf 6aec 6dbf 769c 0abe
000001c0: 47ef a2be 4d5c af3f cea8 b33d 343a 43bf
000001d0: e3e2 dfbd 24c9 ec3d f9bf 5fbd 945f 17bf
000001e0: 5c88 973d f715 37bf 8423 1840 995a 51bf
000001f0: 9261 dabe 4e4f f2bc d883 3b3b 2bad 4dbf
00000200: b3b0 16bf 8486 90bd 72d0 b13d 3e68 263c
00000210: 9828 193d 822c 43bf cdaf 82bd 3746 00bd
00000220: 62e5 1ebf d234 14bf 2bd1 74bf 3c01 cebe
00000230: e21f 323d 40c4 0f3d 1c99 61bf 30a5 f5be
00000240: 9936 383d 0e16 a7be a6d2 b23d 7647 34bf
00000250: 427d 0dbc 93a3 76bf 3b51 833d 92b9 573d
00000260: 3b6b 2fbf fa48 1ebf 976d 70bc 294d 013f
00000270: 83e9 a1be 998a 27bf 2d45 483c 293e 523d
00000280: a50b 11bd 31f2 31bf 367f 1f40 852f 243f
00000290: 7403 5dbf 6cb6 863e afa6 c93c cafc 6bbf
000002a0: c1bd 3e3f 7097 debe df54 3c3d 9e97 4bbf
000002b0: f9ea 393f 1af4 1240 8bc2 133d e6b6 6abf
000002c0: 5646 c83e 6cea 483f e45c edbe 8a7a 373e
000002d0: 3d87 5ebf 532e 3d3f f527 bdbc 2d09 61bf
000002e0: 1c3c 4d3d a2a5 f4be 205b 8bbc 82ac 903c
000002f0: e649 efbb a3b6 33bf cd77 073f f2f5 0bbf
00000300: 4d9a 30bf 8d16 323f d5d4 8fbd 4e2b 80bf
00000310: 02c3 fabd 86a4 d93f 0f16 b63f 87c1 273f
00000320: 7387 cebe a338 e1be 9fd1 54bf 73d1 19bd
00000330: 0d0b 8ebe 8a05 5b3f 1c5e b0bd 7103 7c3f
00000340: dd11 223f a9e2 673d e0c3 75bf 7017 413d
00000350: faeb f03b 666a 3e3f 15ae 04bd be8e 4bbf
00000360: 909e 213f 358d 82bf 1988 033d 100d cf3f
00000370: 0fb1 7dbd f63a 1b3e 1fa9 25bf f98a 61bf
00000380: 05da a3bf eb16 8d3f 355d 0abf 2240 d03f
00000390: 0751 673f 57e6 68bf 6939 93bf 5be0 82bd
000003a0: 447f e5be 9a82 55bf 7fa3 38be c2d0 5cbf
000003b0: db04 09bf 2184 47bf af78 55bf fee6 b4be
000003c0: 7fbb 2abf 59da 923f fd84 183d 551f 67be
000003d0: e672 56bf a636 273f 76d4 fc3c b419 4fbf
000003e0: 8b6a a63c aec1 6ebf 492d 1340 ce34 00bf
000003f0: ef97 0ebf 3c05 893d 369f 9a3d 55d8 49bf
-0.40893286 -0.00778445 0.061058633 -0.043438073 -0.0532395 -1.0870367 0.038111098 0.03302524
-0.12032095 -0.5621797 -0.6710685 -0.36127558 0.0016624181 -0.070768565 -0.8818722 -0.38365895
0.67664474 -1.6014608 0.024303779 -0.9174836 -0.023002276 -0.5284174 -0.035455126 0.029347142
-0.39166614 -0.40052927 -0.03241476 0.67890066 -0.5028083 -0.31260487 -0.002075058 0.0030262384
0.011654051 -0.86881506 0.20058423 1.1124136 -0.8007007 0.490981 0.0010662954 -0.7698149
0.9028543 -0.032561183 -0.057015747 -0.462912 0.42100698 1.6551236 -0.01656394 -0.09169484
-0.10377245 1.3722038 -0.56997776 0.13871637 -0.9161767 0.957054 -0.0015847605 -0.95231515
-0.078071356 -0.7290352 -0.78142154 0.014047361 0.017337337 -0.8260877 0.66130817 -0.8392855
-0.5304376 0.47699332 0.00223549 -0.7654179 -0.500327 2.84905 0.56017345 1.0580995
0.34481597 -0.737751 -0.7767383 0.07502533 -0.8160328 0.99502444 -0.15380144 1.3191096
0.30806008 0.02866508 -0.11785491 0.016090795 0.050620146 0.65227866 0.020151895 -0.7947855
0.51661104 -0.90283555 -0.03858275 0.16808777 0.015835157 0.19226734 -0.49639893 -0.99348485
-0.8608994 1.5007206 -0.695615 1.9792691 0.46726078 -0.5889591 -0.30765226 -0.037362747
-0.6232829 -0.73401606 1.0885538 -0.66116667 -0.6374743 -0.53105384 -0.92938864 -0.13536248
-0.3182318 1.3700043 0.08772431 -0.76260686 -0.10931947 0.11561802 -0.05462644 -0.59130216
0.07399055 -0.7151789 2.3771677 -0.81778866 -0.42652565 -0.029578831 0.002861252 -0.8034236
-0.5886337 -0.07056907 0.08682336 0.010156689 0.03739223 -0.7623979 -0.063811876 -0.031316962
-0.6206876 -0.578931 -0.95631665 -0.40235317 0.043487437 0.035099268 -0.8812425 -0.4797759
0.044973943 -0.32634014 0.08731584 -0.7042154 -0.008635821 -0.96343344 0.06411978 0.052667208
-0.68522996 -0.61830103 -0.014674566 0.5050836 -0.31623468 -0.6544586 0.012223524 0.05132881
-0.035411496 -0.6951018 2.4921393 0.6413501 -0.86333394 0.26311052 0.024615614 -0.921826
0.7450829 -0.43474913 0.045979377 -0.79528224 0.72624165 2.2961488 0.036074203 -0.9168533
0.39116162 0.784827 -0.46359932 0.17917839 -0.8692511 0.7389881 -0.023090342 -0.87904626
0.050106153 -0.47782618 -0.017011225 0.017660383 -0.0073025106 -0.70200557 0.52917176 -0.5467216
-0.68985444 0.6956566 -0.07023016 -1.0013216 -0.12244226 1.7003334 1.4225482 0.65529674
-0.40337715 -0.43988523 -0.83132356 -0.037553262 -0.27742806 0.85555327 -0.086117 0.9844275
0.6330851 0.056612644 -0.96002007 0.047141492 0.0073523493 0.743811 -0.03239258 -0.7951468
0.6313257 -1.0199343 0.032112215 1.6175861 -0.061936434 0.1515921 -0.64711183 -0.8810268
-1.2800909 1.1022619 -0.5404847 1.6269572 0.9035801 -0.9097647 -1.1501895 -0.06390449
-0.44823658 -0.8340241 -0.18031119 -0.8625604 -0.53523034 -0.7793599 -0.83387274 -0.35332483
-0.66692346 1.1472884 0.037236203 -0.22570546 -0.8376907 0.6531776 0.030863028 -0.80898595
0.020314476 -0.9326428 2.299639 -0.50080574 -0.5570058 0.066904515 0.07549898 -0.7884572

out.bias f4 [4]
00000000: 17d0 fbbc 71b2 bf3d 5aa2 983d d030 d03e
-0.030738873 0.09360207 0.07452841 0.4066224
