DQN/models/dqn_ep100_20250415_142513.pth (torch, 75580 bytes, 6 tensors)

fc1.weight f4 [128, 8]
0	0xbf1167b4	-0.56798863
1	0xbe70432b	-0.23463123
2	0xbfb46fba	-1.4096596
3	0x3e0af159	0.1356863
4	0x3eb06fe8	0.34460378
5	0xbef2dea3	-0.47435483
6	0x3f0bab15	0.54557925
7	0x3e5f23ad	0.21790953
8	0xbe993e5b	-0.29930386
9	0x3f1eb9e5	0.620024
10	0xbed8bbe6	-0.42330855
11	0xbea52063	-0.32251272
12	0x3e15ed7a	0.14641371
13	0x3f0349c2	0.5128442
14	0xbfb7f899	-1.4372741
15	0xbf3f55f0	-0.74740505
16	0x3f938fbb	1.1528238
17	0xbe57ee6b	-0.21087043
18	0x3e1644b3	0.14674644
19	0xbf68563e	-0.90756595
20	0x3950fb76	0.00019930102
21	0xbe9c8a74	-0.3057438
22	0x3ebe764a	0.37199622
23	0xbddccbf2	-0.10781087
24	0x3e6ae1bf	0.22937678
25	0x3f1a42d3	0.60258216
26	0xbe848ef0	-0.25890303
27	0xbe2844ea	-0.16432539
28	0xbefe5401	-0.49673465
29	0xbe3f382f	-0.18673776
30	0x3c52827b	0.012848492
31	0xbef0579b	-0.46941838
32	0x3c08ee09	0.008357533
33	0x3ef6545c	0.48111236
34	0xbdaa6fb4	-0.08322087
35	0x3e65844e	0.22413751
36	0x3dcfbfa3	0.10143974
37	0x3eaab046	0.3333761
38	0x3d8ea1f6	0.06964485
39	0x3ccff6f4	0.025386311
40	0xbf65044e	-0.89459693
41	0xbfe90cf8	-1.8207083
42	0xbea999ea	-0.3312524
43	0x3cae8410	0.021303207
44	0xbe07478e	-0.1321089
45	0x3c9782a6	0.018494915
46	0xbeee974f	-0.46599814
47	0x3eff5931	0.49872735
48	0xbd59c9a7	-0.053170826
49	0xbe45d516	-0.19319567
50	0x3c8668a6	0.016407322
51	0x3e847194	0.25867903
52	0x3e2017d1	0.15634085
53	0xbdd21b90	-0.102591634
54	0xbd2d733e	-0.04234623
55	0x3da4be7d	0.08044145
56	0xbd69e58c	-0.05710368
57	0x3f479483	0.77960986
58	0xbf17bc9e	-0.5927218
59	0xbde695b7	-0.112590246
60	0xbed1f623	-0.410081
61	0xbf1fa3ac	-0.6235912
62	0xbeda94df	-0.42691705
63	0xbf8aa126	-1.0830429
64	0x3f30b74c	0.6902969
65	0xbee8e669	-0.4548829
66	0xbeeda39e	-0.46413893
67	0xbf9b3123	-1.212437
68	0x3f679199	0.9045654
69	0xbd2c27ca	-0.042030133
70	0x3d0d6788	0.034522563
71	0x3e0c9dc5	0.1373206
72	0xbf67b542	-0.9051095
73	0xc05cfbb4	-3.4528627
74	0x3d8210e3	0.06350877
75	0xbecc01a6	-0.39845008
76	0x3ea06f0d	0.31334725
77	0xbef76739	-0.4832094
78	0x3de720d4	0.11285558
79	0xbe36d4c8	-0.17854607
80	0xbe20e735	-0.15713198
81	0x3e5ca833	0.21548538
82	0xbe7fb5c9	-0.2497169
83	0x3e96a34e	0.29421467
84	0x3e8fab2e	0.28060287
85	0x3f1b8020	0.6074238
86	0x3eb2da89	0.34932354
87	0xbd82a2a0	-0.063786745
88	0xbdbed992	-0.09318842
89	0xbf59032c	-0.84770465
90	0x3d71f642	0.05907274
91	0xbf93b734	-1.1540284
92	0x3eed7cc6	0.46384257
93	0x3ecaf964	0.39643395
94	0x3e01e9ee	0.12686893
95	0xbe1cc4ab	-0.15309398
96	0x3f7fb583	0.9988634
97	0x3e2fe31e	0.17176482
98	0x3f2a4cdb	0.6652352
99	0x400b29f2	2.1744351
100	0x3f46f878	0.77722883
101	0x3e1ed665	0.15511473
102	0xbec55f17	-0.3854911
103	0x3ea99877	0.33124134
104	0x3ec72c80	0.38901138
105	0xbd8b760f	-0.06809627
106	0xbe0f7afb	-0.14011757
107	0x3f0a9ec9	0.54148537
108	0x3e2c8606	0.16848001
109	0x3f097f0e	0.53709495
110	0x3b55c13d	0.00326164
111	0x3edab047	0.42712614
112	0xbf56e2ba	-0.8393971
113	0xbeca28ca	-0.39484245
114	0x3eb16d69	0.34653786
115	0x3efb640b	0.49099764
116	0xbfcff5a9	-1.6246845
117	0x3e77768d	0.24166317
118	0xbdaa1041	-0.083038814
119	0x3f079371	0.5295935
120	0xbecadde3	-0.3962241
121	0x3e4fbe65	0.20287473
122	0x3ea25b50	0.3171029
123	0xbe9e2457	-0.308871
124	0xbe8a7556	-0.27042645
125	0x3ea24df3	0.31700096
126	0x3cbd83fa	0.02313422
127	0x3e664392	0.22486714
128	0x3e28aa09	0.16471113
129	0x3f5120ec	0.8169086
130	0xbe2704af	-0.1631038
131	0x3d740d6e	0.05958312
132	0xbe2022de	-0.15638301
133	0x3d931c48	0.071831286
134	0xbc574301	-0.013138534
135	0xbb80da96	-0.0039323075
136	0xbf362269	-0.71146256
137	0x3d11791d	0.035515893
138	0xbf304a69	-0.6886354
139	0xbf1d9d9c	-0.6156862
140	0x3d5f7320	0.05455315
141	0xbf4b92ad	-0.79520684
142	0x3efd7a96	0.49507588
143	0x3e8c3df2	0.2739101
144	0xbf23d67f	-0.6399917
145	0x3d8c1e68	0.06841737
146	0xbd6f3e0e	-0.05840879
147	0x3d027556	0.03185018
148	0x3cdec888	0.02719523
149	0xbfa543d1	-1.2911321
150	0xbba8543b	-0.005136994
151	0xbe5f5f16	-0.21813616
152	0x3ecd1852	0.40057617
153	0xbdf6a118	-0.12042445
154	0xbef21c1f	-0.4728708
155	0x3db27762	0.08714177
156	0xbda5f0c7	-0.08102565
157	0x3f36886a	0.713019
158	0x3f51ee6e	0.8200444
159	0x3d234870	0.039864004
160	0xbea0c052	-0.3139673
161	0x3e93e049	0.28882053
162	0xbd1a7b45	-0.037715215
163	0x3e52cdf3	0.20586376
164	0xbd661569	-0.056172762
165	0x3f3d31b1	0.7390395
166	0xbe3059f1	-0.1722181
167	0x3ee11529	0.43961456
168	0xbf734731	-0.95030504
169	0x3ca0e5d7	0.019640846
170	0xbdcc8a8e	-0.09987365
171	0xbf35b8aa	-0.709849
172	0xbf44fda8	-0.7694955
173	0x3eb92a58	0.36165118
174	0x3e894f6b	0.26818404
175	0xbea4b142	-0.32166487
176	0x3f52a6b1	0.822856
177	0xbb71e75a	-0.0036911578
178	0x3f9728ff	1.1809386
179	0xbf81c998	-1.0139647
180	0x3f625d1f	0.8842334
181	0xbef2f182	-0.4744988
182	0xbecad310	-0.39614153
183	0x3dd8feed	0.10595498
184	0xbe52993b	-0.20566265
185	0x3eaeb074	0.34118998
186	0xbf5547ce	-0.8331269
187	0x3f76b2d9	0.9636665
188	0x3d94558f	0.072428815
189	0xbfc0362e	-1.5016534
190	0x3e50c983	0.2038937
191	0xbe8b0363	-0.2715102
192	0x3fb1c19b	1.3887209
193	0x3f231d84	0.6371691
194	0x3da3d798	0.080001056
195	0xbe962a92	-0.29329354
196	0xbe602fdd	-0.21893258
197	0xbf18ac4b	-0.596379
198	0x3d8df3a5	0.06931237
199	0x3e34cc71	0.17656113
200	0xbf8c50c4	-1.0962148
201	0xbe01320c	-0.12616748
202	0x3f8a4a84	1.080399
203	0xbfb2ad1e	-1.3959081
204	0x3fdad03f	1.7094802
205	0x3e5b3d80	0.21410179
206	0x3cc693d2	0.024240408
207	0xbe82edae	-0.2557196
208	0xbe0f2170	-0.13977599
209	0xbd8a371c	-0.067487925
210	0xbc879c32	-0.016553972
211	0x3eb1b4b4	0.34708178
212	0x3d47071e	0.04859077
213	0xbe08add9	-0.13347568
214	0xbe6944b4	-0.22780114
215	0x3bbf8abd	0.0058453963
216	0xbe0eb4bb	-0.1393613
217	0xbe3ff6c6	-0.1874648
218	0x3d79978b	0.06093554
219	0x3e2a538e	0.16633436
220	0xbd3ee410	-0.046604216
221	0xbd89610c	-0.06707963
222	0xbe28dc10	-0.16490197
223	0xbe92ee08	-0.28697228
224	0xbee7bac0	-0.45259666
225	0x3e7038d1	0.23459174
226	0xbc5f67ed	-0.013635618
227	0x3f1f9afa	0.6234585
228	0xbf335495	-0.70050937
229	0xbf033669	-0.512549
230	0x3efcbd08	0.4936297
231	0xbe8bb79e	-0.27288526
232	0xbdb5d221	-0.088779695
233	0xc000fca6	-2.0154204
234	0x3e36f5be	0.1786718
235	0x3f0bc362	0.54595006
236	0xbf3a013f	-0.7265815
237	0xbf16a9d6	-0.588529
238	0xbe748361	-0.23878242
239	0x3ed5b743	0.4174138
240	0xbef4cebf	-0.47813985
241	0xbf101cbd	-0.5629385
242	0xbb7d10ac	-0.0038614674
243	0xbf84a1d5	-1.0361887
244	0x3e8d6b50	0.27620935
245	0x3debb0a9	0.115083046
246	0xbc55ff30	-0.01306133
247	0x3eea35ee	0.4574427
248	0x3c54f4f2	0.012997853
249	0x3f19cbeb	0.6007678
250	0x3e94ea67	0.29085085
251	0x3f1a76a5	0.6033729
252	0xbf2db9e0	-0.6786175
253	0xbf9b9259	-1.2154037
254	0xbfcc13de	-1.5943563
255	0xbf950841	-1.1643144

fc1.bias f4 [128]
0	0x3e8117ba	0.25213414
1	0x3f1e2e28	0.6178918
2	0x3ef20018	0.47265697
3	0x3f4ae089	0.79248863
4	0x3f1a3d50	0.60249805
5	0x3eb3b43a	0.3509844
6	0xbeaf2b60	-0.3421278
7	0xbe9f6668	-0.31132817
8	0xbeaf447b	-0.34231934
9	0x3d8ef702	0.06980707
10	0x3dff03a6	0.12451868
11	0xbeb9cde6	-0.362899
12	0xbedafeda	-0.4277256
13	0x3e7b4df8	0.24541461
14	0x3f0d3702	0.5516206
15	0x3ec1b842	0.3783589
16	0x3f32de66	0.69870603
17	0x3eb639c3	0.35590944
18	0x3ea21162	0.31653887
19	0x3f1cb4ab	0.6121318
20	0x3f5759b7	0.8412127
21	0x3e3ac60e	0.18239614
22	0x3e2e706d	0.17035075
23	0x3f154e96	0.5832304
24	0x3dce62e4	0.10077456
25	0x3eafcfd3	0.34338245
26	0xbea77aeb	-0.32710966
27	0xbe52e521	-0.20595218
28	0x3f6a0a28	0.9142175
29	0x3efd5595	0.49479356
30	0xbea6fa64	-0.32612908
31	0x3ea182fd	0.3154525
32	0xbdc2c90a	-0.095110014
33	0x3e16c14c	0.14722174
34	0x3ed34c57	0.4126918
35	0x3e88e26c	0.26735246
36	0xbdf40f73	-0.11917009
37	0x3f4e3d6a	0.8056246
38	0xbf0bc842	-0.54602444
39	0x3e42c685	0.19021042
40	0x3da10d53	0.078638695
41	0x3ee5d7de	0.44891256
42	0x3e86906e	0.26282066
43	0xbd846555	-0.0646464
44	0x3e727bcb	0.23680036
45	0x3c70c5ab	0.014695565
46	0x3e3ef0e0	0.18646574
47	0xbf00f7f4	-0.50378346
48	0xbe98ecf2	-0.29868275
49	0x3e03429f	0.12818383
50	0x3ea2d717	0.31804726
51	0x3f361cf0	0.71137905
52	0x3f77f7ae	0.96862304
53	0x3f073740	0.5281868
54	0x3ec82889	0.39093426
55	0x3dd8cbe1	0.10585762
56	0x3d4c504f	0.049881276
57	0x3f1756c6	0.5911678
58	0xbdeaa44b	-0.11457118
59	0xbe31f8cb	-0.17380063
60	0x3e602a38	0.21891105
61	0xbec604dd	-0.38675585
62	0xbeba6edb	-0.364127
63	0xbcc20a0e	-0.023686435
64	0x3f0e146d	0.5549992
65	0x3f63ee68	0.89035654
66	0xbea055c6	-0.3131544
67	0x3e9283c7	0.28616163
68	0x3ec1b30c	0.37831914
69	0xbe25392a	-0.16135088
70	0xbdafde24	-0.08587292
71	0xbe235486	-0.15950212
72	0xbdf4ff74	-0.11962786
73	0x3f1db43b	0.61603135
74	0x3d8706be	0.06593083
75	0x3f593bc8	0.84856844
76	0xbeaae9a2	-0.33381373
77	0xbeb31b9f	-0.3498201
78	0x3f171606	0.5901798
79	0x3f3a866d	0.7286137
80	0xbdfc0a07	-0.123066
81	0xbece8c24	-0.40341294
82	0x3d053132	0.03251762
83	0x3d58eddd	0.05296122
84	0x3f898b14	1.0745568
85	0xbebfc250	-0.37452936
86	0xbd2a3bbf	-0.041560885
87	0x3e7d714f	0.24750255
88	0xbe286e5c	-0.16448349
89	0xbe27bbb5	-0.16380198
90	0xbf395ce2	-0.7240735
91	0x3da589a1	0.08082891
92	0x3da06984	0.078326255
93	0xbd9c018a	-0.07617481
94	0x3f1d019c	0.6133058
95	0xbe2e0182	-0.16992763
96	0x3ce35943	0.027752524
97	0x3f7c855b	0.98640984
98	0x3ead4f9b	0.33849797
99	0x3f0ab33f	0.5417976
100	0x3e2ed7c7	0.170745
101	0x3f4b93a8	0.7952218
102	0x3eaf64f0	0.34256697
103	0x3f1d553a	0.6145817
104	0x3dee98ed	0.11650262
105	0xbd3a21d7	-0.04544243
106	0x3eb1d3d5	0.34731928
107	0x3ec018fd	0.37519065
108	0xbee92d63	-0.4554244
109	0x3f0cd5f8	0.5501399
110	0xbe9060b7	-0.28198788
111	0x3f52f519	0.8240524
112	0x3ef3ea82	0.47639853
113	0xbe3a82ea	-0.18214002
114	0x3d288548	0.041142732
115	0xbeddcaa4	-0.43318665
116	0xbcd0bc3b	-0.02548038
117	0x3ede84e4	0.43460763
118	0x3d901ee5	0.07037143
119	0xbe141b6e	-0.14463589
120	0x39b6de2c	0.00034879276
121	0xbeaecf34	-0.34142458
122	0x3edd818a	0.43262893
123	0x3f1482b0	0.58011913
124	0xbea0fb74	-0.31441844
125	0xbeee7b2a	-0.46578342
126	0xbed430f7	-0.41443607
127	0x3f6cc597	0.92489

fc2.weight f4 [128, 128]
0	0xbb65cee8	-0.0035065953
1	0xbef054b8	-0.46939635
2	0x3edd7467	0.4325287
3	0xbdc43794	-0.09580913
4	0xbd121fd0	-0.03567487
5	0x3c92f08e	0.017936971
6	0xbc7904ed	-0.015198928
7	0xbf3c4054	-0.73535657
8	0x3f08616a	0.5327364
9	0xbe7dc16b	-0.24780814
10	0x3e136348	0.14393342
11	0x3e346f72	0.17620638
12	0xbf45fe98	-0.77341604
13	0x3e51d3e1	0.20490982
14	0xbf3ce471	-0.73786074
15	0x3c5abb5e	0.013350336
16	0xbdac3264	-0.08408049
17	0x3ea1e6b2	0.3162132
18	0x3e11bae6	0.14231452
19	0x3cfbb65c	0.030726604
20	0xbdd5de30	-0.104427695
21	0xbd36a345	-0.0445893
22	0xbf4f95c1	-0.8108788
23	0xbdf61ede	-0.12017606
24	0xbe701843	-0.23446755
25	0xbf495a74	-0.78653646
26	0x3d144d17	0.03620633
27	0xbcab390c	-0.020901226
28	0xbea87a68	-0.3290589
29	0xbe73fbac	-0.23826474
30	0x3e2f9014	0.17144805
31	0x3eddc4c1	0.43314174
32	0xbdbd88c0	-0.092545986
33	0xbdb5aa30	-0.08870351
34	0x3d7cad3f	0.061688658
35	0x3ebaa4b9	0.36453798
36	0x3edcb08d	0.43103448
37	0xbcb8fd7e	-0.022581812
38	0x3f801676	1.0006855
39	0xbe7f084a	-0.24905506
40	0xbdedae75	-0.11605541
41	0x3e291484	0.16511732
42	0xbd94b038	-0.072601736
43	0x3f27e51d	0.65583974
44	0x3e45ea82	0.19327739
45	0x3f09192f	0.5355405
46	0x3d7c8b77	0.06165644
47	0x3d1b6c5e	0.037945144
48	0xbd5fecfb	-0.05466936
49	0x3f37f769	0.7186189
50	0x3c7561e6	0.014976954
51	0x3cb231fe	0.021752354
52	0xbddb7fcf	-0.10717737
53	0x3db396b6	0.0876898
54	0x3e39f283	0.18158917
55	0x3e3d7b58	0.18504083
56	0x3e43408b	0.1906759
57	0xbec9b263	-0.3939391
58	0xbeeb9f51	-0.46019986
59	0xbfeeffc6	-1.8671806
60	0x3e7153d2	0.23567131
61	0x3f12de27	0.5737023
62	0x3f0d7054	0.55249524
63	0x3e250c7f	0.16118048
64	0x3d07a5fe	0.033117287
65	0xbdefa89d	-0.11702082
66	0x3da57f8c	0.08080968
67	0xbf38dfbf	-0.7221641
68	0x3f3eecd6	0.7458013
69	0xbf267a51	-0.6503039
70	0xbeb3b745	-0.3510076
71	0x3f02c149	0.5107618
72	0xbf4d57fe	-0.8021239
73	0x3eb86025	0.36010852
74	0x3d06052c	0.032719776
75	0xbd84e1f5	-0.064884104
76	0xbd0a5222	-0.033769734
77	0x3e5e46c4	0.21706682
78	0x3cb93446	0.022607934
79	0xbe83c10e	-0.25733227
80	0x3f6dcf69	0.9289461
81	0x3f766ba2	0.96257985
82	0x3ec92e7b	0.39293274
83	0xbe652dc5	-0.22380741
84	0xbd9fe8d7	-0.078080826
85	0xbdb15985	-0.086596526
86	0x3e417ca5	0.18895204
87	0x3d308073	0.04309125
88	0xbf040b93	-0.5158016
89	0x3ee5f26e	0.44911522
90	0xbf07b9b1	-0.5301772
91	0x3f7a98fb	0.9788968
92	0xbf647d54	-0.89253736
93	0x3c1d22ce	0.009590818
94	0xbdba79df	-0.09105276
95	0xbe8de314	-0.2771231
96	0x3cd1e17f	0.02562022
97	0xbd25e9e0	-0.040506244
98	0xbe1b01d3	-0.15137415
99	0x3d5157f4	0.05110927
100	0x3df9cece	0.12197648
101	0xbd8491b3	-0.064731024
102	0x3e89e14a	0.26929694
103	0xbf137b0e	-0.5760964
104	0x3e712ba0	0.23551798
105	0x3e36c908	0.17850125
106	0xbcce6fa5	-0.02519972
107	0x3e0567d3	0.13027887
108	0x3d16b7aa	0.03679625
109	0x3c3b1786	0.011419183
110	0x3e16bb4b	0.14719884
111	0xbe25c76f	-0.16189359
112	0x3d19e8af	0.03757542
113	0x3c25cb4a	0.010119269
114	0x3c8e1fcf	0.017349152
115	0x3eaf9f85	0.3430139
116	0xbf70014a	-0.93751967
117	0x3c67c2da	0.014145577
118	0xbc81c441	-0.015840651
119	0xbe3a1963	-0.18173747
120	0xbe0a1ce2	-0.1348758
121	0x3e71e8b4	0.23623925
122	0x3e774bd4	0.2415002
123	0x3e8757f8	0.26434302
124	0x3e727efd	0.23681255
125	0x3ee26d0b	0.44223818
126	0x3f90b640	1.1305618
127	0xbd729388	-0.059222728
128	0xbdd1c923	-0.10243442
129	0xb8a0d1a6	-7.6684446e-05
130	0x3d3760e7	0.044770148
131	0xbd3b1b1d	-0.045680154
132	0xbdfc8708	-0.12330443
133	0xbc96dd40	-0.018416047
134	0x3d6aa33d	0.057284582
135	0x3d887491	0.06662858
136	0x3d2e160c	0.042501494
137	0x3d95d1d6	0.07315414
138	0xbd690b26	-0.056895398
139	0x3c0106d9	0.007875168
140	0x3d862e88	0.06551844
141	0x3cf3f2be	0.029778834
142	0xbd42e4c3	-0.047581445
143	0xbd352b6a	-0.044230856
144	0xbd85e1a2	-0.06537177
145	0xbd429e59	-0.047514293
146	0xbd22b32b	-0.03972165
147	0xbd33afc6	-0.043868802
148	0x3c64b462	0.013959022
149	0x3d555685	0.052084465
150	0xbd7c92b2	-0.061663337
151	0xbd5701cc	-0.052491948
152	0xbd0bd400	-0.034137726
153	0xbd0606c0	-0.03272128
154	0xbd6e5104	-0.05818273
155	0xbd405ad9	-0.04696164
156	0xbda54a73	-0.08070841
157	0xbd8075cd	-0.06272469
158	0x3c4b6cbe	0.012416063
159	0x3ccc270f	0.024920968
160	0x3d1176db	0.03551374
161	0xbcc6b72c	-0.024257265
162	0x3d15a51f	0.036534425
163	0xbd978f03	-0.07400324
164	0x3d45e15d	0.048310626
165	0xbd5626db	-0.05228315
166	0x3d8346e9	0.064100094
167	0xbdb5f1a7	-0.08883982
168	0x3d22fe3e	0.039793245
169	0xbdac1eab	-0.08404287
170	0x3caa4f53	0.020789778
171	0xbd4cf39c	-0.05003701
172	0xbc757cde	-0.014983384
173	0xbc940f00	-0.018073559
174	0xbc074773	-0.008256781
175	0xbdfe5d87	-0.12420183
176	0xbd0c10cc	-0.034195706
177	0xbccac8aa	-0.024753887
178	0xbd1980f9	-0.037476514
179	0xbdccfff5	-0.100097574
180	0xbda3f6a3	-0.080060266
181	0xbdadb025	-0.084808625
182	0xbd9ec611	-0.07752622
183	0x3d2d4df9	0.04231069
184	0x3cd58e4b	0.026068827
185	0x3c977c34	0.018491842
186	0xbd6339ac	-0.055474922
187	0xbd0fb33f	-0.03508305
188	0xbb143981	-0.0022617283
189	0xbdaec0df	-0.08532881
190	0xbce538f5	-0.02798126
191	0x3c67e92c	0.014154714
192	0xbd9028a0	-0.070389986
193	0xbdb9c842	-0.09071399
194	0x3c212293	0.009834903
195	0xbc84cb3f	-0.016210197
196	0xbd6e7fb8	-0.05822727
197	0xbc1317a1	-0.008977802
198	0xbd47b1f9	-0.048753712
199	0xbdf15237	-0.11783259
200	0x3d230c79	0.039806817
201	0x3d4a0d43	0.049329054
202	0xbd255e9d	-0.040373433
203	0xbd6cb4d0	-0.057789624
204	0xbdbb8c71	-0.091576464
205	0xbde23046	-0.11044364
206	0xbd1acd9e	-0.037793748
207	0xbc6b0ca4	-0.0143462755
208	0xbcb0de2d	-0.021590317
209	0xbd2c3350	-0.042041123
210	0x3c690aee	0.014223797
211	0xbd480259	-0.048830364
212	0xbd68263b	-0.056677084
213	0x3b85e95a	0.0040866556
214	0xbc7fb86c	-0.015607934
215	0xbda74963	-0.08168294
216	0xbce45fb0	-0.027877659
217	0x3ab09c0e	0.0013474242
218	0x3b993216	0.00467516
219	0xbddede78	-0.10882276
220	0x3c0f6292	0.008751528
221	0xbd77eee9	-0.060530577
222	0xbe020e1f	-0.127007
223	0xbd8a0d4c	-0.067408174
224	0xbd2b87ce	-0.04187756
225	0x3d548d8e	0.05189281
226	0xbd65178c	-0.05593066
227	0x3d1b7706	0.037955306
228	0xbccd2d70	-0.02504608
229	0x3d2097cf	0.039207276
230	0x3c877b31	0.016538234
231	0xbd0b32d7	-0.03398403
232	0xbdcfcbdb	-0.10146304
233	0xbd990897	-0.074723415
234	0x3cf7254f	0.030169157
235	0xbd322405	-0.043491382
236	0xbc4779ed	-0.012175065
237	0xbd9dc8b5	-0.077042975
238	0xbdc66561	-0.09687305
239	0x3c5b9f36	0.013404658
240	0xbd4940fb	-0.049134236
241	0x3bbd53a9	0.0057777953
242	0xbd5d29fa	-0.05399511
243	0xbaa47ed6	-0.0012550007
244	0xbbc57f54	-0.0060271416
245	0x3cd51954	0.026013054
246	0xbd2de806	-0.042457603
247	0xbc3938d1	-0.01130505
248	0xbd5c1130	-0.05372733
249	0xbda74bd4	-0.0816876
250	0xbcdc1d67	-0.026869489
251	0xbd233339	-0.03984377
252	0xbd2d2ad6	-0.04227718
253	0xbd18a555	-0.037267048
254	0xbbb57e21	-0.0055387174
255	0xbd9672ca	-0.07346113

fc2.bias f4 [128]
0	0xbe1a46cc	-0.1506607
1	0xbd141921	-0.036156777
2	0xbc1809c6	-0.009279674
3	0xbdcb22ce	-0.09918748
4	0x3d2663a7	0.04062238
5	0x3e8f5028	0.27990842
6	0x3c6e4737	0.014543346
7	0xbda52d3c	-0.080652684
8	0x3e3a2ca6	0.18181095
9	0x3f030c60	0.5119076
10	0x3dfa258b	0.12214192
11	0x3e5434e5	0.20723303
12	0xbddc34c4	-0.10752252
13	0xbc71e655	-0.014764388
14	0x3de7092d	0.11281047
15	0xbdd83915	-0.105577625
16	0x3ecb439d	0.39700022
17	0x3e2cdd3f	0.16881274
18	0x3ccb53da	0.024820257
19	0x3e0ad0a0	0.13556147
20	0xbde5c731	-0.11219633
21	0x3f0f78fe	0.56043994
22	0x3c66171e	0.0140435975
23	0xbde21238	-0.11038631
24	0x3d909a12	0.070606366
25	0x3e98600f	0.29760787
26	0xbdf78e14	-0.12087646
27	0x3e54b2f7	0.20771395
28	0x3e252387	0.16126834
29	0xbd2027d4	-0.039100483
30	0xbd31465f	-0.04328
31	0xbd996b71	-0.07491196
32	0xbd87e3a1	-0.06635214
33	0xbe41cbe1	-0.1892543
34	0x3e49cff2	0.19708231
35	0x3dd28508	0.1027928
36	0xbc9d3161	-0.019188585
37	0x3eb076ae	0.34465545
38	0x3d4a7870	0.049431264
39	0x3ecf78d6	0.40521878
40	0x3eea9a3e	0.45820802
41	0x3eec3904	0.4613725
42	0xbd3c1c3d	-0.045925368
43	0xbdb2d551	-0.08732093
44	0xbe1bf9ae	-0.15231964
45	0x3eb40a4d	0.3516411
46	0xbd60d5f6	-0.05489155
47	0xbe0c1e70	-0.13683486
48	0x3eb8a801	0.36065677
49	0x3f06463b	0.52450913
50	0x3e47063a	0.19435969
51	0xbd8973d0	-0.067115426
52	0x3e750aea	0.23929945
53	0x3e837699	0.2567642
54	0xbdba3689	-0.09092433
55	0x3e082537	0.13295446
56	0x3cf38ab4	0.029729225
57	0xbc6b7538	-0.014371209
58	0xbcce2e35	-0.025168518
59	0xbd9611d5	-0.0732762
60	0xbd9d89a6	-0.0769227
61	0x3e89b2a4	0.26894104
62	0x3ef1a105	0.4719316
63	0x3c7e6376	0.015526643
64	0xbd176e4a	-0.036970414
65	0x3e7bbb72	0.24583223
66	0xbd15f8db	-0.03661428
67	0x3e8b9fde	0.27270406
68	0x3e6e046a	0.23243871
69	0x3edd51f5	0.4322659
70	0x3ef9eb8e	0.48812526
71	0x3edc0ed4	0.42980063
72	0x3eade605	0.33964553
73	0x3efc3151	0.49256375
74	0x3d96a9ab	0.0735658
75	0xbdc621a1	-0.09674383
76	0x3cafd271	0.021462651
77	0x3edbc003	0.4291993
78	0xbe13eddc	-0.14446205
79	0x3d7b5ce7	0.061367895
80	0x3e3d0371	0.18458344
81	0xbdbe4e05	-0.09292225
82	0xbe370ca1	-0.17875911
83	0xbdad86ac	-0.08472952
84	0xbd5aaaf9	-0.05338571
85	0x3e4a8964	0.19778973
86	0xbc0996f4	-0.008397806
87	0x3b9b8b54	0.004746834
88	0x3d941466	0.07230453
89	0x3db62595	0.08893887
90	0xbddb54f6	-0.107095644
91	0x3e92f2b1	0.28700784
92	0xbc9f2ad8	-0.01942961
93	0x3e153b86	0.14573488
94	0x3ebd5841	0.36981395
95	0x3d29c5da	0.04144845
96	0xbd696114	-0.056977347
97	0x3e30b3a3	0.17256026
98	0x3ea229b9	0.31672457
99	0x3e1f348d	0.1554739
100	0x3eee0f59	0.46496084
101	0xbdd746f7	-0.10511582
102	0x3e19c6e8	0.15017283
103	0x3d712d3d	0.058881033
104	0x3f04adfe	0.5182799
105	0x3d540e6c	0.051771566
106	0xbd68ed8c	-0.056867167
107	0xbd8028bf	-0.06257772
108	0x3e10891a	0.141148
109	0xbd168880	-0.03675127
110	0xbda1a536	-0.078928396
111	0x3e36758f	0.17818283
112	0x3abacc2b	0.0014251521
113	0x3f24f817	0.64441055
114	0x3d6c83d1	0.057742897
115	0x3e0b5636	0.13607106
116	0x3ea2ddbf	0.31809804
117	0x3eb2c138	0.3491304
118	0xbdc7f525	-0.097635545
119	0x3e2d3081	0.16913034
120	0xbda791e3	-0.081821226
121	0xbdb914e9	-0.090371914
122	0x3e23ccc0	0.15996075
123	0x3ec642c3	0.3872281
124	0x3e2a4fc1	0.16631986
125	0x3d1bd685	0.03804638
126	0xbd4e18bd	-0.05031656
127	0x3d13fb8e	0.036128573

out.weight f4 [4, 128]
0	0xbe5baf98	-0.21453702
1	0xbbff14b3	-0.00778445
2	0x3d7a189e	0.061058633
3	0xbd340524	-0.043950215
4	0xbd5a11a9	-0.0532395
5	0xbf843d63	-1.0331234
6	0x3d1c1a62	0.038111098
7	0x3d074579	0.03302524
8	0xbe1fceb1	-0.1560619
9	0xbed587bd	-0.41705123
10	0xbf15ee3a	-0.5856663
11	0xbec3a996	-0.3821532
12	0x3ad9e57f	0.0016624181
13	0xbd4c53c0	-0.049884558
14	0xbf262a74	-0.6490853
15	0xbe9c0301	-0.30471042
16	0x3f23d0fc	0.6399076
17	0xbf53abec	-0.82684207
18	0x3cc718b8	0.024303779
19	0xbf59bce4	-0.8505385
20	0xbcbc6f45	-0.023002276
21	0xbe89eacd	-0.2693695
22	0xbd113965	-0.035455126
23	0x3b95a544	0.0045668203
24	0xbe52bfc3	-0.20580964
25	0xbed1eeb7	-0.41002437
26	0xbd04c557	-0.03241476
27	0x3f184085	0.5947345
28	0xbefded42	-0.49595076
29	0xbe922d8e	-0.2855038
30	0xbb07fdb2	-0.002075058
31	0x3b4653db	0.0030262384
32	0x3c3ef0a2	0.011654051
33	0xbf63adc7	-0.8893704
34	0xbeadd112	-0.3394857
35	0x3f76e949	0.96449715
36	0xbf0e0d05	-0.55488616
37	0x3f11a185	0.56887084
38	0x3a8bc2f0	0.0010662954
39	0xbedd275a	-0.43194085
40	0x3f774d73	0.96602553
41	0x3e3be6c7	0.18349753
42	0xbc919d02	-0.017775062
43	0xbee63c75	-0.44968
44	0x3e75881f	0.23977707
45	0x3f9e9059	1.2387801
46	0xbc87b11a	-0.01656394
47	0xbea86873	-0.32892188
48	0xbd8c86d6	-0.068616554
49	0x3fb5a2d4	1.4190316
50	0xbecd7fb7	-0.401365
51	0x3df129ad	0.11775527
52	0xbf1e6b9c	-0.6188295
53	0x3f7d0f0c	0.98851085
54	0xbacfb7bd	-0.0015847605
55	0xbf1aadee	-0.60421646
56	0xbd9fe3e0	-0.078071356
57	0xbf15f2bd	-0.58573514
58	0xbf18ad37	-0.59639305
59	0x3c6626e7	0.014047361
60	0x3c8e0708	0.017337337
61	0xbf218530	-0.63093853
62	0x3f35edaf	0.710658
63	0xbef29647	-0.47380278
64	0xbebd1c7a	-0.36935788
65	0x3ef034fc	0.46915424
66	0x3b12814c	0.00223549
67	0xbea89fab	-0.32934317
68	0xbe8ab3b7	-0.27090237
69	0x40307e62	2.7577138
70	0x3f19a3a6	0.6001533
71	0x3efd42d7	0.49465057
72	0x3e92d673	0.28679237
73	0xbee27b9f	-0.4423494
74	0xbf0fe5d7	-0.5621008
75	0x3d99a6e1	0.07502533
76	0xbf1922d4	-0.5981877
77	0x3f850e8b	1.0395063
78	0xbe897ac9	-0.2685149
79	0x3e748997	0.23880611
80	0x3eadc0b1	0.33936074
81	0x3cead308	0.02866508
82	0x3e611f85	0.2198468
83	0x3c83d0d8	0.016090795
84	0x3d4f5712	0.050620146
85	0x3f24fb34	0.64445806
86	0x3ca51596	0.020151895
87	0xbf1cd114	-0.6125653
88	0x3f075c0d	0.52874833
89	0xbf23d800	-0.64001465
90	0xbd1e08f2	-0.03858275
91	0x3def621b	0.11688634
92	0x3c81b8bb	0.015835157
93	0x3e63d425	0.22248895
94	0xbe897ac4	-0.26851475
95	0xbf2f357c	-0.68440986
96	0xbf19a72e	-0.6002072
97	0x3f80a55d	1.0050465
98	0xbf0280b2	-0.50977623
99	0x3fe325c4	1.77459
100	0x3efcc0e5	0.49365917
101	0xbee2d758	-0.4430492
102	0xbde4e27c	-0.11176011
103	0xbd1909ae	-0.037362747
104	0xbf463dde	-0.7743815
105	0xbee6b530	-0.4506011
106	0x3f23ad26	0.6393608
107	0xbf0567c2	-0.52111447
108	0xbeba6253	-0.3640314
109	0xbe87a926	-0.26496238
110	0xbf46175c	-0.77379394
111	0xbea5f1db	-0.32411084
112	0xbe93b1ab	-0.28846487
113	0x3fb63f82	1.4238131
114	0x3db3a8ce	0.08772431
115	0xbf225cf1	-0.6342307
116	0x3dd4510b	0.1036702
117	0x3e82cdbb	0.25547585
118	0xbd5fbff9	-0.05462644
119	0xbf47ca1e	-0.7804278
120	0x3d97885c	0.07399055
121	0xbee71d41	-0.45139506
122	0x40085787	2.1303422
123	0xbee3af76	-0.44469804
124	0xbe4e7221	-0.20160724
125	0xbcf24f4e	-0.029578831
126	0x3b3b83d8	0.002861252
127	0xbf13d7bd	-0.57751065
128	0xbedff1c4	-0.4373914
129	0xbd908684	-0.07056907
130	0x3db1d072	0.08682336
131	0xbd4034cf	-0.046925362
132	0x3d192898	0.03739223
133	0xbf1193bd	-0.56866056
134	0xbd82afcd	-0.063811876
135	0x39dd4773	0.0004220564
136	0xbef7feca	-0.48436576
137	0xbf11fc3f	-0.5702552
138	0xbf3af944	-0.730366
139	0xbec231de	-0.3792867
140	0x3d321fe2	0.043487437
141	0xbc139cb7	-0.009009532
142	0xbf36cabf	-0.71403116
143	0xbe876a72	-0.264484
144	0x3e4d0c08	0.20024121
145	0xbf1c7863	-0.61121196
146	0x3db2d2a6	0.08731584
147	0xbf2ac446	-0.6670574
148	0xbc0d7d42	-0.008635821
149	0xbf40ed63	-0.75362223
150	0x3d83513b	0.06411978
151	0xbc45b99f	-0.012068181
152	0xbf1c04e1	-0.60944945
153	0xbf0692ff	-0.5256805
154	0xbc706d97	-0.014674566
155	0x3ecffa41	0.40620616
156	0xbed01e34	-0.40648043
157	0xbf056550	-0.52107716
158	0x3c48452d	0.012223524
159	0x3d523e29	0.05132881
160	0xbd110ba5	-0.035411496
161	0xbf08949f	-0.5335178
162	0x3ffe7ad1	1.988123
163	0x3ef0f644	0.47062886
164	0xbedeee6c	-0.43541276
165	0x3ec89dc5	0.3918287
166	0x3cc9a6af	0.024615614
167	0xbe941952	-0.28925568
168	0x3f440e00	0.7658386
169	0xbe88da04	-0.26728833
170	0x3d9f3897	0.077744655
171	0xbf014c14	-0.5050671
172	0x3ece7eed	0.40331212
173	0x400da372	2.213101
174	0x3d13c28b	0.036074203
175	0xbf53e0ab	-0.8276469
176	0x3eea8c83	0.45810327
177	0x3f489d32	0.7836486
178	0xbeb7916e	-0.35853142
179	0x3d5bc7fe	0.053657524
180	0xbf19c201	-0.6006165
181	0x3f2a06c9	0.66416603
182	0xbcbd27f5	-0.023090342
183	0xbec3a1ac	-0.38209283
184	0x3d4d3c1c	0.050106153
185	0xbea500a4	-0.3222705
186	0xbe098c26	-0.13432369
187	0x3c90ac82	0.017660383
188	0xbbef49e6	-0.0073025106
189	0xbf13829b	-0.57621163
190	0x3f01f1ef	0.50759786
191	0xbf163c89	-0.5868612
192	0xbea58925	-0.32331195
193	0x3f2647b4	0.6495316
194	0xbd8fd4d5	-0.07023016
195	0xbf015218	-0.5051589
196	0x3ddb20a4	0.10699585
197	0x3fe08ca7	1.7542924
198	0x3fa931a8	1.3218279
199	0x3f2dc14a	0.6787306
200	0xbe7fc19c	-0.249762
201	0xbefda878	-0.49542594
202	0xbeeca689	-0.46220806
203	0xbd19d173	-0.037553262
204	0xbe9dd953	-0.30829868
205	0x3f5266f1	0.82188326
206	0xbebc4f49	-0.3677924
207	0x3ede8abb	0.43465218
208	0x3f47e7ba	0.7808796
209	0x3d67e2a9	0.056612644
210	0xbef503b8	-0.478544
211	0x3d411770	0.047141492
212	0x3bf0ebfa	0.0073523493
213	0x3f31888c	0.6934898
214	0xbd04ae15	-0.03239258
215	0xbef9b60c	-0.48771703
216	0x3f1c2164	0.6098845
217	0xbf41f26a	-0.7576052
218	0x3d038819	0.032112215
219	0x3fda0a1d	1.7034336
220	0xbd7db10f	-0.061936434
221	0x3e0e9c70	0.13926864
222	0xbed0ebda	-0.4080494
223	0xbf438514	-0.76374936
224	0xbf421809	-0.75817925
225	0x3e5d1859	0.21591319
226	0xbeca002c	-0.39453256
227	0x3facfdeb	1.351499
228	0x3f579772	0.8421546
229	0xbf1f3dc9	-0.6220365
230	0xbeda6ad9	-0.42659643
231	0xbd82e05b	-0.06390449
232	0xbf0bf593	-0.5467159
233	0xbf0214d5	-0.5081304
234	0xbebb1886	-0.36542147
235	0xbf2f2bde	-0.6842631
236	0xbd12b030	-0.035812557
237	0xbf060c3d	-0.52362424
238	0xbf11c569	-0.5694185
239	0xbe63ab65	-0.2223335
240	0xbf01559b	-0.5052125
241	0x3f6ea83d	0.9322546
242	0x3d1884fd	0.037236203
243	0xbe5ab38f	-0.21357559
244	0xbf2a5f3b	-0.6655156
245	0x3f07e469	0.530829
246	0x3cfcd476	0.030863028
247	0xbefd8948	-0.495188
248	0x3ca66a8b	0.020314476
249	0xbf1f197f	-0.6214828
250	0x3ffb6322	1.9639628
251	0xbce18cd8	-0.02753298
252	0xbebaac52	-0.36459595
253	0x3d89053c	0.066904515
254	0x3d9a9f36	0.07549898
255	0xbee66314	-0.44997466

out.bias f4 [4]
0	0x3cd6e9ca	0.026234526
1	0x3d79fa9d	0.06103002
2	0x3d825864	0.063645154
3	0x3eeb8164	0.45997155
