DQN/models/dqn_ep300_20250415_142616.pth (torch, 75580 bytes, 6 tensors)

fc1.weight f4 [128, 8]
00000000: 0b09 ecbe 485b 333c 543c 88bf 09f1 15be
00000010: 7333 c63e 3eb9 24bf 9b5c eb3e 63a7 a63d
00000020: 68c6 f2bc e253 0a3f 7373 f6be 98ac ccbe
00000030: ab0d af3d c789 a73e e6f4 c1bf 96b7 3ebf
00000040: 6fde a83f 51f6 bbbe 3924 c53e 9f0f 83bf
00000050: f84a e6bd 6b00 96be e4ce 603e 29bc 4bbe
00000060: d374 0dbd e644 863e 80f6 87bc 5b05 0c3e
00000070: ea27 49bf 6f65 dabc 690f bdbc 2668 a5be
00000080: 6579 203e f015 ad3e fee5 de3c e770 863d
00000090: b480 76bd 3d3f 293e 23e7 ca3b 4b49 dfbc
000000a0: eba9 9fbf b82e 1ac0 c23b 21be bf0d bc3e
000000b0: 3b4c b83c eebc b93d 47ac 25bf d77e 8b3e
000000c0: a7c9 59bd 16d5 45be a668 863c 9471 843e
000000d0: d117 203e 901b d2bd 3e73 2dbd 7dbe a43d
000000e0: c6b8 333f b0e6 363f 5705 05bf 3afd 0b3f
000000f0: eda7 a63e 3a25 0dbf 8b11 52bf 4653 a9bf
00000100: 5601 b43f 8cbb 2ebd f3b2 96bd ffbc a1bf
00000110: 86e2 843f 2cf8 593e f977 f63d c619 143e
00000120: 724b 00bf 82da 52c0 61ca 0bbf fa82 46bf
00000130: 1952 3b3f 7808 42bf 4162 fc3d e3b9 e2be
00000140: 81ba 82bd ccbc a33e 1b58 b7be b856 cb3e
00000150: 7b94 803e 234c 213f f529 ca3e 17ef 9fbe
00000160: 4ea6 1fbf 168f bfbf bd17 f23e 82a8 d1bf
00000170: 08e4 1f3f 9473 333e 8c5f 1fbe f8b3 aabc
00000180: 6ce6 df3e 9d14 a2be 0b0e 5a3f f619 df3f
00000190: dddf a33f ec7b 0b3f deb1 f4bd 03ef 9d3e
000001a0: eb1e 983f 1c57 bebd 0a45 5f3d c19f c73e
000001b0: 4988 0abf 9863 293f 52a5 583e 280d 983e
000001c0: 6d33 03bf 6883 9dbe da9e 833e 6ade c83e
000001d0: 89c0 07c0 613f 6dbe 2f19 44be 0c7c 803e
000001e0: 6e07 10bf c8ae f63d 3a64 113f bff6 9dbe
000001f0: 7fb4 30be bdc9 8f3e 6dbb 41bd 9c2c d33e
00000200: 815a fd3e 3ef8 df3e 9689 27bd c00a 5b3e
00000210: 1fe8 98be f78f 993d d9dd 08be 33e5 843c
00000220: 8001 33bf 070a aabe 16cc 29bf 370b 1ebf
00000230: 29da 5fbe 1d3b 3fbf d86d 1f3f 169e bf3e
00000240: 944f aabe 5261 c43e ec90 673e 7e1f 993d
00000250: 2ebb 3f3d c208 d2bf af8e a83d 01ce b6be
00000260: 0499 293f fc29 0cbf 965f 0abf ae7d 49be
00000270: dc0f a83c 68fc 473f 7c32 0c3f 74c0 20be
00000280: ba05 f5be 3230 de3d ce82 0b3d a3ac 8b3d
00000290: 3823 54be f89f 7f3f 09c9 34be 78d8 f13e
000002a0: ce4a 77bf e7a1 913e 6b92 9bbe aaab 75bf
000002b0: 49bb 1cbf 49a9 f33d 9dc4 aa3e b817 b6be
000002c0: bfb8 423f b873 a2be 4cf5 ab3f 0fda 88bf
000002d0: 66a2 e23e af4e c0be 246b 41bf 3453 503d
000002e0: 56a2 9c3c 3b25 753e c90b 2ebf c30a c73f
000002f0: a9ca 63bd 56a1 c0bf 5bef 523e 4e43 6d3c
00000300: 10c5 0140 3f75 6e3f 9a3d c53e f109 8ebe
00000310: a7c0 a2bd 8c5d 1cbe b119 9dbd b54a feb9
00000320: 8302 92bf b19b 04be fc7a 5a3f 488e bcbf
00000330: 811d 8e3f ab70 1d3f d353 c43e f315 fcbd
00000340: 7021 0fbe 1c37 8abd 329c 87bc b4b4 b13e
00000350: 1e07 473d d9ad 08be b444 69be bd8a bf3b
00000360: aec9 93be 34cb a3be 6ecc 6e3e 65b5 923e
00000370: 77e9 12be dca0 8ebe 9253 c2bd 966f 26be
00000380: 7fe7 81be eefa ad3e b2a4 053d fa05 ac3e
00000390: 17a5 42bf f057 35bf bdb1 163f 0c9c 0bbf
000003a0: 4388 433e 0f05 3cc0 d1f3 903e b497 203f
000003b0: b6ab d0bf 0ea8 35be 9449 9d3d 7aa5 4a3d
000003c0: c06f cabe b307 f5bf e49c f33e daae cdbf
000003d0: 0d40 113f 781d fa3d cad8 693d 02d5 613e
000003e0: 9c5e 52be 44dd 063f 0361 eb3e 1d69 183e
000003f0: bd9e c2be b929 c7bf f13d 9fbf f2d5 14bf
-0.4610065 0.010947056 -1.0643411 -0.14642729 0.38711128 -0.6434516 0.4596909 0.08137395
-0.029635623 0.54034245 -0.48134956 -0.3997543 0.08547529 0.32722303 -1.5152862 -0.7449888
1.3192881 -0.36711362 0.38504198 -1.0239142 -0.11244768 -0.29297194 0.21953923 -0.19895996
-0.03453524 0.2622444 -0.016597033 0.13673918 -0.7857653 -0.026659695 -0.023078637 -0.3230602
0.15671308 0.338058 0.027209278 0.06564503 -0.060181335 0.1652803 0.0061921044 -0.027256628
-1.247373 -2.4091015 -0.15745452 0.36729237 0.022497287 0.090692386 -0.64716 0.2724521
-0.053170826 -0.19319567 0.016407322 0.25867903 0.15634085 -0.102591634 -0.04234623 0.08044145
0.70203817 0.7144575 -0.5196127 0.5468327 0.32549992 -0.5513493 -0.8205802 -1.3228538
1.4062908 -0.042659327 -0.073583506 -1.2635802 1.038163 0.21286076 0.12034602 0.14462957
-0.5011512 -3.2945867 -0.5460568 -0.77543604 0.73172146 -0.7579417 0.12323428 -0.44282445
-0.06383229 0.31979978 -0.35809407 0.397146 0.25113282 0.630068 0.39485136 -0.312371
-0.62363136 -1.4965541 0.47283736 -1.637955 0.62457323 0.17524558 -0.15563792 -0.020837769
0.43730485 -0.31656352 0.8517768 1.7429798 1.2802693 0.54485965 -0.11947988 0.30846414
1.1884435 -0.092939585 0.0545092 0.3898907 -0.54114205 0.66167593 0.21156815 0.29697537
-0.51250345 -0.30764318 0.25707132 0.39232188 -2.1211264 -0.23168708 -0.19150232 0.2509464
-0.56261337 0.12045056 0.5679356 -0.30852315 -0.17256354 0.28083602 -0.047297884 0.41244972
0.49483112 0.4374408 -0.040902697 0.2139082 -0.29864594 0.07498162 -0.13365878 0.016222572
-0.69924164 -0.33210775 -0.66327035 -0.6173586 -0.21860565 -0.74699575 0.62276983 0.37425297
-0.33263838 0.383555 0.22613877 0.0747671 0.046809368 -1.6408923 0.0823034 -0.35704044
0.6624911 -0.54751563 -0.540521 -0.19676849 0.020515375 0.78119516 0.54764533 -0.15698415
-0.47855932 0.10849036 0.034060292 0.06820037 -0.2071656 0.9985347 -0.17654814 0.47235465
-0.9659852 0.28443834 -0.30385146 -0.95965064 -0.61223274 0.11897523 0.3335313 -0.3556497
0.7606315 -0.3172891 1.3434234 -1.0691546 0.44264525 -0.3756003 -0.7555411 0.0508606
0.019120377 0.23939984 -0.6798673 1.5550159 -0.055613194 -1.5049236 0.2059912 0.014481379
2.0276527 0.93147653 0.3852356 -0.2774196 -0.07946902 -0.1527006 -0.07670916 -0.00048502316
-1.1407017 -0.12950017 0.8534391 -1.4730921 1.1102754 0.6150004 0.38345203 -0.12308874
-0.13977599 -0.067487925 -0.016553972 0.34708178 0.04859077 -0.13347568 -0.22780114 0.0058453963
-0.28864807 -0.3199097 0.23320171 0.28654018 -0.14346872 -0.278571 -0.09488596 -0.16253504
-0.2537193 0.33980507 0.03262777 0.3359831 -0.7603316 -0.70837307 0.5886496 -0.54534984
0.19094948 -2.9378088 0.28311017 0.6273148 -1.6302402 -0.17739889 0.076800495 0.049474217
-0.39538383 -1.9142975 0.47580636 -1.6068985 0.5673836 0.12212652 0.05709151 0.22053912
-0.20543903 0.52681375 0.45972452 0.14883848 -0.38011733 -1.5559608 -1.2440778 -0.58138955

fc1.bias f4 [128]
00000000: 5b58 ff3d 3717 3a3f 5069 313f b0e8 3b3f
00000010: a28a c43e 230d 4c3e 602b afbe 8c2a 46bf
00000020: af55 3cbe 5d94 d43e ea01 1bbc 7fde ccbe
00000030: 501c 51bf 4f90 c73e 0235 c33e b760 3f3e
00000040: 22af fa3e b64a c93e d784 d03e c30e 2b3e
00000050: 9df6 493f 3262 143e 1649 e13d ff26 5a3f
00000060: 1bd7 283f bc40 8a3e eb7a a7be 2421 b1bd
00000070: 6816 473f b48b dc3e 97f5 04bf 23ea 073f
00000080: 48fd b53e c97f 8a3d 4ccb ab3e 378d 8b3e
00000090: 2297 acbe b80f 823f c2b6 81bf 1f33 203f
000000a0: 8e2a 5ebe 7772 043f aa15 aa3e 00b6 8c3d
000000b0: 9acf a73d ae12 e33d 2033 333c 4c3c e7be
000000c0: a86d a3be f8ec 653e 455c 473e cc30 003f
000000d0: c59f a03f 5fe6 b13e 00c9 243f 7a86 95be
000000e0: 5d7a e6bd d7ee 0d3f ac0d fcbc f8ac f0be
000000f0: 34ca 0dbe b505 16bf 72a3 22bf d376 923e
00000100: 3ab8 0b3f 5936 463f c655 a0be 7278 4e3e
00000110: dc7f 0e3f 9142 9bbe 4da6 34be 16b5 b6be
00000120: fe8a 1fbf 7800 3d3f 2929 0fbd 2071 343f
00000130: 284e 0dbf f807 72be 526c 483f fa7c 523f
00000140: c7d0 95bd 8a51 9fbe 6601 b9bc 1848 803e
00000150: 40fa 723f 0792 7ebe fb1e 24bf 4460 863c
00000160: a6a9 61be ea3e 1abe abcd 8abf f72a 9d3d
00000170: be0a debb 1ea1 07be ff22 1c3f 9344 823d
00000180: cc32 2cbf f209 a43f 76a5 a73e 2b35 083f
00000190: cad2 833e ba21 453f d4bf dd3e 64e9 1f3f
000001a0: 67bb bb3d 72dc 43be 209f a03e 3b9c 053f
000001b0: 49ae 5abf 42df 813e 4788 bbbe 4756 423f
000001c0: 24ad 3b3e c4c6 a2be d460 c93e 5295 10bf
000001d0: f34b 20be f13d dd3e fb52 a23e 738b 0d3d
000001e0: 9724 8f3c 28d6 c9be bc9c fa3e 1ead 2f3f
000001f0: f5f8 aebe b654 18bf 3f55 eabd 0539 553f
0.12468024 0.72691673 0.6930132 0.7340193 0.38387018 0.19926886 -0.3421278 -0.7740867
-0.1839206 0.41519442 -0.009460906 -0.400135 -0.81683826 0.38977286 0.3812638 0.18689238
0.4896174 0.39314812 0.4072635 0.1670485 0.78891927 0.14490584 0.11000268 0.85215753
0.65953225 0.27002513 -0.32710966 -0.08648899 0.77768564 0.43075335 -0.5193724 0.5309164
0.355448 0.06762654 0.3355354 0.27256176 -0.33709055 1.0161047 -1.0133898 0.62578005
-0.21695921 0.5173716 0.33219653 0.06870651 0.08193894 0.11087547 0.010937482 -0.4516319
-0.319196 0.22453678 0.19468792 0.5007446 1.2548758 0.34746072 0.643692 -0.2920416
-0.11253808 0.55442566 -0.030768238 -0.47006965 -0.13846666 -0.5860246 -0.6353065 0.2860628
0.5457798 0.7742668 -0.3131544 0.20163134 0.5566385 -0.30324224 -0.17641564 -0.35685033
-0.6232146 0.7382884 -0.034951363 0.70485115 -0.5519738 -0.23635852 0.78290284 0.8222195
-0.07315212 -0.31116897 -0.022583675 0.25055003 0.949131 -0.24860393 -0.6410977 0.016403325
-0.22037372 -0.15063062 -1.0844015 0.076742105 -0.006776183 -0.13245055 0.609909 0.06360736
-0.6726501 1.2815535 0.32743424 0.5320613 0.25746757 0.7700459 0.43310416 0.624655
0.091666035 -0.19127062 0.31371403 0.52191514 -0.8542219 0.25365645 -0.3662741 0.759129
0.18327767 -0.3179227 0.39331686 -0.56477845 -0.15653972 0.4321132 0.31703934 0.034556817
0.017473502 -0.394212 0.48947704 0.6862353 -0.34174314 -0.5950426 -0.11442041 0.8329013

fc2.weight f4 [128, 128]
00000000: 6d24 3fbe f403 3ebf 2a89 273f f019 68be
00000010: 9707 67bc 767f dd3d ed04 79bc 2fde 69bf
00000020: af64 653f 77be 44bd 1516 9c3e 26a2 b73e
00000030: a118 95bf 3cfd 753f c52e 3ebf 902b 553e
00000040: dcf1 efbd 27e2 2f3e 6f6c cc3c 7257 cf3d
00000050: 85fd 943d 1dc9 6ebe 7f8d d6bf 57b9 21bf
00000060: 214b 15bf 5963 0fbf 174d 143d 2fa3 7cbd
00000070: cc6f 22bf 9f0d e8be f2a9 dc3e ee7a f03e
00000080: 8de1 afbe cf17 6fbe d1e0 dbbc 8ca5 253f
00000090: 55f7 493f 8780 09be 0299 ce3f 6c33 0abe
000000a0: f52f c3be 887a f5bc c551 07be 0b85 213f
000000b0: 3074 74be 16b3 1c3f 0bc0 9bbd 1fff 5ebe
000000c0: fbec 5fbd 16fc 293f 2aeb 503d 0515 20be
000000d0: 17a2 cdbe a10f ad3e 44b8 f23d 1d40 e0bd
000000e0: 9377 113e a57b b3be af84 c2be 1cb9 3bc0
000000f0: 8185 b53e 3e3a 8f3f c8bb 183f ed25 b43e
00000100: 64ab 583e 07aa c6be 8c7f a53d a6c9 47bf
00000110: 05f1 333f a101 75bf ada9 ffbe e53a 863f
00000120: 2f29 63bf 6fe9 4f3e d00d 7bbd c64c 943d
00000130: 3693 4d3d dff2 973e a211 7bbf e1f0 0cbf
00000140: 3c6f 843f 23e1 913f 2b56 d5be 83ca 30bf
00000150: 3542 7cbe 9479 41bf c900 ebbc 0e25 623e
00000160: 1af7 7bbf c4da 373f 4a2b 48bf cf20 7e3f
00000170: ec2a a5bd d06f 13be 724b 39be d302 5bbe
00000180: 08b5 07be bdb8 f1be daed 74be f0ea d43e
00000190: ede3 01be d727 843d 1105 443e db56 c3be
000001a0: b281 913e bcb8 89bd 1e0c 313e e2bf c03e
000001b0: af40 2d3e c5ca bf3d fcac 75bd d99c 65be
000001c0: c05d e73e 5c1a ffbd 147e fdbd e4b4 df3d
000001d0: 5afc 54bf c7b7 3c3e 0035 24bd 2696 0fbe
000001e0: 11b9 433d baac 163f eb71 e83d 106b 963d
000001f0: 816b c43e 7c3b cf3e bc10 9f3f 8abf 8abe
00000200: 23c9 d1bd a6d1 a0b8 e760 373d 1d1b 3bbd
00000210: 0887 fcbd 40dd 96bc 3da3 6a3d 9174 883d
00000220: 0c16 2e3d d6d1 953d 260b 69bd d906 013c
00000230: 882e 863d bef2 f33c c3e4 42bd 6a2b 35bd
00000240: a2e1 85bd 599e 42bd 2bb3 22bd c6af 33bd
00000250: 62b4 643c 8556 553d b292 7cbd cc01 57bd
00000260: 00d4 0bbd c006 06bd 0451 6ebd d95a 40bd
00000270: 734a a5bd cd75 80bd be6c 4b3c 0f27 cc3c
00000280: db76 113d 2cb7 c6bc 1fa5 153d 038f 97bd
00000290: 5de1 453d db26 56bd e946 833d a7f1 b5bd
000002a0: 3efe 223d ab1e acbd 534f aa3c 9cf3 4cbd
000002b0: de7c 75bc 000f 94bc 7347 07bc 875d febd
000002c0: cc10 0cbd aac8 cabc f980 19bd f5ff ccbd
000002d0: a3f6 a3bd 25b0 adbd 11c6 9ebd f94d 2d3d
000002e0: 4b8e d53c 347c 973c ac39 63bd 3fb3 0fbd
000002f0: 8139 14bb dfc0 aebd f538 e5bc 2ce9 673c
00000300: a028 90bd 42c8 b9bd 9322 213c 3fcb 84bc
00000310: b87f 6ebd a117 13bc f9b1 47bd 3752 f1bd
00000320: 790c 233d 430d 4a3d 9d5e 25bd d0b4 6cbd
00000330: 718c bbbd 4630 e2bd 9ecd 1abd a40c 6bbc
00000340: 2dde b0bc 5033 2cbd ee0a 693c 5902 48bd
00000350: 3b26 68bd 5ae9 853b 6cb8 7fbc 6349 a7bd
00000360: b05f e4bc 0e9c b03a 1632 993b 78de debd
00000370: 9262 0f3c e9ee 77bd 1f0e 02be 4c0d 8abd
00000380: ce87 2bbd 8e8d 543d 8c17 65bd 0677 1b3d
00000390: 702d cdbc cf97 203d 317b 873c d732 0bbd
000003a0: dbcb cfbd 9708 99bd 4f25 f73c 0524 32bd
000003b0: ed79 47bc b5c8 9dbd 6165 c6bd 369f 5b3c
000003c0: fb40 49bd a953 bd3b fa29 5dbd d67e a4ba
000003d0: 547f c5bb 5419 d53c 06e8 2dbd d138 39bc
000003e0: 3011 5cbd d44b a7bd 671d dcbc 3933 23bd
000003f0: d62a 2dbd 55a5 18bd 217e b5bb ca72 96bd
-0.18666239 -0.7422478 0.6544367 -0.22666144 -0.014100931 0.10815327 -0.015198928 -0.9135465
0.89606756 -0.048033204 0.30485597 0.35865897 -1.1648141 0.9608953 -0.74290115 0.20817399
-0.11716053 0.17176114 0.024954049 0.10124101 0.072749175 -0.23318906 -1.6761931 -0.6317343
-0.5831776 -0.5601097 0.03620633 -0.06167906 -0.6345184 -0.45322892 0.43098408 0.46968788
-0.3435177 -0.23348926 -0.0268406 0.6470573 0.78893024 -0.13427936 1.6140444 -0.13496178
-0.38122526 -0.029965654 -0.13214786 0.6309363 -0.23872447 0.61210763 -0.07604989 -0.21777008
-0.05466936 0.6640028 0.05100552 -0.15633018 -0.40162727 0.33800986 0.11851552 -0.10949729
0.1420577 -0.3505527 -0.37991855 -2.9331732 0.35453418 1.1189649 0.5966153 0.35185185
0.2115913 -0.38801596 0.08080968 -0.78042066 0.7028964 -0.9570561 -0.4993414 1.0486723
-0.88734716 0.20303892 -0.06129247 0.07241206 0.05018922 0.29677483 -0.9807378 -0.5505505
1.0346446 1.1396831 -0.41667303 -0.6905901 -0.24634631 -0.7557614 -0.028686898 0.22084448
-0.9842392 0.71818185 -0.78191054 0.9926881 -0.08064827 -0.14398122 -0.18095186 -0.21387796
-0.13252652 -0.47211257 -0.23918858 0.41585493 -0.12684603 0.06452911 0.19142558 -0.38152203
0.28419262 -0.067246884 0.17289779 0.37646395 0.16919206 0.09364847 -0.059979424 -0.22423114
0.45188713 -0.124561995 -0.12377563 0.10923174 -0.8319756 0.1842948 -0.040089607 -0.14022121
0.047783915 0.5885731 0.11349853 0.07344639 0.3836327 0.4047507 1.2426982 -0.27099258
-0.10243442 -7.6684446e-05 0.044770148 -0.045680154 -0.12330443 -0.018416047 0.057284582 0.06662858
0.042501494 0.07315414 -0.056895398 0.007875168 0.06551844 0.029778834 -0.047581445 -0.044230856
-0.06537177 -0.047514293 -0.03972165 -0.043868802 0.013959022 0.052084465 -0.061663337 -0.052491948
-0.034137726 -0.03272128 -0.05818273 -0.04696164 -0.08070841 -0.06272469 0.012416063 0.024920968
0.03551374 -0.024257265 0.036534425 -0.07400324 0.048310626 -0.05228315 0.064100094 -0.08883982
0.039793245 -0.08404287 0.020789778 -0.05003701 -0.014983384 -0.018073559 -0.008256781 -0.12420183
-0.034195706 -0.024753887 -0.037476514 -0.100097574 -0.080060266 -0.084808625 -0.07752622 0.04231069
0.026068827 0.018491842 -0.055474922 -0.03508305 -0.0022617283 -0.08532881 -0.02798126 0.014154714
-0.070389986 -0.09071399 0.009834903 -0.016210197 -0.05822727 -0.008977802 -0.048753712 -0.11783259
0.039806817 0.049329054 -0.040373433 -0.057789624 -0.091576464 -0.11044364 -0.037793748 -0.0143462755
-0.021590317 -0.042041123 0.014223797 -0.048830364 -0.056677084 0.0040866556 -0.015607934 -0.08168294
-0.027877659 0.0013474242 0.00467516 -0.10882276 0.008751528 -0.060530577 -0.127007 -0.067408174
-0.04187756 0.05189281 -0.05593066 0.037955306 -0.02504608 0.039207276 0.016538234 -0.03398403
-0.10146304 -0.074723415 0.030169157 -0.043491382 -0.012175065 -0.077042975 -0.09687305 0.013404658
-0.049134236 0.0057777953 -0.05399511 -0.0012550007 -0.0060271416 0.026013054 -0.042457603 -0.01130505
-0.05372733 -0.0816876 -0.026869489 -0.03984377 -0.04227718 -0.037267048 -0.0055387174 -0.07346113

fc2.bias f4 [128]
00000000: bf3d 88bd 2119 14bd c609 18bc 0ddf 36be
00000010: a763 263d ef58 643e 3e73 8cbc 6ce3 e5bd
00000020: 28e5 ac3e 45a5 0e3f 8134 0b3e ce96 743e
00000030: c434 dcbd c3ca 67bd 9267 51bd 8168 20be
00000040: 90ea e43e 3a51 543e a15b e3bb a026 5e3e
00000050: 31c7 e5bd 600c 313f 1e17 663c ccac 37be
00000060: f394 5e3e 77f1 a73e 148e f7bd a8e5 28bc
00000070: 56a8 5f3e 1c76 6bbd 5f46 31bd 716b 99bd
00000080: a1e3 87bd e8df bbbe 86ed d43d 41af 683e
00000090: cc0e 9e3d 4673 643e d4ba 903c e052 203f
000000a0: 3e30 fe3e 5be7 133f fe16 a1bd 3ffe 113c
000000b0: 1431 0ebf 2a84 bf3e f6d5 60bd a36b 71bb
000000c0: 1975 933e f699 1c3f 6968 783e 434e e2bd
000000d0: eea4 6c3e e574 6a3e 8936 babd 9407 3e3e
000000e0: b48a f33c 4306 c3bd f4ba c9bb d511 96bd
000000f0: a689 9dbd 719f c33e e0df 173f fe03 1c3e
00000100: e771 833d 1086 3e3e dbf8 15bd 51b5 f93e
00000110: 726a 953e d68c 053f 149a 1f3f effc eb3e
00000120: 291d 043f ed90 2b3f 3b5f 80bb a121 c6bd
00000130: 1868 bc3d cd5a d73e 8371 28be 128d a1bc
00000140: 4d6b 703e 054e bebd 8e1e 9cbe ac86 adbd
00000150: f9aa 5abd a938 4e3e f496 09bc bbe5 53bd
00000160: 3eaf 6d3d 2153 0f3c f654 dbbd 4aac 8a3e
00000170: d82a 9fbc ebe9 403d 4975 033f 0860 293e
00000180: 98e1 fabc 1115 b33d 8b5c d83e a08e 7d3e
00000190: 627c cb3e fe3a d03d 1600 933e 3d2d 713d
000001a0: 893a de3e 20f5 ce3d c737 d5bd 6f61 2fbe
000001b0: 8de6 633e 47d1 ddbd fd04 ccbe 095a 0f3e
000001c0: 2f05 3cbc b4a9 363f d183 6c3d 6c8e 7a3d
000001d0: 9da9 c43e 14a4 a23e 25f5 c7bd 39dd b63d
000001e0: e391 a7bd 514f 5dbe a6aa adbd 07e3 1a3f
000001f0: 4447 883e 85d6 1b3d b31a a8bd 9988 813c
-0.06652402 -0.036156777 -0.009279674 -0.17858525 0.04062238 0.2229955 -0.017144796 -0.11225018
0.33768582 0.5572093 0.13594247 0.23885652 -0.10752252 -0.056589853 -0.051124163 -0.15664865
0.44710207 0.2073411 -0.0069384133 0.21694422 -0.11219633 0.6915951 0.0140435975 -0.1793701
0.21736507 0.3280141 -0.12087646 -0.010308661 0.21841559 -0.057485685 -0.04328 -0.07491196
-0.06635214 -0.36694264 0.103968665 0.22723104 0.07717666 0.22309598 0.017667212 0.6262646
0.4964618 0.57774895 -0.078657135 0.008910715 -0.5554364 0.3740552 -0.05489155 -0.0036837838
0.28800276 0.61172426 0.2425858 -0.110500835 0.2310979 0.22896154 -0.09092433 0.18557578
0.029729225 -0.09522679 -0.0061563198 -0.0732762 -0.0769227 0.38207582 0.5932598 0.15235898
0.064182095 0.18605828 -0.03661428 0.48771146 0.29182774 0.52168024 0.6234448 0.4609141
0.51606995 0.67018014 -0.0039176024 -0.09674383 0.09199542 0.42061463 -0.16449551 -0.019720588
0.23478432 -0.09292225 -0.3049206 -0.08472952 -0.05338571 0.20138802 -0.008397806 -0.05173276
0.058028452 0.008747847 -0.107095644 0.2708457 -0.01942961 0.04709808 0.5135084 0.1654054
-0.03062515 0.087442525 0.42258105 0.24761438 0.39743334 0.10167502 0.28711003 0.058881033
0.43404034 0.10105348 -0.10411029 -0.17127012 0.22255917 -0.10830932 -0.39847556 0.1399919
-0.011475845 0.71352696 0.057742897 0.06117098 0.38410655 0.31765807 -0.097635545 0.089289136
-0.081821226 -0.21612288 -0.08479814 0.60502666 0.2661687 0.03804638 -0.082082175 0.015812205

out.weight f4 [4, 128]
00000000: 277e 9bbe b314 ffbb 9e18 7a3d 1fec 31bd
00000010: a911 5abd 955a adbf 621a 1c3d 7945 073d
00000020: 3d3f fb3e 55e7 0fbf 5c73 30bf 8584 83be
00000030: 7fe5 d93a 1cef 90bd 8b6a a2bf f6e2 2dbe
00000040: f6a8 113f 5e3e e5bf b818 c73c 8741 7dbf
00000050: 456f bcbc a619 0abf 6539 11bd c237 ab3d
00000060: 4882 b0be cb43 aebe 57c5 04bd 727e 2e3f
00000070: f2fa 9bbe 8ff7 51be b2fd 07bb db53 463b
00000080: a2f0 3e3c ccaa 5bbf 33b1 a23f d95c 9d3f
00000090: b449 85bf 858a c43e f0c2 8b3a b56e 4bbf
000000a0: 8d05 553f 9dde 49be 5889 69bd 748d 9bbe
000000b0: ba19 4e3f c316 e63f 1ab1 87bc e34e 9e3e
000000c0: 4ae2 abbd 6d20 a53f 5a51 17bf 9313 df3d
000000d0: be85 60bf 3744 793f bdb7 cfba bd90 8abf
000000e0: e0e3 9fbd 1918 53bf 512e 73bf e726 663c
000000f0: 0807 8e3c 5135 6dbf 34c3 143f d759 67bf
00000100: 77f6 fbbe 0389 f33e 4c81 123b 9de9 45bf
00000110: 115c 5abf 797d 3140 ff5c 073f fe05 9b3f
00000120: 6624 ec3e 5cb8 4bbf 77c8 7dbf e1a6 993d
00000130: b957 39bf 4341 6b3f 0c83 b63d 3ea1 dd3f
00000140: 59aa d83e 08d3 ea3c a15b 8ebe d8d0 833c
00000150: 1257 4f3d da06 223f 9615 a53c 57ec 50bf
00000160: 112d 003f 782b a9bf f208 1ebd d209 613e
00000170: bbb8 813c 6fa7 423e d4f9 f7be e388 8ebf
00000180: 0a5e 1dbf 57b5 db3f dcf4 5abf 0728 ee3f
00000190: f089 ea3e 7389 c2be f6ac 2fbf ae09 19bd
000001a0: 254c f9be 8eb6 e6be 256c ad3f e642 23bf
000001b0: 3e28 4bbf db00 0abf 3df5 8dbf f6d9 e33c
000001c0: 5d33 abbd 55b6 a53f cea8 b33d c931 65bf
000001d0: 101d 0abe 94d4 863d f9bf 5fbd 696e 49bf
000001e0: 5c88 973d 4f05 41bf 8955 0a40 7f92 8cbf
000001f0: 8236 6fbf 4e4f f2bc d883 3b3b fa4a 95bf
00000200: 9656 78bf 8486 90bd 72d0 b13d 3e68 263c
00000210: 9828 193d 6c8f 9ebf cdaf 82bd 3746 00bd
00000220: 6fd2 e2be 4e83 05bf 47c7 42bf 1f22 82be
00000230: e21f 323d 40c4 0f3d 7d00 85bf 77dd 12bf
00000240: 55bf 8dbd 3ed8 00bf a6d2 b23d 4fad 43bf
00000250: 427d 0dbc f309 73bf 3b51 833d 80b2 4fbc
00000260: 0eb2 60bf ab30 04bf 976d 70bc d613 043f
00000270: c6a9 33be 416a 09bf 2d45 483c 293e 523d
00000280: a50b 11bd bf3f 1abf 0986 3840 1f07 6a3f
00000290: a69c 76bf d39d 49be afa6 c93c 6bc2 39bf
000002a0: 8e78 423f 9a28 36bf df54 3c3d 7968 32bf
000002b0: 2299 5a3f b077 0440 8bc2 133d a145 27bf
000002c0: 1f0c a33e cb1e 353f 12f5 efbe 7731 3f3e
000002d0: cd3c 3dbf a732 2b3f f527 bdbc 5fbf 1dbf
000002e0: 1c3c 4d3d 6b94 03bf 4390 5bbe 82ac 903c
000002f0: e649 efbb 3c02 40bf 4606 f13e 845c 28bf
00000300: 8e0a 79bf 6bbe 1b3f d5d4 8fbd 5102 86bf
00000310: 5272 fdbe 9de5 e13f a4bc af3f b21d 3f3f
00000320: 3ec4 92be a69e babe 411e 68bf 73d1 19bd
00000330: caba c1be ec81 4e3f 0b46 993d cebb c73f
00000340: ffc4 013f a9e2 673d 2abf abbf 7017 413d
00000350: faeb f03b 8e38 553f 15ae 04bd 4341 37bf
00000360: d45e 0d3f 8b58 a3bf 1988 033d 03e2 c33f
00000370: 0fb1 7dbd d87e 113e 348e 37bf 76a7 82bf
00000380: 71f8 7abf 4f8f a93f 322c 07bf 179c f83f
00000390: 0e3d 533f dc3e 70bf 39f7 c7bf 5be0 82bd
000003a0: ffa6 94be b93e 61bf 58b8 9cbd e183 77bf
000003b0: 35f3 80bf 741c 3abf 0600 86bf d754 763d
000003c0: 4e1e 0bbf 6c65 943f fd84 183d 2838 22be
000003d0: 773f 40bf 3b15 0f3f 76d4 fc3c 5cd0 90bf
000003e0: 8b6a a63c de64 8abf 06a0 0c40 6069 eabe
000003f0: ee62 3ebf 3c05 893d 369f 9a3d 645b 4fbf
-0.30369684 -0.00778445 0.061058633 -0.043438073 -0.0532395 -1.3543268 0.038111098 0.03302524
0.49071684 -0.5621236 -0.68926024 -0.25687042 0.0016624181 -0.070768565 -1.2688764 -0.1698111
0.5689844 -1.7909658 0.024303779 -0.9892811 -0.023002276 -0.53945386 -0.035455126 0.08360244
-0.34474397 -0.34036097 -0.03241476 0.6816169 -0.30464894 -0.20504592 -0.002075058 0.0030262384
0.011654051 -0.8580749 1.2710327 1.229396 -1.0413117 0.38386932 0.0010662954 -0.794658
0.83211595 -0.19713826 -0.057015747 -0.30381358 0.80508006 1.7975696 -0.01656394 0.3091956
-0.083927706 1.290052 -0.5910851 0.10892405 -0.87704074 0.9736971 -0.0015847605 -1.0825421
-0.078071356 -0.82458645 -0.9499255 0.014047361 0.017337337 -0.9265948 0.58110356 -0.9037146
-0.49211475 0.4756547 0.00223549 -0.7730959 -0.8529673 2.7732832 0.52876276 1.2111204
0.4612152 -0.79578185 -0.9913401 0.07502533 -0.7239948 0.91896456 0.08911714 1.7314832
0.42317465 0.02866508 -0.27804282 0.016090795 0.050620146 0.63291705 0.020151895 -0.81610626
0.50068766 -1.3216391 -0.03858275 0.21976402 0.015835157 0.19009183 -0.4843279 -1.1135525
-0.6147162 1.7164716 -0.85529876 1.8605965 0.45808363 -0.3799549 -0.6862329 -0.037362747
-0.48690906 -0.45061153 1.3548628 -0.63773954 -0.7935828 -0.53907555 -1.1090466 0.027813893
-0.08359406 1.2946268 0.08772431 -0.8952909 -0.13487649 0.06583515 -0.05462644 -0.786841
0.07399055 -0.75398725 2.1614707 -1.0982207 -0.9344255 -0.029578831 0.002861252 -1.1663506
-0.9700712 -0.07056907 0.08682336 0.010156689 0.03739223 -1.2387519 -0.063811876 -0.031316962
-0.44301173 -0.5215348 -0.76085323 -0.25416657 0.043487437 0.035099268 -1.0390774 -0.5736918
-0.06921259 -0.5032996 0.08731584 -0.7643632 -0.008635821 -0.94937056 0.06411978 -0.012676835
-0.8777169 -0.5163676 -0.014674566 0.5159277 -0.17545232 -0.53677756 0.012223524 0.05132881
-0.035411496 -0.6025352 2.8831809 0.91417116 -0.96332777 -0.19689111 0.024615614 -0.72562283
0.759652 -0.71155703 0.045979377 -0.6969066 0.8538991 2.0698051 0.036074203 -0.6534062
0.31845185 0.7075011 -0.4686666 0.18671213 -0.739209 0.66874164 -0.023090342 -0.61620134
0.050106153 -0.5139834 -0.2144175 0.017660383 -0.0073025106 -0.7500341 0.470751 -0.6576617
-0.9728173 0.6083743 -0.07023016 -1.0469457 -0.49501282 1.7648197 1.3729444 0.74654686
-0.28665346 -0.36449164 -0.90671164 -0.037553262 -0.3783782 0.80666995 0.07484063 1.5604188
0.5069122 0.056612644 -1.3417714 0.047141492 0.0073523493 0.8328942 -0.03239258 -0.71583956
0.5522282 -1.2761396 0.032112215 1.5303348 -0.061936434 0.14208543 -0.7170136 -1.0207355
-0.9803534 1.3246859 -0.5280181 1.9422635 0.8251504 -0.93845916 -1.5622321 -0.06390449
-0.29033658 -0.8798633 -0.07652348 -0.96685606 -1.0074221 -0.72699666 -1.0468757 0.060139503
-0.54343116 1.1593451 0.037236203 -0.15841734 -0.7509684 0.5589177 0.030863028 -1.1313586
0.020314476 -1.0812032 2.197267 -0.4578352 -0.74369705 0.066904515 0.07549898 -0.80998826

out.bias f4 [4]
00000000: 96b8 acbc cdc9 5f3e e124 e53d b7ab c93e
-0.021084111 0.21854325 0.11188675 0.3938882
