DQN/models/dqn_ep300_20250415_155100.pth (torch, 75580 bytes, 6 tensors)

fc1.weight f4 [128, 8]
0	0xbf806356	-1.0030315
1	0x3e42c36c	0.1901986
2	0x3d275a26	0.040857457
3	0xbe68d9b5	-0.22739299
4	0x3f75c789	0.9600759
5	0x3f6b76a1	0.9197789
6	0x3e559891	0.2085898
7	0xbddb5c11	-0.1071092
8	0xbed11096	-0.40832967
9	0xbe2fd869	-0.17172398
10	0x3e892fec	0.26794374
11	0xbf850113	-1.0390953
12	0x3e74b586	0.2389737
13	0xbf083159	-0.532003
14	0x3f0e38bd	0.55555326
15	0x3cdc0f04	0.026862629
16	0x3eb7c053	0.3588892
17	0x3e41b232	0.18915632
18	0x3ddee180	0.108828545
19	0xbf092b75	-0.53581935
20	0x3d8eecba	0.06978746
21	0xbfb8f212	-1.4448874
22	0xbf400f1c	-0.75023055
23	0x3e321b51	0.17393233
24	0xbdacd26d	-0.08438573
25	0x3ee83445	0.45352378
26	0xbddc7a7f	-0.10765552
27	0xbf07d31b	-0.53056496
28	0x3f9d174f	1.2272738
29	0xbf8edcc9	-1.1161128
30	0xbeb5fc34	-0.35543978
31	0xbe238126	-0.15967235
32	0xbccb1292	-0.024789128
33	0xbe51f47b	-0.20503418
34	0xbe069156	-0.13141379
35	0xbe5882e8	-0.21143687
36	0x3f69bd9b	0.9130494
37	0xbf53f6d6	-0.82798517
38	0x3f5905f0	0.84774685
39	0x3f2a1ac1	0.66447073
40	0xbf160f55	-0.58617145
41	0xbfa33586	-1.2750709
42	0xbf05dc98	-0.52289724
43	0xbf980e54	-1.1879373
44	0x3e966004	0.2937013
45	0x3c19c02f	0.009384199
46	0x3dc4f76a	0.09617503
47	0x3e600b98	0.21879423
48	0xbf494d67	-0.7863373
49	0x3e5e955c	0.21736664
50	0x3cf05702	0.029338364
51	0x3d0618b5	0.032738406
52	0x3f29d761	0.6634427
53	0xbf38d9df	-0.72207445
54	0x3e6a626d	0.22889109
55	0xbefad58a	-0.48991042
56	0xbec8a039	-0.3918474
57	0xbf518de7	-0.8185715
58	0x3f4d5b55	0.80217487
59	0xbf1cf0d7	-0.6130499
60	0x3eadae85	0.3392221
61	0xbde735fd	-0.11289594
62	0xbf684d60	-0.90743065
63	0xbdbde903	-0.09272959
64	0xbf9eaa7f	-1.2395781
65	0x3f06e048	0.52685976
66	0xbf9431a4	-1.1577649
67	0xbf1c017c	-0.60939765
68	0xbf93b697	-1.1540097
69	0xbf0cbf72	-0.5497962
70	0xbe28c3e7	-0.16480981
71	0xbf30eb72	-0.6910926
72	0x3fe927b2	1.8215239
73	0x3c737627	0.014859713
74	0xbe226677	-0.158594
75	0xbe9c79ff	-0.30561826
76	0xbf2e74dd	-0.6814707
77	0xbe9d182b	-0.306825
78	0xbde4b819	-0.11167926
79	0x3ea2f252	0.318255
80	0xbead7fe9	-0.3388665
81	0x3e381ac1	0.17978956
82	0xbe066a1c	-0.13126415
83	0xbf09b74d	-0.5379532
84	0x3f342756	0.7037252
85	0x3fd3c13c	1.6543345
86	0x3dfcdd89	0.12346942
87	0xbf4dbe20	-0.8036823
88	0x3f2db442	0.67853177
89	0x3ef99d97	0.48753044
90	0x3fdd225a	1.7276108
91	0x3f98cba5	1.1937147
92	0x3ed3f71e	0.41399473
93	0xbed260eb	-0.41089568
94	0x3f928664	1.1447263
95	0xbe054ab6	-0.13016781
96	0x3ea25064	0.31701958
97	0xbee2bee4	-0.44286263
98	0xbe19900e	-0.14996359
99	0x3f146aa8	0.57975245
100	0xbec2e67f	-0.3806648
101	0xbf713c3f	-0.94232553
102	0xbd8ef351	-0.06980003
103	0xbe9b1210	-0.30287218
104	0xbf14aa5b	-0.5807244
105	0x3d04bf09	0.032408748
106	0xbe2c2503	-0.16810994
107	0x3f834601	1.0255738
108	0x3f000d52	0.50020325
109	0x3fb7806f	1.433607
110	0x3cd6cacf	0.026219754
111	0x3d85b39d	0.06528399
112	0x3f19ec7a	0.6012646
113	0xbe87cbed	-0.2652277
114	0xbd89e7dc	-0.06733677
115	0xbe4530e3	-0.1925693
116	0x3f495593	0.786462
117	0xbf36835d	-0.71294194
118	0x3f3d9652	0.74057496
119	0x3f0a6bc9	0.5407072
120	0x3f0a5e62	0.54050267
121	0xbf9ad365	-1.2095762
122	0x3f889ccf	1.0672854
123	0xbfbd3b06	-1.4783638
124	0xbeb708b7	-0.35748836
125	0xbfc005c3	-1.5001758
126	0xbe178fff	-0.14801024
127	0x3f34a204	0.70559716
128	0x3fd0da38	1.6316595
129	0xbad11ace	-0.0015953423
130	0x3fade0c1	1.3584214
131	0x3ee3c3bd	0.44485274
132	0xbfc694ba	-1.5514138
133	0x3dcd8b41	0.10036326
134	0xbd70a4e0	-0.058750987
135	0xbc77d323	-0.0151260225
136	0x3fe0eb0f	1.7571734
137	0xbc9e3ff7	-0.01931761
138	0x3f3a188d	0.7269371
139	0xbdaed780	-0.08537197
140	0x3df72694	0.12067905
141	0x3da0d7cf	0.07853662
142	0xbdfee535	-0.124460615
143	0x3f951a6b	1.1648687
144	0x3fa164dc	1.2608905
145	0xbff34f9a	-1.9008667
146	0xbdc62019	-0.09674091
147	0xbfda343a	-1.7047188
148	0x3f3976b1	0.72446734
149	0x3eff3c13	0.4985052
150	0x3ebd9da7	0.37034342
151	0x3e069fa5	0.13146837
152	0xbeea267e	-0.45732492
153	0xbe53c488	-0.2068044
154	0xbeeca974	-0.46223032
155	0xbf212934	-0.62953496
156	0x3f27b6ab	0.65513104
157	0x3fb3281f	1.3996619
158	0x3eb3d7e2	0.35125643
159	0x3f1071d0	0.56423664
160	0xbeb69f68	-0.35668492
161	0x3e7ea99e	0.24869391
162	0xbeee44ab	-0.46536765
163	0xbe9c2065	-0.30493465
164	0xbfbcfbe7	-1.4764374
165	0xbf7035a7	-0.93831867
166	0xbf9b2e15	-1.2123438
167	0x3f48dd8b	0.7846305
168	0x3f0de13e	0.5542182
169	0x3d1c86d6	0.038214527
170	0xbe878693	-0.2646986
171	0x3e163354	0.14668018
172	0x3f921251	1.141184
173	0xbf8bd7e0	-1.0925255
174	0xbecc923e	-0.39955324
175	0xbd06077e	-0.03272199
176	0x3e1827a1	0.14858867
177	0x3ec0ab65	0.37630764
178	0x3e10cac7	0.14139853
179	0x3e1d0bc5	0.15336521
180	0xc0056687	-2.0843828
181	0xbf2c8a96	-0.67398965
182	0x3f2db348	0.67851686
183	0xbe0b6220	-0.1361165
184	0xbecb9592	-0.3976255
185	0xbfab8ca2	-1.3402293
186	0xbe4676a8	-0.19381201
187	0xbf81613e	-1.0107801
188	0x3e850d24	0.25986588
189	0xbfb2c114	-1.3965173
190	0x3f0f7479	0.560371
191	0x3e931c7d	0.28732672
192	0x3f130fea	0.5744616
193	0xbf230a80	-0.63687897
194	0x3ea828b1	0.32843545
195	0xbf6da872	-0.9283515
196	0x3f28ac15	0.65887576
197	0xbe12f04a	-0.14349476
198	0x3e087434	0.13325578
199	0x3e6287c8	0.22122109
200	0xbd972d89	-0.07381732
201	0xbe8dfe2b	-0.27732977
202	0x3d4766e2	0.0486821
203	0xbf01eb8d	-0.50750047
204	0xbf1fed9e	-0.6247195
205	0x3eb5fb32	0.3554321
206	0xbbabe424	-0.0052457023
207	0xbe7a7594	-0.24458915
208	0xc0284f72	-2.629849
209	0xbf61f909	-0.8827062
210	0xbf57dfdf	-0.84325975
211	0xbee0b44a	-0.4388755
212	0x3e1c8b1a	0.15287438
213	0xbbbaa2de	-0.005695685
214	0x3e64c763	0.22341685
215	0x3d344184	0.044007793
216	0x3e528ed7	0.20562302
217	0xbe9fab76	-0.31185502
218	0xbd7aa3c4	-0.061191335
219	0x3e22168e	0.15828916
220	0x3f66fda9	0.90230805
221	0xbf8f6cb1	-1.1205045
222	0xbf098190	-0.5371332
223	0x3f0ff76d	0.56236917
224	0xbee5212d	-0.44751874
225	0xbe484c5f	-0.19560383
226	0x3dd80b5c	0.10549042
227	0xbf6698ca	-0.9007689
228	0x3e93cc41	0.2886677
229	0xbf478a96	-0.7794584
230	0x3f023e5a	0.5087639
231	0x3ea142d1	0.3149629
232	0xbf9fe484	-1.2491612
233	0xbeea4b24	-0.45760453
234	0xbf6f4fbe	-0.9348105
235	0xbe9f3594	-0.31095564
236	0xbf6b969c	-0.92026687
237	0xbf43ed85	-0.765343
238	0xbfbbf13b	-1.4682993
239	0x3f0a107e	0.53931415
240	0xbf83d719	-1.0300018
241	0xbf0e3aa7	-0.55558246
242	0xbe10d704	-0.14144522
243	0xbf7d3690	-0.9891138
244	0x3e7276e1	0.23678161
245	0x3f55460f	0.83310026
246	0x3e86d9af	0.26337954
247	0xbf8b1f21	-1.0868875
248	0x3dc0d21e	0.09415077
249	0x3d6d222f	0.05789393
250	0x3eda6da1	0.42661765
251	0xbe121425	-0.14265497
252	0xbf83d7b1	-1.0300199
253	0xbfd5f31b	-1.6714815
254	0xbf8f907c	-1.1215968
255	0xbf4ad818	-0.7923598

fc1.bias f4 [128]
0	0xbf27b2cc	-0.655072
1	0x3e9dabb5	0.30795065
2	0x3f311271	0.69168764
3	0xbf848425	-1.0352827
4	0x3e97df93	0.2966276
5	0x3e77e685	0.2420903
6	0x3f101325	0.5627921
7	0x3f010624	0.50399995
8	0x3e1186cf	0.14211582
9	0x3da995fb	0.0828056
10	0xbf64ab79	-0.89324147
11	0x3eab1d2d	0.33420697
12	0x3f02f0b6	0.51148546
13	0xbf0c5f79	-0.5483318
14	0x3e99a0b5	0.30005422
15	0xbe11960a	-0.14217392
16	0xbd844589	-0.06458575
17	0xbc5e2c58	-0.013560377
18	0xbe0ad837	-0.13559042
19	0xbe9fe82c	-0.3123182
20	0xbec1cac0	-0.37849998
21	0x3e014114	0.12622482
22	0x3f612f88	0.8796315
23	0x3ebae9c7	0.36506483
24	0x3e768dd6	0.24077544
25	0x3f2aca76	0.6671518
26	0xbe8ff7e4	-0.28118813
27	0x3ee94a32	0.4556442
28	0x3ecb7edf	0.39745232
29	0x3e96b9f7	0.29438755
30	0xbe925bd9	-0.285857
31	0xbf2a42bd	-0.66508085
32	0xbe801197	-0.2501342
33	0xbdbd0c6d	-0.09230886
34	0x3c000c48	0.007815428
35	0xbc2c1b70	-0.0105045885
36	0xbdc95e52	-0.09832443
37	0xbeecdd20	-0.46262455
38	0xbe2db3e7	-0.16963159
39	0x3e965ba9	0.29366806
40	0x3cb38465	0.021913717
41	0xbe8fb220	-0.28065586
42	0xbe517673	-0.20455341
43	0x3f07670b	0.52891606
44	0xbf62f503	-0.8865511
45	0xbd8ccb9d	-0.06874774
46	0xbc263a8d	-0.0101457955
47	0xbd81f9c7	-0.06346469
48	0xbe91a8a6	-0.2844898
49	0xbed25b05	-0.41085067
50	0xbdf99bc4	-0.12187913
51	0xbe227a42	-0.1586695
52	0x3edd3bcd	0.43209687
53	0xbe3fa871	-0.18716599
54	0xbd5d5046	-0.054031633
55	0x3e99b81f	0.30023286
56	0x3e5d6d8f	0.21623825
57	0x3e9fca68	0.3120911
58	0xbf06b7a4	-0.52623963
59	0x3f210e5f	0.62912554
60	0x3e1b7abd	0.1518354
61	0x3cfbf069	0.030754285
62	0xbf087bc0	-0.5331383
63	0xbee877b3	-0.45403823
64	0x3f40b9e2	0.75283635
65	0x3f263ebb	0.6493947
66	0xbeeb5b64	-0.45968163
67	0x3e0efd70	0.13963866
68	0x3ec081bf	0.37598988
69	0x3ef72150	0.48267603
70	0xbe94f65f	-0.29094216
71	0xbe329324	-0.17438942
72	0xbf5ed239	-0.87039524
73	0x3f2cd930	0.675189
74	0x3e4ba75e	0.19888064
75	0x3ca537c6	0.020168196
76	0x3f7c878f	0.98644346
77	0x3f05e13d	0.5229681
78	0xbf10a1ca	-0.5649687
79	0x3d956be1	0.07295967
80	0xbe349667	-0.17635499
81	0x3ea7064e	0.32621998
82	0x3e2adb40	0.166852
83	0xbec15068	-0.37756658
84	0xbe8537d9	-0.2601917
85	0x3e794f9a	0.24346772
86	0x3e862e42	0.26207167
87	0x3e88c2a2	0.26710993
88	0x3f0e8e78	0.5568614
89	0x3d00daf7	0.03145882
90	0xbf437c03	-0.763611
91	0x3eed324f	0.46327445
92	0x3ea7d178	0.32777
93	0x3cec40b1	0.028839441
94	0x3f051be5	0.5199569
95	0xbf49142a	-0.7854639
96	0x3ef666cb	0.481253
97	0x3eb5c930	0.35505056
98	0x3ebdf754	0.3710276
99	0x3f0529a8	0.5201669
100	0x3ef0d09c	0.47034156
101	0x3ed9a36f	0.42507502
102	0x3cdf0a7d	0.02722668
103	0x3ec35317	0.3814933
104	0x3e9a2166	0.30103606
105	0x3de6d73c	0.112715214
106	0x3f0495f3	0.51791304
107	0xbdf3ceaa	-0.119046524
108	0xbe38424f	-0.17994045
109	0x3e98cf50	0.29845667
110	0x3e7b5c1a	0.24546853
111	0x3f1a56a5	0.6028846
112	0xbdaac58f	-0.083384626
113	0x3f213095	0.62964755
114	0x3f0f64b7	0.56013054
115	0xbb76bcf6	-0.003764925
116	0xbdfd26d9	-0.12360925
117	0x3e8d4c79	0.27597407
118	0xbe7d4ad7	-0.2473558
119	0xbf0683d5	-0.5254491
120	0xbf5e0bf4	-0.8673699
121	0x3e6f7ebf	0.23388194
122	0xbeb90781	-0.36138538
123	0x3f1feb4e	0.6246842
124	0xbf611b48	-0.8793225
125	0xbe82b739	-0.25530413
126	0x3e58652a	0.21132341
127	0x3eab567a	0.33464414

fc2.weight f4 [128, 128]
0	0xbcc8606f	-0.024460046
1	0xbc5237cc	-0.012830686
2	0xbd59b917	-0.05315503
3	0xbceaf965	-0.028683374
4	0xbd9593fa	-0.07303615
5	0xbd3bcf60	-0.045852065
6	0xbd31e617	-0.04343232
7	0xbd4f8414	-0.05066307
8	0x3d911615	0.0708429
9	0xbc1ec91e	-0.009691505
10	0xbd4fc824	-0.05072798
11	0x3d1cf24d	0.038317014
12	0x3d459441	0.04823709
13	0x3d57cc9e	0.052685373
14	0xbd428678	-0.04749152
15	0x3b95e198	0.004574012
16	0xbd18b809	-0.037284885
17	0x3c046101	0.008079768
18	0x3da1393e	0.07872246
19	0x3b107f3b	0.0022048492
20	0xbd3064ac	-0.04306476
21	0x3ad7126e	0.0016408691
22	0xbdeb5c1c	-0.11492178
23	0xbcad7bbb	-0.021177163
24	0xbd8b4612	-0.06800474
25	0xbc7dfb3f	-0.015501796
26	0xbcd32414	-0.02577404
27	0xbd698a6c	-0.057016775
28	0xbe07d4ac	-0.13264722
29	0xbdfce7d0	-0.12348902
30	0x3b84755d	0.004042311
31	0x3c351877	0.011053196
32	0x3d4433b7	0.04790088
33	0xbcf4d743	-0.029887801
34	0xbde923bd	-0.1138377
35	0x3d83b6ed	0.06431375
36	0x3d0ba751	0.034095112
37	0x3d8de494	0.069283634
38	0x3d72b15d	0.059251178
39	0x3ccfeae5	0.025380561
40	0xbe1765c1	-0.1478491
41	0xbcc79838	-0.024364576
42	0x3d8afbfb	0.06786343
43	0xbe0a9d8a	-0.13536659
44	0xbda3b9c9	-0.0799442
45	0xbd72d88c	-0.059288546
46	0x3d659a54	0.056055382
47	0x39537894	0.00020167447
48	0x3cf97b71	0.03045437
49	0x3b718683	0.0036853857
50	0xbd04e934	-0.032448962
51	0x3d780892	0.06055505
52	0xbdb30544	-0.08741239
53	0x3be97b61	0.0071253036
54	0x3cbfb6b7	0.023402555
55	0x3c874871	0.016514035
56	0xbdabd82d	-0.08390842
57	0xbdf8cd54	-0.12148538
58	0xbce86ee3	-0.028373187
59	0xbca93269	-0.02065392
60	0x3d7489bf	0.059701677
61	0xbc5661e3	-0.013084861
62	0x3d566dfa	0.052350976
63	0x3d2b2b98	0.04178962
64	0xbd2ef48b	-0.042713683
65	0x3c11abc4	0.00889105
66	0xbdac0982	-0.08400251
67	0xbda28d73	-0.079371355
68	0x3d17648f	0.036961135
69	0x3d8d6673	0.06904306
70	0xbb2e0e67	-0.0026558877
71	0xbd32a305	-0.0436125
72	0xbdc0de8a	-0.09417446
73	0xbd482e3b	-0.048872214
74	0xbd6df6ff	-0.058096882
75	0x3b42e828	0.0029740427
76	0xbd2b602b	-0.04183976
77	0x3c30e912	0.010797756
78	0xbda5ecee	-0.081018314
79	0xbdc3086e	-0.09523092
80	0xbd2c3327	-0.04204097
81	0xbd511a73	-0.051050615
82	0xba0e3905	-0.00054253667
83	0xbdd634d0	-0.10459292
84	0xbba43b11	-0.005011924
85	0xbcf2ee43	-0.029654628
86	0x3a412936	0.00073685066
87	0xbd9c7a20	-0.07640481
88	0xbd91bf51	-0.07116569
89	0x3cc7320c	0.024315856
90	0xbc7ae8e0	-0.015314311
91	0x3d644134	0.055726245
92	0x3d27e7e0	0.040992618
93	0xbdab2afc	-0.08357808
94	0xbe01d5ac	-0.12679166
95	0xbdc048cf	-0.09388887
96	0xbd9db91c	-0.077013224
97	0xbd67a379	-0.056552384
98	0x3cda1443	0.02662099
99	0x3cafc444	0.021455891
100	0x3cb6c158	0.02230899
101	0xbd258963	-0.040414225
102	0x3d5b483e	0.053535692
103	0xbd79a18f	-0.06094509
104	0xbd5d6d28	-0.054059178
105	0x3ae50df8	0.0017475476
106	0x3d12c329	0.03583065
107	0x3d275a27	0.04085746
108	0x3d432e85	0.047651786
109	0xbd56654f	-0.05234271
110	0xbc877efc	-0.016540043
111	0x3d2d0524	0.04224123
112	0x3cf6f09f	0.030144034
113	0x3c9c5ad2	0.019086275
114	0xbc8bde7a	-0.017073859
115	0x3d5d061e	0.053960912
116	0xbdca5425	-0.098793305
117	0xbddfef22	-0.10934283
118	0x3d5f1562	0.05446375
119	0xbd252dfc	-0.040327057
120	0xbcbece79	-0.023291813
121	0xbe0c5893	-0.13705663
122	0xbaa706fe	-0.0012743173
123	0xbdad2ee8	-0.08456212
124	0xbd1a37dd	-0.03765093
125	0x3d553c28	0.052059323
126	0xbda16e70	-0.078823924
127	0x3c8a940a	0.016916294
128	0x3f2eb21a	0.6824051
129	0x3ee49325	0.44643512
130	0xbefdbdf5	-0.49558988
131	0x3f09aa11	0.53775126
132	0x3eb1a58b	0.34696612
133	0xbeffc843	-0.49957475
134	0xbe135408	-0.14387524
135	0x3ec73a88	0.38911843
136	0x3e218d90	0.15776658
137	0xbc6b3ef7	-0.014358274
138	0x3db8f32f	0.090307586
139	0xbf3de97b	-0.7418439
140	0xbe94f1b0	-0.29090643
141	0x3ef8a85e	0.48565954
142	0x3e6124a0	0.21986628
143	0x3f29e825	0.6636985
144	0x3f30ef47	0.6911511
145	0x3e02dfa3	0.12780623
146	0x3ee0fcd8	0.43942904
147	0x3e19e927	0.15030347
148	0x3efd0077	0.49414417
149	0x3ed70e1a	0.42002946
150	0xbe9faafd	-0.3118514
151	0xbeeac492	-0.45853096
152	0xbdc6550b	-0.096841894
153	0x3e00b507	0.12569056
154	0x3f8a7bdd	1.081905
155	0x3ef93001	0.48669437
156	0x3ea9bc30	0.33151388
157	0xbecaab8c	-0.39584005
158	0xbedbc286	-0.42921847
159	0x3eb6c4ff	0.3569717
160	0x3c312cd5	0.010813911
161	0xbe2f04ce	-0.17091677
162	0xbf1db2fc	-0.61601233
163	0xbf08fb06	-0.5350803
164	0x3f0366a5	0.513285
165	0x3e2febfb	0.17179863
166	0xbed5e2db	-0.4177464
167	0xbc165330	-0.009175107
168	0xbfabe698	-1.3429747
169	0xbf9c969c	-1.2233462
170	0xbba301d2	-0.004974582
171	0x3c6d09d2	0.014467673
172	0x3d536ff6	0.051620446
173	0x3de7eb9e	0.11324237
174	0x3e1d2ae2	0.1534839
175	0x3ed02912	0.40656334
176	0x3f3cc7ef	0.73742574
177	0x3d91aa00	0.07112503
178	0xbdbf4b86	-0.09340577
179	0x3f95e535	1.1710573
180	0xbd4bac91	-0.04972512
181	0xbf02856f	-0.50984854
182	0xbedbda94	-0.429402
183	0xbe235aea	-0.1595265
184	0xbdc45cbe	-0.09588002
185	0x3f37e17a	0.71828425
186	0x3ea0a6ab	0.31377158
187	0x3e7e7929	0.24850906
188	0x3eb87288	0.3602488
189	0x3e958eca	0.29210502
190	0x3f115dd0	0.5678377
191	0xbf961775	-1.1725909
192	0xbf2e9787	-0.6819996
193	0x3c934d20	0.017981112
194	0x3e9abfbb	0.30224404
195	0x3e954a33	0.29158172
196	0x3f02b806	0.5106205
197	0xbcfe3d7b	-0.031035176
198	0x3e2fa0d9	0.17151202
199	0x3f07dd61	0.5307217
200	0x3dd41518	0.10355586
201	0xbd8cf767	-0.06883126
202	0xbe410ec1	-0.18853284
203	0xbe4f020d	-0.20215626
204	0xbf1e2901	-0.61781317
205	0x3e252c20	0.16130114
206	0x3d158e3e	0.036512606
207	0xbeb7b8bf	-0.35883138
208	0x3ec19834	0.37811434
209	0xbe3b85bc	-0.18312734
210	0xbdfad9a2	-0.122485414
211	0x3d6bda0c	0.057580993
212	0x3d9e643f	0.07733964
213	0x3df00e27	0.11721449
214	0x3f37d4d1	0.7180911
215	0xbe1cce7f	-0.15313147
216	0x3ed55c0a	0.41671783
217	0x3e51686a	0.20449987
218	0xbfd19371	-1.637312
219	0x3b2f7faa	0.0026778975
220	0x3e60e2c3	0.21961503
221	0x3f66f211	0.90213114
222	0xbdc0ea04	-0.09419635
223	0x3f51177f	0.8167648
224	0xbe65b9aa	-0.22434106
225	0xbf11c415	-0.5693982
226	0xbca2b447	-0.019861354
227	0xbf0bcf45	-0.54613143
228	0xbed7dadc	-0.42159164
229	0xbf547c69	-0.83002335
230	0x3ee68d02	0.45029455
231	0x3dbd4387	0.092413954
232	0x3e086c70	0.13322616
233	0xbe3d092d	-0.18460532
234	0xbf2d9f91	-0.67821604
235	0x3ea882c7	0.32912275
236	0x3fd60960	1.6721611
237	0x3cf31e9b	0.02967768
238	0x3ec21e24	0.3791362
239	0x3e660eb7	0.22466551
240	0x3ef04b73	0.46932563
241	0xbf05f42c	-0.523257
242	0x3e635058	0.22198617
243	0x3d1da1f5	0.038484532
244	0x3e94e352	0.29079682
245	0xbe025fea	-0.12731901
246	0x3f28b967	0.659079
247	0x3fbfd7eb	1.4987768
248	0x3fa03ec2	1.2519152
249	0xbe1201b8	-0.14258468
250	0x3e3f1977	0.18662058
251	0x3e21062c	0.1572501
252	0xbf318f45	-0.69359237
253	0x3f325dc4	0.69674325
254	0x3e99db23	0.3005
255	0xbedf0ac7	-0.4356291

fc2.bias f4 [128]
0	0xbdc5c7f1	-0.096572764
1	0xbe12cd05	-0.14336021
2	0x3d4e263e	0.05032944
3	0xbe495887	-0.19662677
4	0xbe2f99ba	-0.17148486
5	0xbccfcc6f	-0.025366036
6	0x3d4453cc	0.047931477
7	0x3e3a94b5	0.1822079
8	0x3f1e65db	0.6187417
9	0xbe8ff556	-0.28116864
10	0xbd633d60	-0.055478454
11	0x3bc0b226	0.005880612
12	0x3f064bcc	0.52459407
13	0x3dc80f45	0.097685374
14	0xbc20b4ce	-0.009808732
15	0xbdc8f196	-0.09811704
16	0xbdfc5258	-0.12320393
17	0x3f2f0ef9	0.6838222
18	0x3ec756a7	0.38933298
19	0xbe97a0da	-0.29614908
20	0xbd99cd34	-0.075098425
21	0xbd51326a	-0.05107347
22	0xbaa0ff5c	-0.0012283134
23	0x3b42367d	0.0029634528
24	0xbdad0df4	-0.08449927
25	0x3d18c7ff	0.037300106
26	0xbf2437c1	-0.64147574
27	0xbc4003b9	-0.011719638
28	0x3ebe5f1b	0.37181935
29	0xbdf68a1b	-0.1203806
30	0xbd3e4a02	-0.046457298
31	0xbdf5123b	-0.11966368
32	0xbd1d1279	-0.038347695
33	0xbd843227	-0.06454878
34	0x3e3a7c26	0.18211421
35	0xbdecd584	-0.115641624
36	0x3e953a8b	0.29146227
37	0x3cc89198	0.024483487
38	0xbda80ba4	-0.08205345
39	0x3d1ec5d3	0.03876288
40	0xbcf93952	-0.03042284
41	0xbc808d87	-0.015692485
42	0xbcd62119	-0.026138829
43	0xbd18ca2d	-0.037302185
44	0xbdcd9ee9	-0.10040075
45	0x3c237e10	0.009978786
46	0x3f6311e3	0.8869917
47	0xbc9ed12f	-0.019386856
48	0xbdd422ba	-0.10358186
49	0xbe18abb6	-0.14909253
50	0xbda5788d	-0.08079634
51	0x3ccd5d3e	0.025068875
52	0xbc3e3a33	-0.011610555
53	0xbd1fecf0	-0.03904432
54	0xbd2e491b	-0.042550188
55	0xbda1fd95	-0.07909695
56	0xbe586a17	-0.2113422
57	0xbd27427a	-0.04083488
58	0x3e4d01a1	0.20020153
59	0xbddc3d61	-0.107538946
60	0xbdab9ff1	-0.08380116
61	0xbd99bba2	-0.07506491
62	0x3ebad483	0.3649026
63	0xbe03f2e2	-0.12885621
64	0xbe507e76	-0.20360741
65	0x3e2380a0	0.15967035
66	0xbe396987	-0.18106662
67	0x3caa75ed	0.020808185
68	0xbde77b4f	-0.11302816
69	0xbd869ada	-0.06572504
70	0xbdf54fee	-0.11978136
71	0xbeb6b579	-0.35685328
72	0xbdaae15f	-0.083437674
73	0xbddbbc03	-0.1072922
74	0xbd64671f	-0.055762406
75	0xbd76235f	-0.060092326
76	0x3c5c1c0b	0.01343442
77	0xbf15135e	-0.58232677
78	0x3d73a8c1	0.05948711
79	0xbdbb045f	-0.09131693
80	0x3cffac8c	0.031210206
81	0x3e89cb67	0.26912996
82	0x3c5f3803	0.013624194
83	0xbe65eddb	-0.22454016
84	0x3e16b1ed	0.14716311
85	0xbe27145e	-0.16316363
86	0xbd8eb67a	-0.069683984
87	0xbdaf3e4f	-0.08556806
88	0x3d57842e	0.05261629
89	0xbb6896eb	-0.0035490345
90	0xbf4a2c57	-0.7897391
91	0xbe942e97	-0.28941795
92	0x3e9fb73f	0.31194493
93	0x3e37d61e	0.17952773
94	0xbdc3cdf6	-0.09560768
95	0xbe1c6367	-0.15272294
96	0x3de2b495	0.110695995
97	0x3ec7e365	0.39040676
98	0xbf164f22	-0.587145
99	0xbd5887d3	-0.052863907
100	0xbe0f7ee1	-0.14013244
101	0xbe13352b	-0.1437575
102	0x3f531907	0.82460064
103	0x3f0e55ea	0.55599844
104	0xbcf15790	-0.029460698
105	0xbdeaa2d4	-0.11456838
106	0xbd7cec8f	-0.061749037
107	0xbe1e094d	-0.15433235
108	0xbe024134	-0.12720186
109	0xbdc725a4	-0.09723976
110	0x3bc19e86	0.00590879
111	0xbe38f3ad	-0.18061705
112	0x3a82daa3	0.0009983372
113	0xbe20c823	-0.15701346
114	0xbc4e6d95	-0.012599369
115	0xbe255a96	-0.16147837
116	0x3e331994	0.17490226
117	0xbdc30f4b	-0.09524401
118	0xbe1b8d34	-0.15190583
119	0xbd5fb52f	-0.05461615
120	0xbf436a7c	-0.7633436
121	0xbdcd5b4c	-0.10027179
122	0x3efe72f4	0.49697077
123	0xbdfa37eb	-0.12217697
124	0x3eb245e8	0.3481896
125	0x3eb9e5bf	0.36308095
126	0xbd95c4a1	-0.073128946
127	0xbed47d2a	-0.41501743

out.weight f4 [4, 128]
0	0x3dee9c78	0.11650938
1	0xbec5e3b8	-0.38650298
2	0x39b658b0	0.00034779822
3	0xbf039ad4	-0.51408124
4	0xbf7b70d6	-0.9821905
5	0x3d32e190	0.043672144
6	0x3d1b8558	0.037968963
7	0xbdd7eae3	-0.10542848
8	0x3f30344d	0.68829805
9	0xbf1a0786	-0.6016773
10	0x3d9ce6c3	0.07661202
11	0x3d165786	0.036704563
12	0x3d07331e	0.033007734
13	0xbf33e8df	-0.7027721
14	0xbe30b6da	-0.17257252
15	0xbd9b6735	-0.075880446
16	0x3dfaaec5	0.12240366
17	0x3ff3d010	1.9047871
18	0x3e29eb52	0.16593674
19	0xbf091816	-0.5355238
20	0xbd010aed	-0.03150456
21	0x3d799599	0.060933683
22	0xbf3709eb	-0.7149951
23	0x3caa4494	0.020784654
24	0xbf1f4ff2	-0.6223136
25	0xbe9c7999	-0.30561522
26	0xbf5979d0	-0.84951496
27	0x3d43d9f4	0.04781528
28	0x3f5b1dd0	0.85592365
29	0xbf095652	-0.5364734
30	0x3d0f94c8	0.035054
31	0x3d7bd48e	0.061482005
32	0x3d0e31cd	0.034715462
33	0xbef529c1	-0.47883418
34	0x3cf4a9f0	0.029866189
35	0x3c57a4f2	0.013161885
36	0x3d4a5117	0.04939374
37	0xbdaa5dbd	-0.083186604
38	0xbefade70	-0.4899783
39	0xbdafba73	-0.08580484
40	0xbe32b718	-0.17452657
41	0xbd37845d	-0.044803966
42	0x3d86d7e9	0.0658415
43	0xbed4cbed	-0.41561833
44	0xbef80a40	-0.4844532
45	0x3d1297ff	0.035789486
46	0x3ffd7dab	1.9803976
47	0xbf23d2e8	-0.6399369
48	0xbe7d1dc1	-0.24718381
49	0xbf18dd8a	-0.5971304
50	0x3920aa0e	0.0001532214
51	0x3d6b59a5	0.05745854
52	0xbee2c26c	-0.44288957
53	0xbe6c451e	-0.23073241
54	0xbda0842f	-0.07837712
55	0x3cb4a161	0.022049608
56	0xbf396f75	-0.72435695
57	0xbd2a3780	-0.041556835
58	0x3b3952b5	0.0028278057
59	0x3d50b97b	0.050958138
60	0xbf0436ec	-0.51646304
61	0xbeb843c0	-0.3598919
62	0xbfd71542	-1.6803362
63	0xbe6a034b	-0.22852819
64	0xbeb13b17	-0.34615394
65	0x3e7b4b1f	0.24540375
66	0xbf5ee8f5	-0.87074214
67	0x3d147fca	0.03625468
68	0xbf5298e3	-0.82264537
69	0x3d51d2bd	0.051226366
70	0x3cae48d5	0.021274963
71	0x3efc1bcb	0.49239954
72	0x3d258c3f	0.040416952
73	0x3c495914	0.012289304
74	0xbeb9e0f6	-0.36304444
75	0x3ca2c0e8	0.019867375
76	0xbe30b1d8	-0.17255342
77	0xbfa0ee59	-1.2572738
78	0xbefc57a6	-0.4928562
79	0xbf04e3e2	-0.5191022
80	0x3ff9159e	1.9459722
81	0x3fdf8d19	1.7464935
82	0xbd51ad89	-0.051190887
83	0xbf058276	-0.5215219
84	0xbfda54c1	-1.7057115
85	0xbeb5fe62	-0.3554564
86	0xbd3830ea	-0.044968523
87	0xbeafc27e	-0.34328073
88	0xbee9c87c	-0.4566077
89	0xbf731899	-0.9495941
90	0xbf46c64f	-0.77646345
91	0xbf36ddda	-0.7143227
92	0x401e80a2	2.4766011
93	0x3f5dd636	0.86654985
94	0x3d00b66d	0.031423975
95	0xbd1a62b6	-0.037691794
96	0xbed310c4	-0.4122373
97	0x3f610829	0.87903076
98	0xbf67f7bb	-0.9061238
99	0xbeeb4d67	-0.4595749
100	0xbf2d0537	-0.6758608
101	0xbee4e4d8	-0.44705844
102	0x40267382	2.6008
103	0x3fff29b5	1.9934603
104	0xbd3f354d	-0.04668169
105	0x3d78e2c0	0.06076312
106	0xbce453f0	-0.027872056
107	0xbe845db6	-0.25852746
108	0xbee5100c	-0.44738805
109	0xbef6e9c0	-0.48225212
110	0x3cb5669e	0.022143658
111	0xbf386b9d	-0.72039205
112	0xbfe2789a	-1.7693055
113	0xbedc14ff	-0.4298477
114	0xbca4773c	-0.020076387
115	0xbefc0412	-0.49221855
116	0x3fb85b72	1.4402907
117	0xbca95b26	-0.020673346
118	0x3fc20b8d	1.5159775
119	0x3d08f633	0.03343792
120	0x3d9b0851	0.075699456
121	0xbccd7dc8	-0.025084391
122	0xbf87fca8	-1.062398
123	0x3d93ca7b	0.072163545
124	0x3ff2ccf5	1.8968798
125	0x4017ac0b	2.3698757
126	0xbc335663	-0.010945889
127	0xbf9c8994	-1.2229486
128	0x3c93ae4d	0.018027449
129	0xbf0bf165	-0.54665214
130	0x3cf6dfe1	0.03013605
131	0xbf02b393	-0.5105526
132	0xbf4119d7	-0.75430053
133	0x3c669774	0.014074195
134	0xbc43877a	-0.011934156
135	0xbf68d966	-0.90956724
136	0x3f6c705c	0.92358947
137	0xbf161f7e	-0.58641803
138	0x3d3a1201	0.045427326
139	0xbc87bb9a	-0.016568948
140	0xbf761d38	-0.96138334
141	0xbebf8093	-0.37402782
142	0xbeeae9cf	-0.45881507
143	0x3ce4e1f8	0.027939782
144	0xba2ee551	-0.0006671744
145	0x4014dfd3	2.3261611
146	0x3e120558	0.14259851
147	0xbf20be2c	-0.6279018
148	0x3bddf9b1	0.0067741503
149	0xbd6282e8	-0.055300623
150	0xbea2bb15	-0.31783357
151	0x3cf742da	0.030183244
152	0xbef900a6	-0.48633307
153	0x3f23e601	0.64022833
154	0x3d255f90	0.04037434
155	0x3afc22a1	0.0019236394
156	0xbd0d4859	-0.034492824
157	0xbebde265	-0.37086788
158	0x3dab3d81	0.0836134
159	0xbdb9072a	-0.090345696
160	0xbd9d3e7d	-0.07677934
161	0xbee6eaf9	-0.45101145
162	0xbda002b3	-0.07813015
163	0xbd3a68d1	-0.045510117
164	0x3e1f75c3	0.15572266
165	0x3c89fd36	0.016844373
166	0xbeb8e9a2	-0.36115748
167	0x3ce16b8c	0.027517103
168	0xbf7a0165	-0.9765838
169	0x3d1df4f7	0.038563695
170	0x3c60ba54	0.013716299
171	0xbe963ad1	-0.29341748
172	0xbf052146	-0.52003896
173	0xbd12e323	-0.035861146
174	0x400a3e5f	2.1600568
175	0xbec48e04	-0.383896
176	0xbf3a67d4	-0.7281468
177	0xbefad7df	-0.48992822
178	0x3d0e0977	0.034676995
179	0x3bdec8ab	0.006798824
180	0xbf13fed0	-0.5781069
181	0xbec47e32	-0.3837753
182	0x3c92ca94	0.017918862
183	0xbd8f198b	-0.06987294
184	0xbf184105	-0.5947421
185	0xbd4ac86e	-0.04950755
186	0xbf3023c2	-0.6880456
187	0xbbe469b0	-0.0069706067
188	0xbe3dd51c	-0.18538326
189	0xbe9b202e	-0.3029799
190	0xbfd2519b	-1.6431154
191	0xbeca79b6	-0.39545983
192	0xbf234eef	-0.6379232
193	0x3f4410e0	0.7658825
194	0xbe6e2401	-0.23255922
195	0xbc57fd34	-0.013182927
196	0xbf035abf	-0.5131034
197	0xbc2048b3	-0.009782958
198	0xbcfa5056	-0.030555885
199	0x3f9e4441	1.236458
200	0xbcbc3fa8	-0.022979572
201	0x3db3fca1	0.087884195
202	0xbef60d1c	-0.48056877
203	0x3d8a2e89	0.06747157
204	0xbeca7903	-0.3954545
205	0xbea9d769	-0.33172157
206	0xbf79295e	-0.97328746
207	0xbef8c59f	-0.48588273
208	0x4008c735	2.1371586
209	0x3fdba253	1.7158912
210	0xbdb832d8	-0.08994073
211	0xbf1a5145	-0.6028026
212	0xbf2ac7a5	-0.66710883
213	0xbf1f8e92	-0.6232692
214	0x3dee4e25	0.11635999
215	0xbee33a2a	-0.44380313
216	0xbf24c000	-0.6435547
217	0xbefc66a4	-0.4929706
218	0xbec21f41	-0.3791447
219	0xbf23845d	-0.63873845
220	0x401dfcc4	2.4685526
221	0x3e97c382	0.29641348
222	0xbd484cab	-0.04890124
223	0xbd05b2a9	-0.032641087
224	0xbeb63720	-0.35588932
225	0x3f303819	0.688356
226	0x3da82220	0.08209634
227	0xbf1c3d2a	-0.6103083
228	0xbee8c1c9	-0.45460346
229	0xbf114cee	-0.5675801
230	0x40095a50	2.1461372
231	0x400483b4	2.0705385
232	0x3da28f82	0.07937528
233	0x3d91a619	0.07111759
234	0x3bf9b81c	0.0076208245
235	0xbf0f972b	-0.5609004
236	0xbf03c499	-0.5147186
237	0xbf0c8273	-0.5488655
238	0xbc3e2612	-0.011605756
239	0xbeb59efb	-0.35472855
240	0xc03effd1	-2.9843638
241	0xbe84c031	-0.2592788
242	0x3ccdae82	0.025107626
243	0xbf0c8e2f	-0.54904455
244	0x3fd03fca	1.6269467
245	0x3d600655	0.05469354
246	0x3faded60	1.3588066
247	0xbceff27a	-0.029290427
248	0xbfc7f372	-1.5621169
249	0xbc7508fb	-0.014955754
250	0xbf8150c7	-1.0102776
251	0x3c6cc6af	0.014451667
252	0x400ef261	2.2335436
253	0x400ed697	2.2318475
254	0x3d93c812	0.07215895
255	0xbfa14f1b	-1.2602266

out.bias f4 [4]
0	0x3ed3aa76	0.4134099
1	0x3d4518bb	0.048119288
2	0x3eac2726	0.33623618
3	0x3e91a7ce	0.28448337
