DQN/models/dqn_ep500_20250415_151653.pth (torch, 75580 bytes, 6 tensors)

fc1.weight f4 [128, 8]
00000000: 6303 8abf bdb9 5dbd baca 0fbf ae32 9cbe
00000010: 8b43 0dbc 239e 1abf a7f5 8cbd ded1 4d3f
00000020: 85f5 1ebf 6f8a bb3e 2ca1 90be ee74 2b3e
00000030: 6b51 b9bf 2e68 e73e b320 6bbe 74ec 9a3e
00000040: 19d5 eebe 5ca2 f43d 88c8 163d 4708 83be
00000050: 639b 803f 8ae7 cb3f 90bc fb3e 2592 1fbf
00000060: 775f 95bf edfb 70be a7a2 91bf 2ab9 843d
00000070: 5a66 563e b992 a7be 9c5b 0d3e 1c15 26bf
00000080: 5750 583f 7def 743f 7171 1ec0 cc94 f6be
00000090: 17a6 0abf 35ff d53c 96f8 d1bd 628a 9dbe
000000a0: 81e5 3abf 8623 8dbf 616a cbbe 9ac2 44bb
000000b0: 42b4 863f fc4b 72bf ba48 0ec0 d030 e93e
000000c0: a299 d33f 4d40 3fbe b788 883c 68fa febe
000000d0: 5ce9 c23e 0144 983e d7ee 793e b48e 26bf
000000e0: cb68 e3bf 255e 8c3e 6312 93bf dfb9 dd3d
000000f0: c24a 263f 4a90 86bd 0438 04c0 6a0a 713e
00000100: d97e 473f c048 09bf 9a81 e93e 8b26 febe
00000110: ba38 43bf 8996 cbbe 6df4 b43e fef9 f2be
00000120: c9be 91bf 3d43 18bd 7c10 1dbf a42d 413d
00000130: b9cd b43f 8550 5bbf bfe9 d3bf 9918 573e
00000140: 8357 353e 54a6 62be 7ba1 0bbd 4723 2a3e
00000150: 868b 60be ac5d fe3d 7a2c 4dbe 2e66 9bbd
00000160: 3de2 c43e 237d bcbf 5785 65bf 647e c23f
00000170: 9d31 39bf 9e86 8abf 9dca 443f 59f7 973e
00000180: edfb 1a3f 4803 c1be fa94 a43f 31e9 943b
00000190: 970c bfbd 3c9a d1bf 83f1 39bc 79be 32bf
000001a0: 38b2 693f f1b9 9dbd e240 273e 5a6e a8be
000001b0: c828 77bf d78d 9fbf 34b2 f63e 16cc 193f
000001c0: 1770 8ebf 6020 46bc ee97 293f c948 9dbb
000001d0: 4582 253e 28cf 913f 83c6 313e 49b9 073f
000001e0: 4fb1 c6be ac1c 2c3d 051b 2ebe 141f 5fbf
000001f0: 6757 023e 5734 ca3e ec2f 05bf 4268 98bd
00000200: de39 6e3f 03cb 443d 7631 17be 3576 04bf
00000210: 120f edbf a8f7 e0bd 33c7 273d ecc4 433f
00000220: 4e65 16c0 950b 473f 7d18 bf3e 2c42 8c3e
00000230: 6a18 513b 608f 2b3d 9a69 04c0 0f4d 7dbe
00000240: 748f f73b 9a6b cfbe da77 4f3e 5f35 1dbe
00000250: 805b 8f3e f078 963f c295 a73d 71ba 02bf
00000260: 0ce7 053d 52e5 50bd 8e70 e2be 7656 f4bd
00000270: a302 16bf 22f6 103f 3a40 753e 3c4a 8ebe
00000280: 4176 5e40 0f63 15bd c0c0 843f 81a9 b7be
00000290: 370b 41bf b30a 60be f160 9fbd 0dac 113d
000002a0: b889 62be 2662 f7bf c7ab fabe 69c9 0bc0
000002b0: 571b d6bc 347a 2ebc b668 79bd fd7b 883e
000002c0: 0ca8 c53d a00f 0b3f fa5e 64bf 24c5 ee3e
000002d0: 7d4e cb3f 0e71 c93d 7c3f 5fbf bd32 42bd
000002e0: 7bbb 24bf 997c 16bf bdce fc3d 0c81 65be
000002f0: e398 033f 7c1d b7bd 6ea1 a63e 69cf b03e
00000300: c6cb 323f fea5 7bbf 53dc 63bf 97b0 0dbf
00000310: b239 bd3f 9fd3 9f3e d2f5 0fbd 5ec9 f8be
00000320: 4894 e73e 0310 413e ff64 023f fc13 1cbe
00000330: 3ee9 d33e f79f 2ebf 52e1 0fbe 2ebb a4be
00000340: 5a51 b2bf 61d8 863f 383e 59be c701 823f
00000350: 4104 86be a821 b8bd d5c1 b2bf d5bd 33be
00000360: d0b7 a03e 5d0a a2bc 5398 b33d cb73 6cbf
00000370: 7279 c63f f6e7 b9be 30ee 29bf fc8d 7b3d
00000380: ad58 d23e 5733 053e b924 90be 04f8 00bf
00000390: 9337 253f 54ef b8be 5b25 74bf 3414 e83e
000003a0: 0edb b7bf c3ef aa3e e6ba 6a3e 9617 77be
000003b0: d44e 1bbf 724f 0e3f 96d8 29bf a471 a5be
000003c0: 9c48 a63f fa9a 6f3f d639 133f 9072 b73f
000003d0: 0f7c 83be 7528 8cbe 6fd5 7ebc be5c 703e
000003e0: 0f1f cf3f 9528 b33e 13a4 c2be dfd8 b6be
000003f0: b00d 91bf 6a4b cc3d 1746 bdbe 0342 7b3f
-1.0782284 -0.054132212 -0.5616871 -0.30507416 -0.0086220605 -0.6039755 -0.06882792 0.80398357
-0.62093383 0.36629054 -0.28247964 0.16743824 -1.4477972 0.4519667 -0.22961693 0.30258524
-0.46646956 0.1194503 0.036812335 -0.25592253 1.004742 1.5930035 0.491673 -0.62332374
-1.1669759 -0.23533602 -1.1377763 0.0648063 0.20937482 -0.32729128 0.13804477 -0.6487596
0.8449759 0.9567793 -2.475674 -0.48160398 -0.54159683 0.026122669 -0.10252492 -0.3076964
-0.73006445 -1.1026466 -0.39729598 -0.0030023218 1.052376 -0.9464719 -2.2231889 0.45545053
1.653126 -0.18676873 0.016666753 -0.4980042 0.38068664 0.29739383 0.24407516 -0.650615
-1.7766355 0.27415577 -1.1489986 0.10826468 0.6495782 -0.0657049 -2.065919 0.23539129
0.7792793 -0.5362663 0.4560669 -0.4963878 -0.7625843 -0.39763287 0.35342732 -0.47456354
-1.1386348 -0.0371735 -0.6135328 0.047162667 1.4125282 -0.8566974 -1.6555709 0.21005477
0.17709164 -0.22133762 -0.034089547 0.1661502 -0.21928224 0.1242021 -0.20036498 -0.075878486
0.38453856 -1.4725689 -0.89656585 1.5194821 -0.7234133 -1.0822332 0.76871663 0.296809
0.6054066 -0.37697816 1.2857964 0.0045444 -0.09328573 -1.6375194 -0.011349085 -0.6982189
0.91287565 -0.07701481 0.16333345 -0.32896692 -0.965466 -1.2465161 0.48182833 0.60077035
-1.1127957 -0.01209268 0.6624745 -0.0047999364 0.16162975 1.1391344 0.17360882 0.530171
-0.3880715 0.04201953 -0.17002495 -0.87156796 0.12728654 0.39493057 -0.5202625 -0.074417606
0.9305705 0.04804517 -0.14764962 -0.5174287 -1.8520224 -0.10984737 0.040961456 0.76472354
-2.3499331 0.7775205 0.3732337 0.27394235 0.003190542 0.04188478 -2.0689454 -0.24736427
0.0075549427 -0.4051178 0.20260563 -0.1535239 0.27999496 1.1755657 0.08182861 -0.51065737
0.032691047 -0.050999947 -0.44226497 -0.119305536 -0.58597773 0.5662557 0.23950282 -0.2779101
3.4759676 -0.036471423 1.0371323 -0.3587151 -0.7540774 -0.21879081 -0.07782162 0.03556447
-0.22122848 -1.9326828 -0.4895918 -2.184168 -0.026136084 -0.010649253 -0.060890876 0.26657096
0.09651193 0.54320717 -0.8920742 0.4663478 1.5883328 0.098360166 -0.87206244 -0.04741167
-0.6434857 -0.5878387 0.1234412 -0.22412509 0.5140516 -0.089411706 0.32545036 0.3453324
0.69842184 -0.9830016 -0.89008063 -0.5534758 1.4783232 0.31216142 -0.035146542 -0.4859113
0.45230317 0.18853764 0.5093536 -0.15241998 0.41388887 -0.68212837 -0.14050797 -0.32174057
-1.3931077 1.0534784 -0.21215141 1.0156792 -0.2617512 -0.089907944 -1.3965403 -0.17552884
0.31390238 -0.019780332 0.08769288 -0.92364186 1.5505812 -0.36309785 -0.6637907 0.061414704
0.4108328 0.13007866 -0.28153017 -0.5037844 0.64537925 -0.36120093 -0.953695 0.45327914
-1.4363725 0.3338605 0.22922859 -0.24130091 -0.6066716 0.55589974 -0.6634611 -0.32313263
1.2990909 0.9359585 0.57510126 1.4331837 -0.25680587 -0.27374616 -0.015553816 0.23472878
1.6181353 0.349919 -0.38015804 -0.35712335 -1.1332302 0.099753216 -0.36967537 0.981476

fc1.bias f4 [128]
00000000: cbb3 763e 4fd3 17bf b588 f7be 2644 eebe
00000010: 369b c43c 8876 d9be 2ca9 6b3e d7a2 87be
00000020: 5383 763f 239a b6be 7afd c6be c9bd 863d
00000030: 2a35 d0be 2de3 d6be cde7 203f 1f93 083f
00000040: 5061 65bf 5ce6 b33e 7964 e43e 4bbc fa3e
00000050: 9a68 dcbc 87be 53be 4630 273f d520 a83f
00000060: d772 243f 116f aa3e 221b 533e a5c2 6bbf
00000070: e7fb eb3d 4e17 c73e 947f 5e3f ef17 8abe
00000080: 6ecd 94be 000a 78bf fd8c 4f3e 38ce 133f
00000090: 05b8 d1be 535a f03e c120 c23e aea6 413f
000000a0: e911 23bf cd85 e53d a6f4 843e aa7f 75be
000000b0: 2959 90bf 465d af3e 49da 7ebf 0846 4abf
000000c0: 5513 043f 9eea 19be e6e6 c23e 64b3 9c3e
000000d0: 8bc0 69bf 89bd 143f 97d9 0f3e 0d57 00bf
000000e0: d0e7 c4bd 0052 77bf 054a d63e c5f1 85bf
000000f0: 7eec d03e 3659 c33e 4b70 9f3e a247 22bf
00000100: 3bc8 17bf 853e 353f c1c3 47be 1425 cf3e
00000110: a6b9 303f d261 2dbf 749a 103e f007 cf3e
00000120: d9b4 eb3e f416 483f ef58 8dbe 77de 943d
00000130: f1eb ff3d 63de c63e 8afe 0fbf 9858 4a3f
00000140: a766 55bf fa1c 2c3f 6ee1 9c3e 901d f1bd
00000150: 5a7c 35be 9725 993e 3df4 a4be 8800 10bf
00000160: 43bd 9f3d 432d 953e 5dbc 22bf 64ef 723e
00000170: 26d7 2b3f 4801 cf3e 5aa9 ba3e 2684 243f
00000180: 007d e43e 8c31 073d 076d 6bbc 2d6e d93e
00000190: ecf2 8e3e 83e0 1cbf 40ed 60be e9fc cb3e
000001a0: b670 67bf a5a3 123e c35b d83e 918d 9b3e
000001b0: dc6a 133f 71da 07bf b76e a73b cde4 1ebd
000001c0: d984 da3d 97fe 0bbf b8d9 173e b67f 383e
000001d0: 2837 3ebf 8d46 9c3e ceb3 69bf 4491 7fbe
000001e0: 8f39 163f cd90 9d3e ee7b 483e ec49 043f
000001f0: 2f33 25bf b46a 61bf a31b a33e 0ed1 b2be
0.24092023 -0.59306806 -0.48346487 -0.46536368 0.023999792 -0.42473245 0.23013753 -0.26491424
0.96294135 -0.35664472 -0.38865262 0.065791674 -0.4066556 -0.41970196 0.628537 0.5334949
-0.8960161 0.35136688 0.44607905 0.4897178 -0.026905347 -0.20678149 0.65308034 1.313502
0.6423773 0.33287862 0.20615819 -0.9209388 0.11522656 0.38884968 0.8691342 -0.26971385
-0.2906298 -0.9689026 0.20268627 0.5773654 -0.40960708 0.46943912 0.37915614 0.7564496
-0.63699204 0.11207161 0.25967902 -0.23974481 -1.127721 0.3425085 -0.99551827 -0.7901311
0.51592 -0.15030906 0.38066787 0.30605614 -0.9130942 0.5810171 0.14047848 -0.5013283
-0.09614527 -0.966095 0.41853347 -1.0464407 0.4080543 0.38154 0.3114036 -0.63390553
-0.592899 0.7079852 -0.19508268 0.40457976 0.6903328 -0.67727387 0.14121419 0.40435743
0.46036413 0.78160024 -0.27606913 0.07268994 0.12496174 0.38841543 -0.5624777 0.79041433
-0.8335976 0.67231715 0.3064074 -0.11773217 -0.17723218 0.2991149 -0.3221759 -0.5625081
0.07799771 0.29136094 -0.6356867 0.23724133 0.67125165 0.40430665 0.3645733 0.6426414
0.44626617 0.033006236 -0.014369256 0.4246687 0.2791971 -0.6128008 -0.21965504 0.39841393
-0.9040636 0.14320238 0.4225751 0.30381444 0.5758493 -0.5306769 0.005109634 -0.03879242
0.1066987 -0.5468535 0.14829147 0.18017468 -0.7430291 0.30522576 -0.91289985 -0.24957758
0.5868158 0.30774537 0.19578525 0.51675296 -0.64531225 -0.8805344 0.31857023 -0.3492512

fc2.weight f4 [128, 128]
00000000: 871b 183e 3945 7cbd 37c3 bf3e 9b29 adbe
00000010: 8de0 713e 82c1 213f 6490 f3be 4c65 863e
00000020: 20da 8abf 5c41 213f 213b 47bd 002e 94bf
00000030: dd41 eb3e d05b 933e c914 99be e907 353e
00000040: 1691 a23e ded7 153f 79bc abbb fc74 6dbe
00000050: c429 613d 03b5 0d3f 72d0 d9bd b923 553d
00000060: 19a5 653e 9566 2b3f b53b 453f a3e5 3b3f
00000070: 1bd5 d03e 19d6 f13e eb2f 903e bbd7 98be
00000080: 10cf a23d 7f44 163f b7a0 1d3e c8ff 43bf
00000090: 2cd7 ccbe ebd3 67be cfb6 093f 28dc 4b3c
000000a0: d47e 2a3f db45 b53e 1861 6b3c dc2a 9f3e
000000b0: 6f79 433f cb10 41bf 9534 6b3f 1a63 15bf
000000c0: 3d6b d83d 5c9f eb3d de57 a4bd fcf4 ffbe
000000d0: c632 6c3e 38b3 dbbf 6685 c2be 54ac c03e
000000e0: 62ae 653e f937 04be 0ab6 ac3e 59c6 3b3f
000000f0: 340f 5b3c 9ddd 99bd cf4d fc3c 9a9a 22be
00000100: 846f 3b3f 53d6 913e d478 02bf 214f 5b3e
00000110: 9296 113f ed12 133d 0887 4dbd 98ff ac3c
00000120: 263d 093e f642 443f 8c81 053f 204b 9d3d
00000130: 40b8 0fbe 6922 933d 4328 d83e 8e1c 293f
00000140: d2ad 3f3f 4384 d63e cdf5 18be 0d9a 293f
00000150: 08e5 bc3e fb53 843e 9a34 2c3e 93bc 4cbf
00000160: 7a6b 953e 68eb 733e 4909 31be a437 3dbe
00000170: fecb 7dbe 983c 86be 061f 883e ea67 843e
00000180: c111 9ebc 6738 b6be e67a ae3e b097 3dbe
00000190: 5d6e a23e 9388 30be 0693 7a3c 6c9e 2f3f
000001a0: 8ed6 39be 0937 b9bd 031a b83c 6e2c 1d3e
000001b0: 2614 f13e 47d4 8b3e 8b48 bb3f b29c c2bd
000001c0: 4d33 853e 3176 12bf 2161 acbd 9337 7cbf
000001d0: d2ab 863f c7b3 71bf 140d 95be 67a3 8e3f
000001e0: 053d 52bb 2a95 e83f 4a78 d6bc 4c1d 813f
000001f0: 0d9b b4bf 3979 353f fde4 073f 583b a43e
00000200: 6642 98bd e16a 97bd 98ad c9bc e4b7 d73b
00000210: 562f cfbd ba01 65bd ff21 80bd bdc5 adbd
00000220: b331 063d 836a 04bb 1c01 8cbd 40aa 80bd
00000230: 86b5 4abd 18ee d0bd 20b5 92bd c713 d3bc
00000240: 3746 813c f932 86bd 0609 9abc 8595 803c
00000250: ad1c be3b b838 0abc 2f02 483d f4a3 66bd
00000260: ac28 78bc 38fb 433d 3ef1 483d 7e26 d3bd
00000270: a40a b0bd 0cff 293c d543 b2bd 1cad 3cbd
00000280: f948 afbd e51b c1bc e782 cdbd ed38 1bbd
00000290: 43a3 9dbd b0a9 ebbc fce0 bdbd bd95 373d
000002a0: e172 68bd 29ac 65bd f4f5 50bd f593 f9bc
000002b0: 7378 92ba 4d6c 323c 5115 b7bd 53d0 0ebd
000002c0: 9dfd 453d 7728 8e3c 12af e23c 9ce9 a4bd
000002d0: ca9f 8d3d fa45 873c 4a37 c53c a77a 833d
000002e0: 2fee 813d 790a f43b 58e5 e03c 02c2 9abc
000002f0: 60c8 95ba 60e0 383b a4b2 c8bd 29f9 a53b
00000300: 2861 2f3c 9a87 c43b e5c7 143d 40ed a63d
00000310: 93ea 1fbd eac0 25bd fe65 c4bc 0f9f babd
00000320: 1bbc 803d 883b 30ba f750 b13c fdfb 08bd
00000330: 7b38 ac3b ebd8 893c 9720 b4bc efe4 5d3d
00000340: f50e b3bc fe71 5f3d 9d7c 68bd 08b4 633d
00000350: 83eb 87bb 68e5 5ebd 897b e53c 4d73 34bc
00000360: a27a bdbb ce45 93bc 171c c3bc 0486 b5bd
00000370: aef5 8ebd 515d 5fbd 5d70 923c e462 8a3c
00000380: b855 5abd 8354 40bd b892 71bd 62c6 f5bc
00000390: 4e78 78bc d5b6 62bd 7184 2f3d e389 c9bd
000003a0: cdaa 613d 7005 93bd e08c 10bd 0a56 bf3c
000003b0: c319 16bd 0e5e 753d b6a4 8ebd 4afa 8bbd
000003c0: c59c 59bc cc07 80bd c044 56bc ae96 81ba
000003d0: 7546 38bd 0b3a 0c3c 0734 fabc 7963 a9bd
000003e0: 8cf2 843c a073 fabc e402 7c3d 3794 c83c
000003f0: 9bab a23d af18 433d 96a0 b6bd d4ec b1bd
0.14854251 -0.061589453 0.37453625 -0.33820805 0.23620816 0.63185894 -0.475711 0.26249158
-1.0847816 0.62990355 -0.048640374 -1.1576538 0.45948687 0.28780985 -0.2989867 0.17678799
0.31751317 0.5853251 -0.0052409736 -0.23189157 0.05497147 0.55354327 -0.10635461 0.05203602
0.22426261 0.669534 0.7704423 0.7339727 0.40787587 0.47233656 0.28161559 -0.2985209
0.0794965 0.58698267 0.15393339 -0.76562166 -0.40007913 -0.22639434 0.5379457 0.012442626
0.66599774 0.35404858 0.014366411 0.31087387 0.7635717 -0.7541625 0.9187711 -0.5835434
0.10567329 0.11505005 -0.08024572 -0.49991596 0.23066244 -1.7164068 -0.379924 0.37631476
0.22429803 -0.12911977 0.33732635 0.7334953 0.013370324 -0.075129725 0.03079882 -0.15879288
0.73217034 0.2848383 -0.5096562 0.21416904 0.5687038 0.03590672 -0.050177604 0.02111797
0.13402233 0.76664674 0.521508 0.076803446 -0.1403513 0.071842976 0.42218217 0.66059196
0.74874604 0.41897783 -0.14937516 0.6625069 0.36893487 0.25845322 0.16816941 -0.7997524
0.2918356 0.23820269 -0.17288698 -0.18478256 -0.24784848 -0.26218104 0.2658617 0.2586053
-0.019295575 -0.35589907 0.3407814 -0.18514895 0.31724826 -0.17239599 0.015293842 0.6860111
-0.18148252 -0.090437 0.02247334 0.1534898 0.47085685 0.27310392 1.4631513 -0.095025435
0.26015702 -0.57211596 -0.08416963 -0.985223 1.0521185 -0.94414943 -0.2911154 1.1143616
-0.0032079828 1.8170521 -0.026180405 1.0087066 -1.4109818 0.70888096 0.53083783 0.32076526
-0.074345395 -0.073934324 -0.024618909 0.006583201 -0.101164505 -0.05590985 -0.06256484 -0.08484981
0.03276224 -0.0020205087 -0.06836149 -0.062824726 -0.04948952 -0.10201663 -0.07163453 -0.025766267
0.015780551 -0.06552691 -0.01880313 0.015696296 0.0058017583 -0.008436374 0.048830207 -0.0563087
-0.015146416 0.047847003 0.04905819 -0.10310076 -0.085957795 0.010375749 -0.08704344 -0.046063527
-0.0855884 -0.023572871 -0.10034733 -0.037896086 -0.07697155 -0.028767437 -0.09271428 0.044820536
-0.056750182 -0.056072388 -0.05101581 -0.03046606 -0.0011174813 0.010890079 -0.08939613 -0.034866642
0.048337568 0.01735328 0.02767137 -0.0805237 0.06915243 0.01651286 0.024074215 0.064198785
0.06344258 0.0074475375 0.02745311 -0.018891338 -0.0011427514 0.002820991 -0.09799698 0.0050651026
0.010704316 0.0059976103 0.036323447 0.081507206 -0.039042067 -0.04046718 -0.023974415 -0.09112369
0.06285878 -0.0006722738 0.021645052 -0.03344344 0.0052557564 0.016827067 -0.021988196 0.054173406
-0.021857718 0.05455207 -0.056759465 0.055591613 -0.004147948 -0.054417998 0.028013008 -0.011013818
-0.0057824412 -0.017977621 -0.023817105 -0.08863452 -0.069804534 -0.054532353 0.017875845 0.016892858
-0.053304404 -0.046955597 -0.058977813 -0.030001823 -0.015165402 -0.055350143 0.042850915 -0.09840753
0.05509453 -0.071787715 -0.0352906 0.023356456 -0.036645662 0.05990415 -0.0696501 -0.06834848
-0.013282006 -0.06251487 -0.013077915 -0.0009886825 -0.044989068 0.00855876 -0.030542387 -0.08270926
0.016228937 -0.030572712 0.061526194 0.024484737 0.079428874 0.047630962 -0.08917348 -0.086877495

fc2.bias f4 [128]
00000000: a950 52bd 3847 a03c 7eae 67bd 4eab c5bc
00000010: c439 4bbc cdb8 a53d 7aac 98bd f108 a23e
00000020: 4e4e 073d 922d eebd 0989 8fbe c468 9cbd
00000030: cd83 3b3e 4590 c2bd a2fb 113d 258d 993c
00000040: c3ff 7fbd 3d98 4b3e 5bc9 913d e40d dd3d
00000050: d04f 7fbd 1c7d d63e 340a cdbc 7c31 78be
00000060: 5c55 9f3a 6180 f1bc ca40 e73d e11a 0fbd
00000070: 1031 be3e 22e4 8f3e 9d28 3d3e 1844 3b3d
00000080: e6e3 3e3f e408 07be a693 15be 8c53 e1bd
00000090: 2037 473d be98 9fbd dc4c 63be b3b3 d73c
000000a0: 0d0a 8a3d f575 a9bd 848f 36be 4d21 ea3d
000000b0: 3ae1 c1bd 0adb 7c3e 6590 553d cade a23e
000000c0: a291 2d3d 4a52 483f 4d5a 73bd 2410 aebd
000000d0: d11f 013e c964 86bd 3b17 393b 8708 343e
000000e0: 7e8a 04bd 002e 403f a4f8 3fbd 5f86 5a3f
000000f0: 7a2d 14bc c826 883e 9bab 1abc 7f9f bfbc
00000100: f0a0 5ebd 2d95 85bd bb67 4c3c d036 5ebd
00000110: 7663 12bd b4e5 d6bd d77b 973d e2d7 34bd
00000120: d3d9 0dbe aa25 40be 1f7a 243f cb01 aa3d
00000130: 1c6f 25bc 077f 62bd 3dac b9bd 9e31 49be
00000140: e305 c9bd 4edc 31bd 85a9 7cbe b216 b23d
00000150: b928 963b cc2f 9e3c 2b1e dbbc 92d5 0fbd
00000160: f1f7 65be cc75 8f3c a2b6 56be e707 023f
00000170: 46f5 14be 9123 8cbd 052c 2f3d df1e 333d
00000180: dea0 67be 67c5 2e3f 6583 bebe 77cf 1abe
00000190: abce 17be 6c5a 183d cb33 c0bd cc7b 6dbe
000001a0: c27c f2bd d1e6 06bd f94b 3dbd b78f debc
000001b0: 28b0 16be 8481 92bd 33bf b53c 4aa7 9ebe
000001c0: ba87 3d3e 9ad6 debd e1a1 46bd 8797 703e
000001d0: a1f3 e13e 516a 06be 911d fcbd fa55 0cbe
000001e0: fe1b c83b 11b7 98bc b2de 8cbe 42d7 01be
000001f0: e9e7 963e fcbd 6b3e db1a 823f bad2 be3e
-0.051346455 0.01956521 -0.056562893 -0.024129536 -0.012403909 0.080918886 -0.07454772 0.31647447
0.03303366 -0.116297856 -0.28034237 -0.0763717 0.18311997 -0.095001735 0.035640366 0.01874406
-0.062499773 0.19882293 0.07118484 0.10793665 -0.062331975 0.41892326 -0.02502928 -0.24237627
0.0012156176 -0.029480161 0.112916544 -0.034937743 0.37146807 0.2810374 0.18472524 0.045719236
0.74566495 -0.13186985 -0.14607105 -0.110022634 0.048636556 -0.07792805 -0.22197288 0.026330804
0.06740198 -0.08274452 -0.17828184 0.11432133 -0.09466787 0.24692932 0.05213966 0.318106
0.042375214 0.78250563 -0.05941229 -0.08499172 0.12609793 -0.06562192 0.0028242606 0.17581378
-0.03235864 0.7507019 -0.04686798 0.85361284 -0.009044046 0.26592088 -0.009440328 -0.023391483
-0.0543527 -0.06522594 0.012475903 -0.054251492 -0.035739385 -0.10493031 0.073966675 -0.044151194
-0.13852625 -0.18764368 0.6424884 0.08301123 -0.010097291 -0.055296924 -0.09066055 -0.19647834
-0.09815576 -0.04342299 -0.24674042 0.08695735 0.0045824912 0.0193099 -0.026747784 -0.035115786
-0.22457863 0.017512225 -0.20968106 0.5079331 -0.1454669 -0.06842721 0.04276659 0.043730613
-0.2261996 0.6826996 -0.3720962 -0.15118204 -0.14824931 0.037195608 -0.09384879 -0.23191756
-0.11840202 -0.032934967 -0.04621503 -0.027168138 -0.14715636 -0.071536094 0.022185897 -0.30987006
0.18508807 -0.10880776 -0.048494224 0.23495303 0.44131187 -0.13126494 -0.12310327 -0.13704672
0.0061068526 -0.01864198 -0.27513653 -0.1267977 0.29473808 0.23021692 1.0164446 0.37270147

out.weight f4 [4, 128]
00000000: b185 deb9 1c80 7d3d 3e4f 84bf c7ee 76bf
00000010: f97b c03c c88e f2be 8abc 80bf 4867 ecbf
00000020: 8e8d 7fbf e478 863d 8f0c 03bf 62b5 f8bc
00000030: 57fc 8fbf cb82 78bc 9170 723c daae 38bd
00000040: 1cef 79bf a4a8 5cbf 294c aebe b8b4 f5be
00000050: 3756 bfbd f54f 823d 5f56 44bd 0609 62bf
00000060: 0b52 b4bf 9a7f 0fbf 2176 ddbe 9114 a8bc
00000070: 71e0 643f cd4c 00c0 2d02 46bf ddad 8dbd
00000080: 5a42 9a3f 52e2 7abd e826 06bf 9ba8 9bbc
00000090: 2460 3b3f cc4c 16bf 1862 41bd e96f 32bf
000000a0: 858e 35bb 9cce 223d ccb8 24bd 726f b0bf
000000b0: 3d18 1b3e c53e 1bbf 5411 aebe cb7e e03f
000000c0: b400 9cbf c84d d03f b40e 3cbf 8751 6e3c
000000d0: c528 30bf d1d5 ae3f e053 4f3d 999b 25bf
000000e0: 34ca 013d 79b4 a93f 86d6 59bf 4904 d13f
000000f0: 1a53 0cbc 6918 49bf 4a9f f8be ada1 0ebf
00000100: 8047 07bf 5945 443d af0e 74bc a633 26be
00000110: 9556 ccbf 7785 663c 91ef 4ebe 2497 023d
00000120: bf79 8dbd e5cc 3d3f 7977 1140 f092 d1be
00000130: 1e84 09bd 3383 a43d 743c a33d 5436 6e3e
00000140: 6e88 4abd ed48 61be f10c ac3e 0169 7fbf
00000150: 9a19 f13c 14f7 b43d 6467 dfbc 5eac 233c
00000160: 1434 2fbe 00d5 53bd 2862 c43f 492a be3f
00000170: 1808 d4bf 8122 7d3d c8ef a3be fcce f0be
00000180: 6827 80bf b2af a73f e503 dfbe f5bc ccbf
00000190: 2dd8 1bbf 38ec 383d 83a4 d1be 67ae 66be
000001a0: 6eb0 c3be 5586 3a3d a450 70bf 0bc4 e4bf
000001b0: 65d8 0f3d 513a 963d 72b0 a63f e747 5d3f
000001c0: d9fb 5ebf 96d9 55bd c3d9 e43c 3143 7c3f
000001d0: 1ac7 0a40 415c 90bc 06f3 02bf 452f b13e
000001e0: 569a bc3c c6ff 96bf 545c 14bf 91f1 e5be
000001f0: a16f 063f ced4 7ebe 1ff6 3440 55d0 153f
00000200: 9427 58bf bc4a 823d 4e3f 2fbf f5b8 6fbf
00000210: 804e 9d3d a0ad 7abe 922d 54bf 70b1 1dc0
00000220: d15b e93e a633 68bd d0f7 d6bc 6461 593c
00000230: 3bea ccbf 5aa0 47bd 2b92 783c 83c2 033d
00000240: ba1f 20bf 6566 76bf 96aa 3abf d7f6 e7be
00000250: caab 8ebc 858d c73d cf4f 27bd cf1b 88bf
00000260: 0727 39bf 25b9 a13c 4d98 d7be d8a9 a03d
00000270: af34 fc3f 7ac2 dcbf fa1d 3dbe df24 6b3d
00000280: 9fca 1c40 4332 5a3c 57d2 b7be 891d 2ebb
00000290: 89be 953d af79 48be 0974 4d3b 1912 16bf
000002a0: 7f43 853d a552 d8bb 6a90 43be bd62 7ebf
000002b0: 6c7b 05bf 4d31 a1bf 2ac1 61bf 0e9a b33f
000002c0: 89a1 02bf d488 0740 09cb c7bf 8c2f f1bc
000002d0: 0445 1cbf 3124 e53f 28fc 40bc 4dff 82bf
000002e0: 2a99 633b 1f9c d03c 0e75 e8be 0143 0340
000002f0: 4cf6 ca3c b9ac 61bf 007e 47be ab27 9cbe
00000300: 8516 f1be 42ca 8c3d c889 2bbd d481 67be
00000310: af08 ab3e 2537 483c 0d06 f8be 6b72 6b3d
00000320: ed27 4f3d 403f 1f40 514b a13f 4584 b23f
00000330: dbff 203d f5e3 64bd e416 373c 83bc 56bf
00000340: a25e a6bc 3256 61bf 9321 efbe 56fa 53bf
00000350: 89bd 553d 6994 22bc 1450 38ba 06ca 443d
00000360: e9a9 43bd a2dd 89bd 1b30 7bbd 8ad6 2440
00000370: aa03 02be 44ab 3abd f18a 00bf cc31 03bf
00000380: 9894 1cbf e945 1040 9b3d cfbf 5c7c 2ebf
00000390: 55cf f0be 375b ebbe 5c26 b0be 810f afbe
000003a0: 2b1e 0bbf 5271 85bd 1833 39bf 294c c0bf
000003b0: ed31 b9bd b6ab 1cbd 074b 083f a113 e73f
000003c0: 8be7 0a3f 1ed3 3abc 9534 c43c 2123 12be
000003d0: 8bdf b73f 353d 9e3d 8ac7 1cbf 6a8c 01c0
000003e0: e2b6 4bbd 8865 7ebf 7b55 64be 1ae4 e8bd
000003f0: 7747 ce3f 2a92 77bf 6576 2140 7e58 7c3e
-0.00042442748 0.061889753 -1.0336683 -0.96458095 0.023496615 -0.47374558 -1.0057538 -1.8469019
-0.9982537 0.06566027 -0.5119104 -0.030359928 -1.1248883 -0.015167902 0.014797346 -0.045088626
-0.97630477 -0.86194825 -0.3404248 -0.4798944 -0.09342616 0.06362907 -0.047933932 -0.8829502
-1.4087538 -0.5605408 -0.43254188 -0.02051762 0.8940497 -2.0046875 -0.7734707 -0.069179274
1.2051499 -0.061250992 -0.52403116 -0.019001296 0.73193574 -0.5871093 -0.04721269 -0.6970201
-0.0027703356 0.03974782 -0.0402153 -1.378401 0.15145965 -0.60642654 -0.33997595 1.7538694
-1.2187715 1.6273737 -0.73459935 0.014545805 -0.6881221 1.3659002 0.0506171 -0.6469055
0.031686977 1.3258201 -0.8509296 1.6329433 -0.008564735 -0.7855287 -0.48559028 -0.5571545
-0.52843475 0.047917698 -0.014896079 -0.1623064 -1.5963923 0.014069906 -0.20208575 0.03188242
-0.06907987 0.7414077 2.272917 -0.40932417 -0.033573262 0.08032837 0.07970515 0.23262912
-0.049446516 -0.22000475 0.33603624 -0.997696 0.029431153 0.08836189 -0.02727098 0.009989826
-0.1710971 -0.051716805 1.5342455 1.4856654 -1.656497 0.061800484 -0.32018876 -0.47032917
-1.0012026 1.3100493 -0.4355766 -1.5995165 -0.60876733 0.04514715 -0.40945825 -0.22527467
-0.38220543 0.045538265 -0.9387305 -1.7872328 0.03511848 0.07335342 1.3022597 0.8643784
-0.8710304 -0.05220946 0.027935868 0.98540026 2.1684022 -0.017622115 -0.51152074 0.34606376
0.023022812 -1.1796806 -0.5795338 -0.44910863 0.5251408 -0.24885866 2.827522 0.58521014
-0.8443539 0.06361911 -0.6845597 -0.936416 0.07680988 -0.24480295 -0.82882035 -2.463955
0.45577863 -0.05668988 -0.026241213 0.013267849 -1.6008981 -0.048736908 0.015171568 0.032167923
-0.6254841 -0.9624999 -0.72916543 -0.4530551 -0.0174159 0.097437896 -0.040847596 -1.0633487
-0.72325176 0.019741604 -0.42108384 0.07844895 1.9703578 -1.724685 -0.18468466 0.05740821
2.449867 0.013317647 -0.35902664 -0.0026567897 0.07311732 -0.19577669 0.003134968 -0.58621365
0.065070145 -0.006601649 -0.19098058 -0.9936941 -0.5214145 -1.259317 -0.8818537 1.4031389
-0.51027733 2.1177263 -1.5608836 -0.029441617 -0.6104281 1.790167 -0.011778869 -1.0234162
0.0034728744 0.02546507 -0.45401806 2.0509646 0.024775647 -0.8815418 -0.19481659 -0.30499014
-0.47087494 0.06874515 -0.041879445 -0.22608119 0.33405063 0.012220179 -0.48442116 0.057482164
0.050575186 2.4882355 1.260111 1.3946615 0.039306503 -0.05588146 0.011174891 -0.83881396
-0.020308796 -0.8802215 -0.46705303 -0.8280386 0.052182708 -0.009923079 -0.00070309755 0.048044227
-0.04776946 -0.06731726 -0.061325174 2.5755944 -0.1269671 -0.045573488 -0.5021201 -0.5124786
-0.61164236 2.254267 -1.6190675 -0.6815851 -0.47033182 -0.4596803 -0.34404266 -0.34191516
-0.5434291 -0.06515755 -0.7234359 -1.5023242 -0.09042726 -0.038249694 0.5323948 1.8052865
0.54259557 -0.011402873 0.023950854 -0.14271213 1.4365095 0.07726518 -0.6124197 -2.0241952
-0.049734958 -0.99373674 -0.22298233 -0.11371632 1.6115559 -0.96707404 2.5228512 0.24643132

out.bias f4 [4]
00000000: 1127 b63e 04ad 8d3e 3469 693e f372 a23d
0.3557668 0.27671063 0.22794038 0.07932081
