DQN/models/dqn_ep500_20250415_155130.pth (torch, 75580 bytes, 6 tensors)

fc1.weight f4 [128, 8]
0	0xbf8d54af	-1.1041468
1	0xbca4ce0d	-0.020117784
2	0x3de0f08e	0.10983382
3	0xbeb5a8ad	-0.35480252
4	0x3f69775b	0.91197747
5	0x3f533dd6	0.8251623
6	0x3ef1b52c	0.47208536
7	0x3c90db39	0.017682659
8	0xbee69a03	-0.45039377
9	0x3e55c475	0.20875724
10	0x3eb0d3b3	0.34536514
11	0xbfa3d1af	-1.2798365
12	0x3dac1f01	0.08404351
13	0xbeb88824	-0.36041367
14	0x3ed9a7a9	0.42510727
15	0xbdcdb71b	-0.1004469
16	0x3e6b4ba9	0.22978081
17	0x3e99a07c	0.30005252
18	0x3e66809b	0.22509997
19	0xbf135af0	-0.57560635
20	0x3da97a13	0.08275237
21	0xbfb6d1f7	-1.4282826
22	0xbf498497	-0.7871794
23	0x3e2e3d98	0.17015684
24	0xbd4b7242	-0.04966951
25	0x3f34be54	0.7060292
26	0xbcf5b4b7	-0.029993398
27	0xbee46542	-0.44608504
28	0x3faa19b1	1.328909
29	0xbf6e243e	-0.9302405
30	0xbeab68e3	-0.3347846
31	0xbed25877	-0.41083118
32	0x3d291eb1	0.041289035
33	0xbe8f0b2b	-0.27938208
34	0xbdc2bfc0	-0.0950923
35	0xbebad38a	-0.36489516
36	0x3f8225b0	1.0167751
37	0xbf422dd0	-0.75851154
38	0x3f523dc2	0.82125485
39	0x3f1a649a	0.60309756
40	0xbf30ecce	-0.69111335
41	0xbf47ed36	-0.7809633
42	0xbeeb96ed	-0.46013585
43	0xbf9aca25	-1.209294
44	0x3e826a1d	0.25471583
45	0x3cc58c6e	0.024114814
46	0x3d9728e2	0.07380845
47	0x3e2fb018	0.17157018
48	0xbf66450e	-0.8994912
49	0x3e9f52a5	0.3111774
50	0x3dd5f36a	0.10446818
51	0x3dd6103a	0.10452314
52	0x3f3fd3d6	0.7493261
53	0xbf2820d2	-0.6567508
54	0x3d9b0ece	0.07571183
55	0xbef33097	-0.4749801
56	0xbf8c7f35	-1.097632
57	0xbf76093d	-0.96107846
58	0x3fb65d0e	1.4247148
59	0xbf19fb61	-0.601492
60	0x3d88aa35	0.066730894
61	0xbdc6b7d4	-0.09703031
62	0xbf82595d	-1.0183522
63	0xbe00b577	-0.12569223
64	0xbf896e2f	-1.073675
65	0x3ee98157	0.4560649
66	0xbfbe7f7b	-1.4882654
67	0xbf2e24bd	-0.6802481
68	0xbf466a91	-0.7750636
69	0xbf29d7a7	-0.66344684
70	0xbd6837a0	-0.056693673
71	0xbf85c18e	-1.0449693
72	0x401b9ce2	2.4314504
73	0xbe7e3738	-0.24825752
74	0xbe4e135d	-0.20124574
75	0xbe05c2c8	-0.13062584
76	0xbf38e602	-0.72225964
77	0xbe899a9c	-0.2687577
78	0xbe757eef	-0.23974203
79	0x3e8af58c	0.27140462
80	0x3f1c6d61	0.611044
81	0x3e3624f3	0.17787533
82	0xbea59a7a	-0.3234442
83	0xbf3e9267	-0.7444214
84	0x3f8325c4	1.02459
85	0x3fb9cbaf	1.4515284
86	0xbb9d961c	-0.004809154
87	0xbf5dcac0	-0.86637497
88	0x3f040fc9	0.51586586
89	0x3edb5adb	0.42842755
90	0x3fccbab1	1.5994474
91	0x3f915567	1.1354188
92	0x3f020b84	0.5079882
93	0xbf13bc1c	-0.5770891
94	0x3f9a8878	1.2072897
95	0x3ce56db0	0.028006405
96	0x3f508278	0.8144908
97	0xbf2a053e	-0.6641425
98	0x3eaf42ff	0.342308
99	0x3ec68a0b	0.38777193
100	0xbef60e82	-0.48057944
101	0xbf656175	-0.8960183
102	0xbe01d558	-0.1267904
103	0xbedbdb78	-0.4294088
104	0xbf00fa7d	-0.50382215
105	0xbf00d1b6	-0.50319993
106	0xbe85c701	-0.2612839
107	0x3fa15a1d	1.2605625
108	0x3f0bfa0b	0.5467841
109	0x3fb26e01	1.393982
110	0xbda97595	-0.0827438
111	0xbde32dff	-0.110927574
112	0x3f3edc41	0.7455483
113	0xbe05e31d	-0.13074918
114	0x3e2c6577	0.16835581
115	0xbedfa21a	-0.4367836
116	0x3f6d0c8d	0.92597276
117	0xbf0dd78e	-0.55407035
118	0x3f19730a	0.5994116
119	0x3eeafb7f	0.45895
120	0x3e407fe2	0.18798783
121	0xbf5748fb	-0.84095734
122	0x3f8ba5d0	1.0909977
123	0xbfc76334	-1.5577149
124	0xbf0c6094	-0.54834867
125	0xbf9a8bf2	-1.2073958
126	0xbdfce4ae	-0.12348305
127	0x3f5f8853	0.8731739
128	0x3fc80b3b	1.5628427
129	0xbe0a71b9	-0.13519944
130	0x3f9ef685	1.2418982
131	0x3ea7f542	0.32804304
132	0xbfd5f779	-1.6716148
133	0xbbb45255	-0.005502979
134	0xbdf6c4c9	-0.120492525
135	0x3b5358fa	0.003224908
136	0x3ff73375	1.9312578
137	0xbea79a3d	-0.32734862
138	0x3f61693e	0.8805121
139	0xbbd59af3	-0.0065187155
140	0xbe13c646	-0.14431104
141	0xbde8568b	-0.11344632
142	0xbdd41a03	-0.10356524
143	0x3f89bdc8	1.0761042
144	0x3fbd2ee3	1.4779934
145	0xbfad02bb	-1.3516458
146	0xbeb3159f	-0.34977433
147	0xbfec013d	-1.8437878
148	0x3f43d343	0.76494235
149	0x3f021e72	0.50827706
150	0x3eb30cf0	0.34970808
151	0x3def97e5	0.116988935
152	0xbf06e2f3	-0.5269005
153	0xbee08fca	-0.43859702
154	0xbea57b10	-0.32320452
155	0xbf8a405a	-1.0800889
156	0x3f2eec41	0.68329245
157	0x3faa55e6	1.3307464
158	0x3e417478	0.18892086
159	0x3f031018	0.5119643
160	0xbec6960a	-0.38786346
161	0x3ec9e9da	0.39436227
162	0xbf936e0a	-1.1517956
163	0xbea6d638	-0.3258531
164	0xbfe536fd	-1.7907406
165	0xbf697758	-0.9119773
166	0xbf5ebcc8	-0.8700681
167	0x3f06f71a	0.527208
168	0x3f70a62f	0.94003576
169	0xbe155b76	-0.14585671
170	0xbe450406	-0.19239816
171	0x3e61c28a	0.22046867
172	0x3f9ed145	1.2407614
173	0xbf8c4715	-1.0959193
174	0xbef7018e	-0.48243374
175	0xbd47619a	-0.048677064
176	0x3c72d63d	0.014821586
177	0x3e89b12c	0.26892984
178	0x3e1104e4	0.14162022
179	0x3e43e99a	0.1913208
180	0xc00e875a	-2.2270112
181	0xbf20add3	-0.62765235
182	0x3f188b4d	0.59587556
183	0xbe6443e3	-0.22291522
184	0xbf4eb8f4	-0.80750966
185	0xbf279802	-0.6546632
186	0xbda7256a	-0.08161433
187	0xbf7d3e07	-0.9892277
188	0x3ec2b3db	0.38027844
189	0xbfac13e8	-1.3443575
190	0x3f081f65	0.53172904
191	0x3e8348fb	0.25641617
192	0x3ecf3690	0.40471315
193	0xbf09589f	-0.5365085
194	0xbc76bf17	-0.015060208
195	0xbf7b8a8c	-0.9825828
196	0x3f331695	0.6995633
197	0xbe4bacf6	-0.19890198
198	0x3dd3b524	0.10337284
199	0x3e052e9d	0.13006063
200	0xbe04d8f5	-0.12973388
201	0xbea8844e	-0.3291344
202	0xbcca2910	-0.024677783
203	0xbeabb550	-0.33536768
204	0xbf80d879	-1.0066062
205	0x3eb320ac	0.34985864
206	0xbe02d4ea	-0.12776533
207	0xbe80f341	-0.25185588
208	0xc03621f9	-2.8458235
209	0xbf7c8a54	-0.9864857
210	0xbf622a49	-0.8834577
211	0xbee7de7a	-0.45286924
212	0x3f100ba4	0.5626776
213	0xbe390010	-0.1806643
214	0x3d8ebee5	0.06970004
215	0xbd0c3155	-0.034226734
216	0x3e811e9a	0.2521866
217	0xbea5c9ce	-0.32380527
218	0xbd91a997	-0.07112425
219	0x3db80abb	0.08986422
220	0x3f7b1585	0.9807971
221	0xbf811e2d	-1.0087334
222	0xbeed011e	-0.46289915
223	0x3f18c78a	0.5967947
224	0xbedff512	-0.4374166
225	0xbd93c21b	-0.07214757
226	0x3d604e0c	0.05476193
227	0xbf820515	-1.0157801
228	0x3e9706a5	0.29497257
229	0xbf288092	-0.6582118
230	0x3e825faa	0.2546361
231	0x3df2112d	0.11819682
232	0xbf21484e	-0.63000953
233	0xbf06aad7	-0.5260443
234	0xbfa3231e	-1.2745092
235	0xbe7b45f3	-0.24538402
236	0xbe953e56	-0.2914912
237	0xbf516a97	-0.8180327
238	0xbfc4d024	-1.537602
239	0x3ec452b3	0.38344344
240	0xbf798dea	-0.9748217
241	0xbec185b8	-0.37797332
242	0xbde5d61c	-0.11222479
243	0xbf3d6f18	-0.7399764
244	0x3e10b89a	0.1413292
245	0x3f814dde	1.0101888
246	0x3e69e7e0	0.2284236
247	0xbf890d7e	-1.0707242
248	0xbd58d09a	-0.052933313
249	0xbdaaa9d0	-0.083331704
250	0x3ec59d1b	0.38596424
251	0xbf26caef	-0.651534
252	0xbf9be9f6	-1.2180774
253	0xbfd037ec	-1.6267066
254	0xbf9af31d	-1.2105442
255	0xbf94ab3b	-1.1614755

fc1.bias f4 [128]
0	0xbf1dd8b5	-0.61658794
1	0x3e5407db	0.20706122
2	0x3f3afc4d	0.7304123
3	0xbf9d4c90	-1.228899
4	0x3e745ea3	0.23864226
5	0x3e46ac4a	0.1940166
6	0x3f19ebd3	0.60125464
7	0x3e8a6bf3	0.27035484
8	0x3d455ea5	0.048185963
9	0x3dd0734f	0.10178243
10	0xbf8941be	-1.0723188
11	0x3ec4bcca	0.38425285
12	0x3f22de50	0.6362047
13	0xbf23d58a	-0.6399771
14	0x3e8426ca	0.25810844
15	0xbde80ac4	-0.113301784
16	0xbdad7f55	-0.08471552
17	0xbc4d62e7	-0.012535787
18	0xbc8d9fb6	-0.01728807
19	0xbeaea470	-0.3410983
20	0xbeee41cf	-0.46534583
21	0x3c82c320	0.015962183
22	0x3f4ff620	0.8123493
23	0x3ee02953	0.43781528
24	0x3dbccf7d	0.09219263
25	0x3f1f33b4	0.6218827
26	0xbe3bd0f6	-0.18341431
27	0x3ef09324	0.4698726
28	0x3e89b48b	0.26895556
29	0x3e64de91	0.22350527
30	0xbea2cd01	-0.3179703
31	0xbf58ce6f	-0.8468999
32	0xbe801197	-0.2501342
33	0xbdc9c195	-0.09851376
34	0x3d464fc1	0.048415903
35	0xbbd2d4ea	-0.0064340727
36	0xbd517faa	-0.05114714
37	0xbeef1f36	-0.467035
38	0xbee08463	-0.43851003
39	0x3e26e256	0.16297278
40	0x3cdc1bd8	0.026868746
41	0xbe9e7498	-0.3094833
42	0xbe9cf746	-0.30657405
43	0x3f0582c7	0.52152675
44	0xbf609bc9	-0.8773771
45	0xbb108a79	-0.0022055192
46	0xbd80550b	-0.06266221
47	0xbe078795	-0.13235314
48	0xbe8093af	-0.25112674
49	0xbf0128b5	-0.5045274
50	0xbe378aa7	-0.17923985
51	0xbe47207e	-0.19445989
52	0x3ed9c9b7	0.4253671
53	0xbead8d83	-0.33897027
54	0xbdb15cff	-0.08660316
55	0x3e6fad84	0.23406035
56	0x3e5efa37	0.21775137
57	0x3ece9fad	0.40356198
58	0xbf1d021d	-0.6133135
59	0x3f0d7426	0.55255353
60	0x3e347ea1	0.1762643
61	0xbddc348a	-0.107522085
62	0xbf1ed44a	-0.6204268
63	0xbefc015d	-0.4921979
64	0x3f376fa5	0.7165473
65	0x3f1b5874	0.60681844
66	0xbf354df7	-0.7082209
67	0x3cb612bc	0.02222573
68	0x3ede3b6c	0.4340471
69	0x3ed2b973	0.41157112
70	0xbeb2370e	-0.34807628
71	0xbe0d33c5	-0.1378928
72	0xbf771e21	-0.9653035
73	0x3f10e751	0.5660296
74	0x3dee7a22	0.11644389
75	0x3cf5c713	0.030002153
76	0x3f8275dc	1.0192218
77	0x3f1325ff	0.5747985
78	0xbf470ad6	-0.7775091
79	0xbe42c53b	-0.1902055
80	0xbea9e817	-0.33184883
81	0x3ec02960	0.37531567
82	0x3e73b1b6	0.2379826
83	0xbeb0bd58	-0.34519458
84	0xbe8537d9	-0.2601917
85	0x3df0bada	0.11754389
86	0x3cf5846c	0.02997037
87	0x3e70f90e	0.23532507
88	0x3f1b8abc	0.60758567
89	0x3d9bef50	0.076140046
90	0xbf522390	-0.82085514
91	0x3e9cf3db	0.30654797
92	0x3e54c361	0.20777656
93	0xbd32af8f	-0.043624457
94	0x3f1610a2	0.5861913
95	0xbf678e46	-0.9045147
96	0x3f19bcc4	0.6005366
97	0x3ef2fc6f	0.47458217
98	0x3f034429	0.5127588
99	0x3f527a0e	0.8221749
100	0x3eeba0de	0.4602117
101	0x3edaf7ff	0.4276733
102	0xbde38327	-0.11109
103	0x3eae8b4e	0.34090656
104	0x3dc2c8ee	0.095109805
105	0x3dc82949	0.097734995
106	0x3f38bc08	0.7216191
107	0xbdf953f2	-0.121742144
108	0xbe9970e0	-0.2996893
109	0x3ead65ee	0.3386683
110	0x3ec1c046	0.37842005
111	0x3f28faee	0.6600789
112	0x3e2f3c80	0.17112923
113	0x3f2d8fe6	0.67797697
114	0x3f00af38	0.5026736
115	0xbddea24b	-0.10870799
116	0xbe920237	-0.28517315
117	0x3e6c5d77	0.23082529
118	0xbeabd9ec	-0.335647
119	0xbf362f95	-0.71166354
120	0xbf515e02	-0.8178407
121	0x3e90376e	0.2816729
122	0xbedf8b46	-0.43660945
123	0x3ea2475d	0.3169507
124	0xbf830e70	-1.0238781
125	0xbe485199	-0.19562377
126	0x3ddc6f2e	0.10763393
127	0x3e94d2c8	0.29067063

fc2.weight f4 [128, 128]
0	0xbcc8606f	-0.024460046
1	0xbc5237cc	-0.012830686
2	0xbd59b917	-0.05315503
3	0xbceaf965	-0.028683374
4	0xbd9593fa	-0.07303615
5	0xbd3bcf60	-0.045852065
6	0xbd31e617	-0.04343232
7	0xbd4f8414	-0.05066307
8	0x3d911615	0.0708429
9	0xbc1ec91e	-0.009691505
10	0xbd4fc824	-0.05072798
11	0x3d1cf24d	0.038317014
12	0x3d459441	0.04823709
13	0x3d57cc9e	0.052685373
14	0xbd428678	-0.04749152
15	0x3b95e198	0.004574012
16	0xbd18b809	-0.037284885
17	0x3c046101	0.008079768
18	0x3da1393e	0.07872246
19	0x3b107f3b	0.0022048492
20	0xbd3064ac	-0.04306476
21	0x3ad7126e	0.0016408691
22	0xbdeb5c1c	-0.11492178
23	0xbcad7bbb	-0.021177163
24	0xbd8b4612	-0.06800474
25	0xbc7dfb3f	-0.015501796
26	0xbcd32414	-0.02577404
27	0xbd698a6c	-0.057016775
28	0xbe07d4ac	-0.13264722
29	0xbdfce7d0	-0.12348902
30	0x3b84755d	0.004042311
31	0x3c351877	0.011053196
32	0x3d4433b7	0.04790088
33	0xbcf4d743	-0.029887801
34	0xbde923bd	-0.1138377
35	0x3d83b6ed	0.06431375
36	0x3d0ba751	0.034095112
37	0x3d8de494	0.069283634
38	0x3d72b15d	0.059251178
39	0x3ccfeae5	0.025380561
40	0xbe1765c1	-0.1478491
41	0xbcc79838	-0.024364576
42	0x3d8afbfb	0.06786343
43	0xbe0a9d8a	-0.13536659
44	0xbda3b9c9	-0.0799442
45	0xbd72d88c	-0.059288546
46	0x3d659a54	0.056055382
47	0x39537894	0.00020167447
48	0x3cf97b71	0.03045437
49	0x3b718683	0.0036853857
50	0xbd04e934	-0.032448962
51	0x3d780892	0.06055505
52	0xbdb30544	-0.08741239
53	0x3be97b61	0.0071253036
54	0x3cbfb6b7	0.023402555
55	0x3c874871	0.016514035
56	0xbdabd82d	-0.08390842
57	0xbdf8cd54	-0.12148538
58	0xbce86ee3	-0.028373187
59	0xbca93269	-0.02065392
60	0x3d7489bf	0.059701677
61	0xbc5661e3	-0.013084861
62	0x3d566dfa	0.052350976
63	0x3d2b2b98	0.04178962
64	0xbd2ef48b	-0.042713683
65	0x3c11abc4	0.00889105
66	0xbdac0982	-0.08400251
67	0xbda28d73	-0.079371355
68	0x3d17648f	0.036961135
69	0x3d8d6673	0.06904306
70	0xbb2e0e67	-0.0026558877
71	0xbd32a305	-0.0436125
72	0xbdc0de8a	-0.09417446
73	0xbd482e3b	-0.048872214
74	0xbd6df6ff	-0.058096882
75	0x3b42e828	0.0029740427
76	0xbd2b602b	-0.04183976
77	0x3c30e912	0.010797756
78	0xbda5ecee	-0.081018314
79	0xbdc3086e	-0.09523092
80	0xbd2c3327	-0.04204097
81	0xbd511a73	-0.051050615
82	0xba0e3905	-0.00054253667
83	0xbdd634d0	-0.10459292
84	0xbba43b11	-0.005011924
85	0xbcf2ee43	-0.029654628
86	0x3a412936	0.00073685066
87	0xbd9c7a20	-0.07640481
88	0xbd91bf51	-0.07116569
89	0x3cc7320c	0.024315856
90	0xbc7ae8e0	-0.015314311
91	0x3d644134	0.055726245
92	0x3d27e7e0	0.040992618
93	0xbdab2afc	-0.08357808
94	0xbe01d5ac	-0.12679166
95	0xbdc048cf	-0.09388887
96	0xbd9db91c	-0.077013224
97	0xbd67a379	-0.056552384
98	0x3cda1443	0.02662099
99	0x3cafc444	0.021455891
100	0x3cb6c158	0.02230899
101	0xbd258963	-0.040414225
102	0x3d5b483e	0.053535692
103	0xbd79a18f	-0.06094509
104	0xbd5d6d28	-0.054059178
105	0x3ae50df8	0.0017475476
106	0x3d12c329	0.03583065
107	0x3d275a27	0.04085746
108	0x3d432e85	0.047651786
109	0xbd56654f	-0.05234271
110	0xbc877efc	-0.016540043
111	0x3d2d0524	0.04224123
112	0x3cf6f09f	0.030144034
113	0x3c9c5ad2	0.019086275
114	0xbc8bde7a	-0.017073859
115	0x3d5d061e	0.053960912
116	0xbdca5425	-0.098793305
117	0xbddfef22	-0.10934283
118	0x3d5f1562	0.05446375
119	0xbd252dfc	-0.040327057
120	0xbcbece79	-0.023291813
121	0xbe0c5893	-0.13705663
122	0xbaa706fe	-0.0012743173
123	0xbdad2ee8	-0.08456212
124	0xbd1a37dd	-0.03765093
125	0x3d553c28	0.052059323
126	0xbda16e70	-0.078823924
127	0x3c8a940a	0.016916294
128	0x3f23da55	0.64005023
129	0x3f0e7409	0.55645806
130	0xbf0315a8	-0.5120492
131	0x3f33c961	0.70229155
132	0x3e941f61	0.2893019
133	0xbeb8e695	-0.3611342
134	0xbea2f48c	-0.318272
135	0x3f100a58	0.56265783
136	0x3eb6547c	0.3561133
137	0x3d091e5f	0.03347623
138	0x3b84b4f1	0.00404989
139	0xbfb5d7f5	-1.420653
140	0xbedc620f	-0.43043563
141	0x3ed40271	0.41408113
142	0x3e2d8437	0.16944967
143	0x3f34b484	0.70587945
144	0x3f2a85f5	0.6661065
145	0x3db4f228	0.0883525
146	0x3f1920d4	0.59815717
147	0x3e5ae976	0.21378121
148	0x3f4c8a02	0.79898083
149	0x3ef133a2	0.47109705
150	0xbe4a2e13	-0.19744138
151	0xbf002d47	-0.5006909
152	0xbcc55277	-0.024087174
153	0x3d84ed5f	0.064905874
154	0x3f655105	0.8957675
155	0x3ed4ab73	0.41537055
156	0x3eb98602	0.36235052
157	0xbebfd6b3	-0.3746849
158	0xbeff6732	-0.4988342
159	0x3ef2171e	0.47283262
160	0x3c312cd5	0.010813911
161	0xbdce469e	-0.10072063
162	0xbe52a7c0	-0.20571804
163	0xbf0a444a	-0.5401045
164	0x3ebc7281	0.3680611
165	0x3e2f97a4	0.1714769
166	0xbecaaa6e	-0.39583153
167	0x3c9b3b8e	0.018949296
168	0xbf3829e6	-0.7193893
169	0xbfaf9f76	-1.3720539
170	0x3e332338	0.17493904
171	0x3e0505a1	0.12990429
172	0x3cae63a7	0.021287752
173	0xbe3e0038	-0.18554771
174	0x3e4ad9bf	0.19809626
175	0x3f233a06	0.6376041
176	0x3f7075e9	0.93929917
177	0x3dc1249f	0.09430813
178	0xbe2b5985	-0.16733368
179	0x3f8e9e44	1.1142049
180	0x3d132b50	0.035929978
181	0xbe889ee2	-0.26683718
182	0xbe842309	-0.2580798
183	0xbe397381	-0.18110467
184	0x3e8f40d4	0.27979147
185	0x3fa43acc	1.2830443
186	0x3e93b801	0.2885132
187	0x3e105e06	0.14098367
188	0x3eab582b	0.33465704
189	0x3f022217	0.50833267
190	0x3f77fb09	0.96867424
191	0xbfec1dfa	-1.8446648
192	0xbf3aea1b	-0.73013467
193	0x3c749a83	0.014929417
194	0x3f003a42	0.50088894
195	0x3e9b7d38	0.30368972
196	0x3e90b897	0.2826583
197	0x3b3902cb	0.0028230425
198	0x3e57ae1b	0.2106251
199	0x3f275f61	0.6537991
200	0xbf10f0ce	-0.5661744
201	0xbe2ecd58	-0.1707052
202	0xbc0ed693	-0.008718151
203	0xbe1488a8	-0.14505255
204	0xbf5919e2	-0.8480512
205	0xbe15a08d	-0.14612027
206	0x3de50660	0.111828566
207	0xbde10fe6	-0.109893605
208	0x3ec6fde2	0.38865572
209	0xbea3032c	-0.31838357
210	0xbe14c88d	-0.14529629
211	0x3e8a8a92	0.27058846
212	0x3d9e643f	0.07733964
213	0x3e7f384a	0.24923816
214	0x3f57eb2f	0.84343237
215	0x3d7bc9e6	0.061471842
216	0x3ea3403e	0.3188495
217	0x3e885361	0.26626113
218	0xbfd911ca	-1.6958554
219	0x3dae4a1b	0.08510228
220	0x3e85507b	0.26037964
221	0x3f448aee	0.7677449
222	0xbe5963e8	-0.21229517
223	0x3f32e17c	0.6987531
224	0xbee2cd91	-0.4429746
225	0xbf36c5e3	-0.713957
226	0x3b55e98f	0.0032640432
227	0xbf80a318	-1.0049772
228	0xbef7ed17	-0.48423073
229	0xbf558613	-0.83407706
230	0x3ea20630	0.31645346
231	0x3eac25a9	0.33622482
232	0xbd4d5c8e	-0.050137095
233	0xbf4e2d8c	-0.8053825
234	0xbf2cd723	-0.6751577
235	0x3eb153ec	0.3463434
236	0x3fd87302	1.6910098
237	0xbe2b849c	-0.16749805
238	0x3f35e046	0.7104534
239	0xbca9d402	-0.020730976
240	0x3ef83860	0.4848051
241	0xbf1d6653	-0.6148426
242	0x3eb5ae98	0.35484767
243	0xbc9fecb5	-0.01952205
244	0x3ebe99ce	0.3722672
245	0xbe80753b	-0.2508944
246	0x3f41c8b7	0.7569689
247	0x3ff45835	1.9089419
248	0x3f7b627b	0.98197144
249	0xbf78cd7b	-0.9718854
250	0x3ec9c750	0.39409876
251	0x3e237119	0.15961112
252	0xbf33c5af	-0.70223516
253	0x3f920e36	1.1410587
254	0x3f0bf301	0.5466767
255	0xbeba8b01	-0.36434177

fc2.bias f4 [128]
0	0xbdc5c7f1	-0.096572764
1	0xbe9deccb	-0.3084472
2	0x3d4e263e	0.05032944
3	0xbe84ab22	-0.25911814
4	0xbe60915d	-0.21930452
5	0xbccfcc6f	-0.025366036
6	0x3d4453cc	0.047931477
7	0x3df4db66	0.119559094
8	0x3f1ee8cc	0.6207397
9	0xbed8c49c	-0.423375
10	0xbd633d60	-0.055478454
11	0x3bc0b226	0.005880612
12	0x3f08b9f4	0.5340874
13	0x3dd8e1d4	0.10589948
14	0x3d5b6dc9	0.053571496
15	0xbdc8f196	-0.09811704
16	0xbdfc5258	-0.12320393
17	0x3f4015a6	0.7503303
18	0x3eb75813	0.35809383
19	0xbef04baf	-0.46932742
20	0xbd99cd34	-0.075098425
21	0xbd51326a	-0.05107347
22	0xbd48b72f	-0.049002822
23	0x3b42367d	0.0029634528
24	0xbcc1965c	-0.023631267
25	0xbded38a1	-0.11583067
26	0xbf296671	-0.6617194
27	0xbc4003b9	-0.011719638
28	0x3ecbbcda	0.3979252
29	0xbe187629	-0.14888825
30	0xbd3e4a02	-0.046457298
31	0xbdf5123b	-0.11966368
32	0xbd1d1279	-0.038347695
33	0xbd2fdcab	-0.042935055
34	0x3e825a2d	0.25459424
35	0xbdecd584	-0.115641624
36	0x3eb3f0c8	0.3514464
37	0x3cc89198	0.024483487
38	0xbdb2e592	-0.08735193
39	0x3d1ec5d3	0.03876288
40	0xbe28d31b	-0.1648678
41	0xbc808d87	-0.015692485
42	0xbcd62119	-0.026138829
43	0xbd23ccbc	-0.03999017
44	0xbe99815c	-0.29981506
45	0x3c237e10	0.009978786
46	0x3f672a84	0.9029925
47	0x3dac53c1	0.08414412
48	0xbe462612	-0.1935046
49	0xbeb3796a	-0.3505357
50	0xbda5788d	-0.08079634
51	0x3ccd5d3e	0.025068875
52	0xbe3546b4	-0.17702752
53	0xbca9b7e5	-0.02071757
54	0xbd2e491b	-0.042550188
55	0xbda1fd95	-0.07909695
56	0xbeb470d4	-0.3524233
57	0xbd27427a	-0.04083488
58	0x3e5f14ab	0.21785228
59	0xbddc3d61	-0.107538946
60	0xbe130bc9	-0.14359964
61	0xbd0a4b14	-0.033763006
62	0x3eb2fb20	0.34957218
63	0xbe9cab0b	-0.30599245
64	0xbeab5a39	-0.33467272
65	0x3d6a6485	0.05722477
66	0xbe689435	-0.22712786
67	0x3caa75ed	0.020808185
68	0xbda6bfa1	-0.08142019
69	0xbdd895c9	-0.10575444
70	0xbdf54fee	-0.11978136
71	0xbeb2bc64	-0.34909356
72	0xbdaae15f	-0.083437674
73	0xbddbbc03	-0.1072922
74	0xbdab9fc2	-0.08380081
75	0xbd76235f	-0.060092326
76	0x3d50e599	0.05100021
77	0xbf26c0d0	-0.6513796
78	0x3c81106f	0.015754906
79	0xbd09ca50	-0.033640206
80	0x3c184486	0.009293681
81	0x3eb0b781	0.34515002
82	0x3c5f3803	0.013624194
83	0xbe293250	-0.16523099
84	0x3e2eea30	0.17081523
85	0xbe559243	-0.20856576
86	0xbd8eb67a	-0.069683984
87	0xbdfa06e0	-0.122083426
88	0xbdd22ec9	-0.1026283
89	0xbdff04f0	-0.12452114
90	0xbf846ad8	-1.0345106
91	0xbea3a824	-0.3196422
92	0x3eb1a850	0.34698725
93	0x3e402c4f	0.18766902
94	0xbdc3cdf6	-0.09560768
95	0xbe1c6367	-0.15272294
96	0x3e027bb5	0.12742503
97	0x3ed61cde	0.418189
98	0xbf205f5f	-0.62645525
99	0xbd97ede7	-0.07418423
100	0xbe1d69fb	-0.1537246
101	0xbe017453	-0.1264203
102	0x3f554749	0.833119
103	0x3f120253	0.57034796
104	0xbcf15790	-0.029460698
105	0xbdeaa2d4	-0.11456838
106	0xbd7cec8f	-0.061749037
107	0xbe3878c2	-0.18014815
108	0xbddca32d	-0.10773311
109	0xbd96efbf	-0.07369947
110	0x3bc19e86	0.00590879
111	0xbe7ae7ad	-0.2450244
112	0xbc6ceef7	-0.0144612705
113	0xbe22de21	-0.15905048
114	0xbc4e6d95	-0.012599369
115	0xbe95dbe5	-0.2926933
116	0x3e3a58b5	0.18197902
117	0xbe0c6c2d	-0.13713141
118	0xbe03a78e	-0.12856886
119	0xbd5fb52f	-0.05461615
120	0xbf6a1f26	-0.9145378
121	0xbdcd5b4c	-0.10027179
122	0x3eecd15c	0.4625348
123	0xbdfa37eb	-0.12217697
124	0x3e9b4ca9	0.30331925
125	0x3eae3d76	0.34031266
126	0xbd95c4a1	-0.073128946
127	0xbf163d40	-0.5868721

out.weight f4 [4, 128]
0	0x3dee9c78	0.11650938
1	0xbf0966aa	-0.5367228
2	0x39b658b0	0.00034779822
3	0xbeedbc13	-0.46432552
4	0xbf885b5e	-1.0652883
5	0x3d32e190	0.043672144
6	0x3d1b8558	0.037968963
7	0xbe4c3ea1	-0.19945766
8	0x3f424509	0.7588659
9	0xbf337465	-0.7009948
10	0x3d9ce6c3	0.07661202
11	0x3d165786	0.036704563
12	0x3d52f3c0	0.05150199
13	0xbf72431f	-0.9463367
14	0xbc9ba28f	-0.018998412
15	0xbd9b6735	-0.075880446
16	0x3dfaaec5	0.12240366
17	0x3ff784e5	1.9337431
18	0x3e0e2291	0.13880374
19	0xbf46dd75	-0.77681667
20	0xbd010aed	-0.03150456
21	0x3d799599	0.060933683
22	0xbf28caf0	-0.6593466
23	0x3caa4494	0.020784654
24	0xbef39a1b	-0.4757851
25	0x3e799dba	0.24376574
26	0xbf555f19	-0.8334823
27	0x3d43d9f4	0.04781528
28	0x3f3b3227	0.731234
29	0xbf455e4a	-0.77097
30	0x3d0f94c8	0.035054
31	0x3d7bd48e	0.061482005
32	0x3d0e31cd	0.034715462
33	0xbee91e1e	-0.4553079
34	0x3e8ae907	0.2713091
35	0x3c57a4f2	0.013161885
36	0x3da8529a	0.0821888
37	0xbdaa5dbd	-0.083186604
38	0xbeb03b4a	-0.34420234
39	0xbdafba73	-0.08580484
40	0x3e081c5c	0.13292068
41	0xbd37845d	-0.044803966
42	0x3d86d7e9	0.0658415
43	0xbea4b54f	-0.32169577
44	0xbf983804	-1.1892095
45	0x3d1297ff	0.035789486
46	0x3ffc340b	1.9703382
47	0xbf53bb83	-0.82707995
48	0x3d522faf	0.051315006
49	0xbf806b67	-1.0032777
50	0x3920aa0e	0.0001532214
51	0x3d6b59a5	0.05745854
52	0xbee7423a	-0.45167714
53	0xbe773bb3	-0.24143867
54	0xbda0842f	-0.07837712
55	0x3cb4a161	0.022049608
56	0xbf774161	-0.96584135
57	0xbd2a3780	-0.041556835
58	0x3e4a37bd	0.19747825
59	0x3d50b97b	0.050958138
60	0xbee8de6c	-0.45482194
61	0xbedc7d2b	-0.43064246
62	0xc009695f	-2.1470563
63	0xbe079ffa	-0.1324462
64	0xbf3701e9	-0.7148729
65	0x3e2290b8	0.15875518
66	0xbf6f0151	-0.93361384
67	0x3d147fca	0.03625468
68	0xbf8185f3	-1.0119003
69	0x3d8b706d	0.06808553
70	0x3cae48d5	0.021274963
71	0x3f312cae	0.692088
72	0x3d258c3f	0.040416952
73	0x3c495914	0.012289304
74	0xbe7f7e4f	-0.24950527
75	0x3ca2c0e8	0.019867375
76	0x3e30277c	0.17202562
77	0xbfaecfa3	-1.3657116
78	0xbeba290f	-0.3635945
79	0xbe9084a1	-0.28226188
80	0x400e7ebb	2.226485
81	0x3fd853c2	1.6900561
82	0xbd51ad89	-0.051190887
83	0xbf1a9fef	-0.6040029
84	0xc000892f	-2.008373
85	0xbe9dfe06	-0.30857867
86	0xbd3830ea	-0.044968523
87	0xbd6617a4	-0.05617489
88	0xbe5aa932	-0.21353605
89	0xbf6de644	-0.9292948
90	0xbf4667fd	-0.77502424
91	0xbf224182	-0.63381207
92	0x401ec1f4	2.480588
93	0x3f54d7d2	0.83141816
94	0x3d00b66d	0.031423975
95	0xbd1a62b6	-0.037691794
96	0xbe7dbea6	-0.24779758
97	0x3f598443	0.8496744
98	0xbfd28416	-1.644656
99	0xbeed83ec	-0.4638971
100	0xbf1a9072	-0.60376656
101	0xbeabc47e	-0.3354835
102	0x400e5864	2.224145
103	0x3febecfe	1.8431699
104	0xbd3f354d	-0.04668169
105	0x3d78e2c0	0.06076312
106	0xbce453f0	-0.027872056
107	0xbe10c143	-0.14136223
108	0xbf147a18	-0.579988
109	0xbe1f1d5a	-0.1553854
110	0x3cb5669e	0.022143658
111	0xbf47031c	-0.7773912
112	0xbffc8954	-1.9729409
113	0xbeab78f5	-0.3349072
114	0xbca4773c	-0.020076387
115	0xbf2b1b88	-0.66838884
116	0x3facb9f2	1.3494246
117	0x3c35bbfd	0.011092183
118	0x3fbb3061	1.4624139
119	0x3d08f633	0.03343792
120	0x3e371a52	0.17881134
121	0xbccd7dc8	-0.025084391
122	0xbfbfd62e	-1.4987237
123	0x3d93ca7b	0.072163545
124	0x40071809	2.110842
125	0x401a0f87	2.4071977
126	0xbc335663	-0.010945889
127	0xbfc00a2e	-1.5003107
128	0x3c93ae4d	0.018027449
129	0xbf2be356	-0.6714376
130	0x3cf6dfe1	0.03013605
131	0xbf1481cf	-0.5801057
132	0xbf67e068	-0.9057679
133	0x3c669774	0.014074195
134	0xbc43877a	-0.011934156
135	0xbf756c64	-0.95868516
136	0x3f657cd1	0.8964358
137	0xbf4289f2	-0.7599174
138	0x3d3a1201	0.045427326
139	0xbc87bb9a	-0.016568948
140	0xbf8e0942	-1.1096575
141	0xbe92311e	-0.28553098
142	0xbef3be8c	-0.47606313
143	0x3ce4e1f8	0.027939782
144	0xba2ee551	-0.0006671744
145	0x40173cac	2.363078
146	0x3dfa3b22	0.1221831
147	0xbf4dda28	-0.80411005
148	0x3bddf9b1	0.0067741503
149	0xbd6282e8	-0.055300623
150	0xbeae4bfe	-0.34042352
151	0x3cf742da	0.030183244
152	0xbeda1997	-0.42597649
153	0x3f226a3e	0.6344336
154	0xbe9cb9f3	-0.30610618
155	0x3afc22a1	0.0019236394
156	0x3e60ce0b	0.21953599
157	0xbece3abb	-0.40279183
158	0x3dab3d81	0.0836134
159	0xbdb9072a	-0.090345696
160	0xbd9d3e7d	-0.07677934
161	0xbed9a195	-0.4250609
162	0x3d8901dc	0.06689808
163	0xbd3a68d1	-0.045510117
164	0x3c864f3b	0.016395202
165	0x3c89fd36	0.016844373
166	0xbef16102	-0.47144324
167	0x3ce16b8c	0.027517103
168	0xbf9343aa	-1.1505024
169	0x3d1df4f7	0.038563695
170	0x3c60ba54	0.013716299
171	0xbe90fb05	-0.28316513
172	0xbf0eb057	-0.55737823
173	0xbd12e323	-0.035861146
174	0x40023255	2.034322
175	0xbe9086e5	-0.28227916
176	0xbf562224	-0.83645844
177	0xbf11cf70	-0.5695715
178	0x3d0e0977	0.034676995
179	0x3bdec8ab	0.006798824
180	0xbf2e1600	-0.6800232
181	0xbeb21837	-0.347841
182	0x3c92ca94	0.017918862
183	0xbd8f198b	-0.06987294
184	0xbf3dced9	-0.7414375
185	0xbd4ac86e	-0.04950755
186	0xbf5b245f	-0.8560237
187	0xbbe469b0	-0.0069706067
188	0xbe4cb266	-0.19989929
189	0xbe3eff84	-0.18652159
190	0xbfff2aff	-1.9934996
191	0xbefe987a	-0.49725705
192	0xbf4725af	-0.77791876
193	0x3f629c03	0.88519305
194	0xbe8d4a01	-0.27595523
195	0xbc57fd34	-0.013182927
196	0xbecbdc12	-0.39816338
197	0xbd814c94	-0.06313434
198	0xbcfa5056	-0.030555885
199	0x3fb3d8a3	1.4050487
200	0xbcbc3fa8	-0.022979572
201	0x3db3fca1	0.087884195
202	0xbef5ac02	-0.47982794
203	0x3d8a2e89	0.06747157
204	0xbf2fa476	-0.6861032
205	0xbedede26	-0.4352886
206	0xbf50be7f	-0.81540674
207	0xbdf771df	-0.12082266
208	0x3fff6294	1.9951959
209	0x3fe38bef	1.7777079
210	0xbdb832d8	-0.08994073
211	0xbf39df6f	-0.7260656
212	0xbf2d0c7c	-0.67597175
213	0xbf14f111	-0.5818034
214	0x3dee4e25	0.11635999
215	0xbec6c580	-0.38822556
216	0xbf243a23	-0.6415121
217	0xbf02e1de	-0.51125896
218	0xbef05b73	-0.4694477
219	0xbf46b1b6	-0.77614915
220	0x400f537f	2.2394712
221	0x3e38465d	0.17995591
222	0xbd484cab	-0.04890124
223	0xbd05b2a9	-0.032641087
224	0xbe636ec7	-0.22210227
225	0x3f2364b1	0.6382552
226	0x3dba8a5f	0.091084234
227	0xbf1b0c52	-0.60565674
228	0xbecf977f	-0.4054527
229	0xbf324019	-0.69629055
230	0x3fec96db	1.8483537
231	0x40004aa5	2.004556
232	0x3da28f82	0.07937528
233	0x3d91a619	0.07111759
234	0x3bf9b81c	0.0076208245
235	0xbf0d367d	-0.5516127
236	0xbf16daa2	-0.5892736
237	0xbf005d50	-0.50142384
238	0xbc3e2612	-0.011605756
239	0xbeba65e9	-0.36405876
240	0xbfdde71a	-1.7336152
241	0xbe714ca7	-0.23564397
242	0x3ccdae82	0.025107626
243	0xbf2273f0	-0.63458157
244	0x3fc47a39	1.5349799
245	0x3cbbd416	0.022928279
246	0x3fc038a3	1.5017284
247	0xbceff27a	-0.029290427
248	0xbfdf694a	-1.7454007
249	0xbc7508fb	-0.014955754
250	0xbf731832	-0.94958794
251	0x3c6cc6af	0.014451667
252	0x4007a1a9	2.119242
253	0x400b68d4	2.1782732
254	0x3d93c812	0.07215895
255	0xbf999996	-1.1999996

out.bias f4 [4]
0	0x3ef12b85	0.47103515
1	0xbdd6a41f	-0.10480522
2	0x3edc64c3	0.43045625
3	0x3eaa3cf1	0.3324962
