DQN/models/dqn_ep100_20250415_151528.pth (torch, 75580 bytes, 6 tensors)

fc1.weight f4 [128, 8]
00000000: 29c3 21bf 24ea 1d3d 6405 5dbe 42e0 d03e
00000010: c355 bbbe c1a4 67bf 3a7a 5ebe 51f3 5a3f
00000020: f349 f7bd 504a 143e e0a9 a83e 03e2 953d
00000030: 3cbb 703d e9a1 8c3f 3d99 58be 143e 8a3e
00000040: 2b92 bebe 96dd f23d 60b8 3abd 4e45 17be
00000050: d474 773f 5708 b33f 7a83 9d3e 0e29 a9be
00000060: fce8 6ebf 874d 4b3e 84da 13bd 5dbd d3be
00000070: e1c9 acbf d431 adbe ed85 9ebe 413b 69bf
00000080: 83ec 863e 92cb a23f c6da afbf 375f a7be
00000090: a88e f3be f628 7fbe 47af b0be b4ba 88be
000000a0: 2233 6abe f99a 523e 33d6 d3be 3eb9 29be
000000b0: 438b 623f bd38 4abf 8350 d8bf 7d31 c43e
000000c0: 7267 d23e 2740 6abd e8fd 7bbf 1145 0fbf
000000d0: 53fe f43d d71b 0bbe 98b6 ae3e cd98 81be
000000e0: 1bca a2bf 0149 6a3f bf8a f8be ea7f 78be
000000f0: 8e40 a7bd 8a43 073e 92c3 c6bf 8d1a 033d
00000100: 5652 b2be 3d4a 1cc0 1ceb d43d 5c61 623f
00000110: 4185 47bf 0f24 26be 91d5 0c3f db4d 03bf
00000120: 7eca 90bf a4f2 b83e 8142 44be a2f2 603d
00000130: 4e89 b93e c098 8abf 9d90 a4bf 81d0 a93e
00000140: 8357 353e 54a6 62be 7ba1 0bbd 4723 2a3e
00000150: 868b 60be ac5d fe3d 7a2c 4dbe 2e66 9bbd
00000160: a7f1 e8bc a8a9 56bf fd06 d2be 7518 e83f
00000170: 1e0b 28bf 7877 71bf fed9 323f c437 0a3f
00000180: f072 0c3f 0063 2fbf 6dba 3a3f efbf 69be
00000190: 42bf c5bc a961 e3bf be68 5bbe 7ec3 91bf
000001a0: d067 163f 34f9 f1be 07af 2f3f 6733 aabd
000001b0: b55d 4dbf ff7a dfbf ebec 6d3e e516 9b3e
000001c0: da7f 56bf d57e d9be 0938 aa3f ff5b 883e
000001d0: 89ce ea3e 363a 9b3f 6cd8 2e3e 830e a03e
000001e0: a502 9dbc 968b bdbd b916 18be 6196 83be
000001f0: 69bc 0a3d e20a 50bc 474d b2be 6c46 003e
00000200: caf9 4b3f 7892 d63e 5210 6e3e 36b3 02bf
00000210: 728f a9bf 6d8c fbbd e32b 833e fc4a 723e
00000220: df7a 83bf 7b18 473f 2e3a babe 9533 a1be
00000230: 2114 2bbe b88e 923d f195 fcbf a4db d6be
00000240: 0b99 5dbe ead7 40be f509 b7be 32ee 94be
00000250: ef97 c73e 310e 6d3f e7e8 283d 1a6e d3be
00000260: 6236 813d acb0 8abe 2221 24be a1dc bbbc
00000270: 551c 52be 6fbc 2b3f ddd4 be3e ccfe 96be
00000280: 3e2d 0240 3c56 d73e ff8b a3bf 423c 753d
00000290: 960d 7bbe 53fb 1dbe 0d3d 5bbe ea3f 2cbe
000002a0: 1167 fdbe e916 00c0 a0fd 9ebe 05a7 85bf
000002b0: c765 bdbd c8ac a8be 4082 833e 3854 dd3e
000002c0: 2c08 393f 8f41 e03e 873c dfbe 3d15 1e3e
000002d0: 48cc 653f ae29 8ebd d147 58bf 89be 8c3e
000002e0: 2439 b9be cb7d a3bf ad8b 29bc 4225 273f
000002f0: 2ec1 9bbe 4e94 97be 22b5 073f 7f2c ff3e
00000300: 668f 993e 7a22 4ebe c82a 60bf a83d 94be
00000310: 7c0f 053f 78fe 6b3d c37a a1bd fac5 c9be
00000320: efc2 a43e 6250 babb d11f 5a3e e0f0 45be
00000330: 04ee da3e 83ac b3bf 23a0 80bc 7d86 5cbe
00000340: adee 58bf 35b8 9c3f 60a1 7c3e 94ee 3dbd
00000350: 6635 e23d 1d22 1e3e 81c2 8ebf 73f5 52bd
00000360: 6011 0f3e c832 89be 944d 1cbc 47f2 2bbf
00000370: 6e9c 563f dfba d8bf e54e 00bf 1c59 0d3f
00000380: b9b5 f93c b5c6 883e 64a7 82be f065 54bf
00000390: 12b5 0b3c 04da 86be 7c91 40bf a81a bd3d
000003a0: 2371 1ebf 5ac8 323f a1ec 2a3e 6e36 20be
000003b0: 87b1 0dbf 99a8 c43e 435c 0dbf 3189 53bf
000003c0: 8427 2c3f f23b 883f 088c 423f ad14 443f
000003d0: 50a1 933e 8b7d 01bd 05ed 2dbc 32fe 8d3e
000003e0: 2643 763f 9c07 eb3e 22db 3ebe c534 bebe
000003f0: ab55 0dbf adf2 813e 3768 aabe 3ba2 4f3f
-0.63188416 0.038553372 -0.21584088 0.40796095 -0.36588868 -0.9048577 -0.21726313 0.8552752
-0.120746516 0.14481473 0.32942104 0.07318499 0.05877231 1.0986911 -0.21152206 0.27000487
-0.37220892 0.118586704 -0.04558599 -0.14772531 0.9666264 1.398692 0.3076437 -0.33039135
-0.93324256 0.19853793 -0.036097065 -0.4135541 -1.3499109 -0.33827078 -0.30961552 -0.9110604
0.2635232 1.2718375 -1.3738639 -0.3268983 -0.47569776 -0.24917969 -0.34508726 -0.26704943
-0.22871068 0.2056693 -0.4137436 -0.1657457 0.88493747 -0.78992826 -1.689957 0.38319007
0.41094548 -0.057190087 -0.98434305 -0.5596476 0.11962571 -0.13584839 0.34123683 -0.2531189
-1.2717928 0.91517645 -0.48543355 -0.24267545 -0.0816661 0.13209358 -1.5528433 0.032007743
-0.34828442 -2.4420311 0.10396406 0.8842981 -0.77937704 -0.16224693 0.55013376 -0.51290673
-1.1311796 0.3612262 -0.19165994 0.054918893 0.36237568 -1.0827866 -1.2856632 0.33166888
0.17709164 -0.22133762 -0.034089547 0.1661502 -0.21928224 0.1242021 -0.20036498 -0.075878486
-0.028435541 -0.83852625 -0.41020957 1.8132464 -0.65641963 -0.9432292 0.6986388 0.5399134
0.5486288 -0.68510437 0.72940713 -0.22827123 -0.02413905 -1.7764179 -0.21426675 -1.1387784
0.58752155 -0.4726044 0.68626446 -0.083105855 -0.8022111 -1.745941 0.23234908 0.30290905
-0.83788836 -0.42479578 1.329835 0.26632687 0.458607 1.212714 0.17074746 0.31261072
-0.0191663 -0.092551395 -0.14852418 -0.25700668 0.03387109 -0.012697907 -0.34824583 0.12526864
0.7967802 0.41908622 0.23248413 -0.51054704 -1.3246901 -0.122826435 0.2561942 0.23661417
-1.0271872 0.7777173 -0.36372513 -0.31484666 -0.16706897 0.07156128 -1.9733258 -0.41964447
-0.21640413 -0.18832365 -0.35749784 -0.2908798 0.38983104 0.9259978 0.041237738 -0.41294938
0.06309201 -0.27087915 -0.16028264 -0.022932352 -0.2051862 0.670844 0.37271777 -0.2949127
2.0340114 0.4205798 -1.2777098 0.05987192 -0.24516901 -0.15427904 -0.21410008 -0.16821256
-0.49492696 -2.0013983 -0.31052876 -1.0441595 -0.09247928 -0.32944322 0.2568531 0.43228316
0.72278094 0.43800017 -0.43600866 0.1543779 0.89764833 -0.069415435 -0.84484583 0.27489117
-0.36176407 -1.2772764 -0.010348243 0.65291226 -0.30420822 -0.29605335 0.5301076 0.49838635
0.29992217 -0.2013034 -0.8756528 -0.2895329 0.5197675 0.057615727 -0.07884743 -0.39408857
0.32179973 -0.005685852 0.213012 -0.19330168 0.42759717 -1.4037021 -0.01570136 -0.21535678
-0.8473919 1.2243716 0.24670935 -0.046370104 0.11045341 0.154427 -1.1153108 -0.05150361
0.13971472 -0.26796556 -0.00953998 -0.6716656 0.8383244 -1.6932029 -0.50120384 0.55214095
0.03048216 0.267141 -0.25518334 -0.82968044 0.008527057 -0.26338208 -0.7522199 0.092336
-0.6189138 0.6983696 0.1669183 -0.15645763 -0.5534901 0.3840988 -0.55218905 -0.8263121
0.67247796 1.0643294 0.7599492 0.7659405 0.2883401 -0.031613868 -0.010615592 0.27732998
0.9619621 0.45904243 -0.1863828 -0.37149635 -0.55208844 0.2538046 -0.33282635 0.8110692

fc1.bias f4 [128]
00000000: 7b17 bd3d 6589 e1bd 3358 acbe 03a2 77be
00000010: fccc 863e a39d e9be dde1 853e 84e3 663d
00000020: d021 e43e 489a c0be 7afd c6be 67d6 58be
00000030: d23a 12be 8062 7cbd 81b9 1d3f d63d 2d3f
00000040: 0ec7 e5be e1c3 fd3e b303 ec3e 9eb4 fb3e
00000050: a987 4e3d deed dabd 8c7c c53e e72d 733f
00000060: 9883 f33e 7a17 493e da12 233e 74ec d7be
00000070: da15 903e bf48 093f 7fa1 273f bf9b 6bbd
00000080: 939d cbbe 19d8 30bf 9693 513e fda3 923d
00000090: 363b 38be 9664 0c3f 162d 213e 0da5 183f
000000a0: ef9c 15bf 5c8e b53d 45a2 a03e 292c 53bb
000000b0: ea01 39be b9ef 4c3e d91c f1be c8f3 03bf
000000c0: 2750 323f 97ce da3c 0454 203e 6955 723e
000000d0: 4414 0cbf 639b 143b 44cb 153e aaca afbe
000000e0: c487 36bc 1d27 12bf a434 fe3e e977 44bf
000000f0: 9b09 f43e 02db 513e a584 f33d abfe c6be
00000100: 8b4c bdbe 8ce8 2f3f 95c6 88bd e89d 8f3e
00000110: 03e4 0d3f 997c 11bf 5ba9 28bd 672a ab3e
00000120: 1cc3 063f 4f99 11be ab1b 64be 9ec8 153e
00000130: 238a 1fbd 2aeb 033f 8cf1 69be 1087 dc3e
00000140: 5535 13be e402 f13e c558 523e 0d01 6f3c
00000150: 25ca 513d 0f8c 0e3f c7bb f6bd 1102 fcbd
00000160: ee88 1fbd 98d9 0e3e da76 52be 7ce0 083f
00000170: 3fc0 113f a314 e63e c8ae 233e 5133 273f
00000180: 66ad 213e 6557 ad3d 8e21 d63d 4380 b33e
00000190: 7d1c 0c3f b034 acbe d8f3 d83c 415d 313d
000001a0: f329 2dbf 0dc4 6e3e b035 1d3f c5a4 a23e
000001b0: 269f 163f e111 9bbd bed3 2dbd 2bda 7fbc
000001c0: 4a7a 7d3e f4b0 d4be c6d9 a43e a91e 773e
000001d0: 1e6a 5dbe b173 bbbd 2a90 8fbe 1ceb d1bd
000001e0: 0b90 6f3e 3e82 d1bd 52d8 5b3e ebca bf3e
000001f0: 3775 a8be 2b20 16bf 149f b23c b1ef 43be
0.09232994 -0.11012534 -0.3366104 -0.24182896 0.26328266 -0.4562808 0.26148883 0.05636932
0.44557047 -0.37617707 -0.38865262 -0.21175538 -0.1428025 -0.061617374 0.6161118 0.6767248
-0.4487843 0.49563506 0.46096572 0.49161237 0.050422344 -0.10689901 0.38571584 0.94991916
0.47561336 0.19637862 0.1592516 -0.42172587 0.2814167 0.53626627 0.654808 -0.057521578
-0.39768657 -0.6907974 0.20466456 0.071601845 -0.17991337 0.5484098 0.15739855 0.5962685
-0.58442587 0.088650435 0.31373802 -0.0032222366 -0.18067136 0.20013322 -0.47092322 -0.51543856
0.6965355 0.026709838 0.1565705 0.23665394 -0.5471842 0.0022675626 0.14628321 -0.34334308
-0.0111407675 -0.5709093 0.49649537 -0.7674547 0.47663578 0.20493701 0.11890534 -0.3886617
-0.3697246 0.68714213 -0.066785015 0.2805016 0.55426043 -0.56830746 -0.041177135 0.33430788
0.52641463 -0.14218639 -0.2227618 0.1462731 -0.038950097 0.51530707 -0.22846049 0.43071795
-0.14375813 0.47072518 0.20541675 0.014587653 0.05121817 0.5568246 -0.120475344 -0.12305082
-0.038948946 0.13950193 -0.20553151 0.53467536 0.5693397 0.4493762 0.15984643 0.6531268
0.15788803 0.08463935 0.10455619 0.35058793 0.5473097 -0.33633947 0.026483461 0.043301824
-0.67642134 0.23316975 0.61410046 0.31766334 0.5883659 -0.075717695 -0.04243826 -0.01561598
0.24753681 -0.41541255 0.32197398 0.2413279 -0.21622512 -0.09152926 -0.28039676 -0.10249922
0.23394792 -0.1022992 0.21469238 0.37459502 -0.32901928 -0.58642834 0.02180437 -0.19134404

fc2.weight f4 [128, 128]
00000000: c491 aabe 1439 113e cb92 9f3e 5aea 1ebf
00000010: 197c 433d f82a 303e 7cb3 52bc eb32 e13d
00000020: 499c bebf c619 98be 213b 47bd 4463 c8bf
00000030: d6c9 9b3e c6f3 983e a026 4ebf 3e50 a8bc
00000040: 8533 423f ffd1 0c3e d613 a23d d3bc 96bd
00000050: 7fa4 d63d 9a6f ab3e a5b9 66bd e3ae 2abe
00000060: 6b16 9cbd 9bf7 443f d6ed 853e 2419 d73e
00000070: 7978 d53e 5bfc 8c3e e02e 933e 8760 60ba
00000080: 58d2 0a3f 90c7 183f 2e69 7cbe 11e2 3abf
00000090: 6070 94be 1ea8 6bbd b69c d83e c204 8d3e
000000a0: 414f 82bc a5d4 573e cdc3 db3d e4fd ea3e
000000b0: 9a45 f93e 1e42 3dbf 2bd2 193f 388c 323d
000000c0: dc95 c3bc 62b8 e43d 7964 25bc 18b4 f9be
000000d0: dc00 c63e 4741 89bf 1f72 b3bd 0938 973e
000000e0: 23ee ab3e 83e7 4ebf a545 593e e189 7a3f
000000f0: 37af b1bc 5921 b8be b69d ab3e 4993 35bf
00000100: 9ee4 4e3f 6ba9 613e 799e fbbe 9ec0 c73d
00000110: a096 ba3e 5a9c ca3d 8341 3f3d 46df a83d
00000120: ece2 c6bd b6af cc3e 5066 a23e cb18 473e
00000130: d080 c33d 5cb7 7c3e 2918 c83e 5e14 de3d
00000140: 62ce 133f 7369 af3e 9cb3 a53d dfdc 0f3f
00000150: bd43 56bd 64e7 473e e812 e4be 2da5 d93d
00000160: 7818 e13e 1574 943e 4572 483e 2e5a 58bd
00000170: 245f 5abe f6d5 b8bd 81cb ff3e 1e20 c73d
00000180: 7cba 3ebe 0a94 bb3e f572 743e 6f29 d5be
00000190: fcaa a13c a839 983e 10a6 9e3e 92fb 793f
000001a0: ccc8 0bbf e24b 0f3e 57ce 6939 4b3c 993e
000001b0: 7151 a03e 8ee6 1c3f 2d40 8e3f b2d7 b33d
000001c0: 5320 003e 4b2a 86bf e963 6dbd e154 21be
000001d0: 31e5 9f3e 6dfa 6bbf 707b 753e 07ad 343f
000001e0: 2420 3d3e 1239 c73f a35d b3bd 6755 4f3f
000001f0: 0bc0 5f3e 505a 3a3f 9805 793b e8e0 593e
00000200: 6642 98bd e16a 97bd 98ad c9bc e4b7 d73b
00000210: 562f cfbd ba01 65bd ff21 80bd bdc5 adbd
00000220: b331 063d 836a 04bb 1c01 8cbd 40aa 80bd
00000230: 86b5 4abd 18ee d0bd 20b5 92bd c713 d3bc
00000240: 3746 813c f932 86bd 0609 9abc 8595 803c
00000250: ad1c be3b b838 0abc 2f02 483d f4a3 66bd
00000260: ac28 78bc 38fb 433d 3ef1 483d 7e26 d3bd
00000270: a40a b0bd 0cff 293c d543 b2bd 1cad 3cbd
00000280: f948 afbd e51b c1bc e782 cdbd ed38 1bbd
00000290: 43a3 9dbd b0a9 ebbc fce0 bdbd bd95 373d
000002a0: e172 68bd 29ac 65bd f4f5 50bd f593 f9bc
000002b0: 7378 92ba 4d6c 323c 5115 b7bd 53d0 0ebd
000002c0: 9dfd 453d 7728 8e3c 12af e23c 9ce9 a4bd
000002d0: ca9f 8d3d fa45 873c 4a37 c53c a77a 833d
000002e0: 2fee 813d 790a f43b 58e5 e03c 02c2 9abc
000002f0: 60c8 95ba 60e0 383b a4b2 c8bd 29f9 a53b
00000300: 2861 2f3c 9a87 c43b e5c7 143d 40ed a63d
00000310: 93ea 1fbd eac0 25bd fe65 c4bc 0f9f babd
00000320: 1bbc 803d 883b 30ba f750 b13c fdfb 08bd
00000330: 7b38 ac3b ebd8 893c 9720 b4bc efe4 5d3d
00000340: f50e b3bc fe71 5f3d 9d7c 68bd 08b4 633d
00000350: 83eb 87bb 68e5 5ebd 897b e53c 4d73 34bc
00000360: a27a bdbb ce45 93bc 171c c3bc 0486 b5bd
00000370: aef5 8ebd 515d 5fbd 5d70 923c e462 8a3c
00000380: b855 5abd 8354 40bd b892 71bd 62c6 f5bc
00000390: 4e78 78bc d5b6 62bd 7184 2f3d e389 c9bd
000003a0: cdaa 613d 7005 93bd e08c 10bd 0a56 bf3c
000003b0: c319 16bd 0e5e 753d b6a4 8ebd 4afa 8bbd
000003c0: c59c 59bc cc07 80bd c044 56bc ae96 81ba
000003d0: 7546 38bd 0b3a 0c3c 0734 fabc 7963 a9bd
000003e0: 8cf2 843c a073 fabc e402 7c3d 3794 c83c
000003f0: 9bab a23d af18 433d 96a0 b6bd d4ec b1bd
-0.33314335 0.1418193 0.31166682 -0.6207634 0.04772577 0.17203891 -0.012860175 0.1099604
-1.4891444 -0.29707164 -0.048640374 -1.5655293 0.30427426 0.29873484 -0.8052769 -0.020546075
0.7585986 0.13751982 0.0791394 -0.07360234 0.10480594 0.33483583 -0.05632939 -0.16668276
-0.076214634 0.76940316 0.26158017 0.42011368 0.41693476 0.27536282 0.287467 -0.00085593056
0.5422721 0.5967951 -0.24649498 -0.730012 -0.28991985 -0.057533376 0.4230706 0.27542692
-0.015906932 0.21077211 0.107307054 0.45896828 0.48685914 -0.7392901 0.60086316 0.043590754
-0.02387517 0.11167981 -0.010094755 -0.48770213 0.3867253 -1.0723046 -0.08762001 0.2953494
0.3358012 -0.8082201 0.21217974 0.97866637 -0.021689994 -0.35962942 0.3351876 -0.70927864
0.8081759 0.22037284 -0.49144343 0.09753536 0.36443043 0.09893103 0.046693336 0.08245711
-0.09711251 0.39977807 0.31718683 0.19443052 0.095460534 0.24679321 0.39080933 0.108437285
0.5773679 0.3426014 0.080908984 0.561964 -0.052310694 0.19521862 -0.44545674 0.10627208
0.4396398 0.28994814 0.1957484 -0.052820377 -0.21325356 -0.09025185 0.4995995 0.09722923
-0.18625826 0.36636382 0.23871978 -0.41633174 0.019734852 0.29731488 0.3098607 0.9764949
-0.54603267 0.13993791 0.00022297479 0.29928812 0.31312135 0.612893 1.1113335 0.08781375
0.1251233 -1.0481657 -0.05795661 -0.15755035 0.31229547 -0.92178994 0.23972869 0.7057652
0.18469292 1.5564291 -0.08758094 0.8098969 0.21850602 0.72794056 0.003799772 0.21277201
-0.074345395 -0.073934324 -0.024618909 0.006583201 -0.101164505 -0.05590985 -0.06256484 -0.08484981
0.03276224 -0.0020205087 -0.06836149 -0.062824726 -0.04948952 -0.10201663 -0.07163453 -0.025766267
0.015780551 -0.06552691 -0.01880313 0.015696296 0.0058017583 -0.008436374 0.048830207 -0.0563087
-0.015146416 0.047847003 0.04905819 -0.10310076 -0.085957795 0.010375749 -0.08704344 -0.046063527
-0.0855884 -0.023572871 -0.10034733 -0.037896086 -0.07697155 -0.028767437 -0.09271428 0.044820536
-0.056750182 -0.056072388 -0.05101581 -0.03046606 -0.0011174813 0.010890079 -0.08939613 -0.034866642
0.048337568 0.01735328 0.02767137 -0.0805237 0.06915243 0.01651286 0.024074215 0.064198785
0.06344258 0.0074475375 0.02745311 -0.018891338 -0.0011427514 0.002820991 -0.09799698 0.0050651026
0.010704316 0.0059976103 0.036323447 0.081507206 -0.039042067 -0.04046718 -0.023974415 -0.09112369
0.06285878 -0.0006722738 0.021645052 -0.03344344 0.0052557564 0.016827067 -0.021988196 0.054173406
-0.021857718 0.05455207 -0.056759465 0.055591613 -0.004147948 -0.054417998 0.028013008 -0.011013818
-0.0057824412 -0.017977621 -0.023817105 -0.08863452 -0.069804534 -0.054532353 0.017875845 0.016892858
-0.053304404 -0.046955597 -0.058977813 -0.030001823 -0.015165402 -0.055350143 0.042850915 -0.09840753
0.05509453 -0.071787715 -0.0352906 0.023356456 -0.036645662 0.05990415 -0.0696501 -0.06834848
-0.013282006 -0.06251487 -0.013077915 -0.0009886825 -0.044989068 0.00855876 -0.030542387 -0.08270926
0.016228937 -0.030572712 0.061526194 0.024484737 0.079428874 0.047630962 -0.08917348 -0.086877495

fc2.bias f4 [128]
00000000: bca3 0bbe 3847 a03c 1bd1 a63c a403 56ba
00000010: c439 4bbc d870 283c a9d1 a3bd 5a39 803e
00000020: 778f 993d 922d eebd 4e0e 37be c468 9cbd
00000030: 7bfd 86bd 4590 c2bd a2fb 113d 474d 423d
00000040: bb34 99bd 219a 083d 585c 99bd 5e08 5abd
00000050: 6fd9 fabc 676d 8c3e 340a cdbc d67e 5e3c
00000060: b703 05bd 41c7 d3bd 4130 fc3c e11a 0fbd
00000070: d6eb 9d3e ef2d c03d f85a 403c 1844 3b3d
00000080: 6934 333f cf03 cdbd 8e3d 7dbd 2c45 a0bd
00000090: 0cfd 9fbd 1f4e e6bd 769a d1bd f431 8dbd
000000a0: 0d0a 8a3d f575 a9bd 30e0 d0bd b037 523d
000000b0: 3e10 263d 658e 033d 9bc2 80bc ba44 bb3e
000000c0: c211 f4bd 16f9 b43e d803 74bd 2410 aebd
000000d0: beb1 f73c 2d79 32be 3b17 393b c431 103d
000000e0: 3acc 1abc c6e3 373f 5f3e bdbd 65c1 5b3f
000000f0: 7a2d 14bc 08b2 e23d 9730 953b f64c 90bb
00000100: 2a4c 16bd 2d95 85bd bb67 4c3c 0d77 d83c
00000110: 41f1 7cbd cbd7 95bd cf83 45bd e2d7 34bd
00000120: d3d9 0dbe 67d9 08bc c7c4 0f3f 50a4 983e
00000130: 8380 b13c 5a92 25bd 3dac b9bd 1bf2 80bd
00000140: e305 c9bd 32b9 31bd 57ca 8bbd c24c 30bd
00000150: b928 963b cc2f 9e3c 2b1e dbbc 07bd 5bbb
00000160: 891d b7bd cc75 8f3c ba4d 113d 3591 fe3e
00000170: 5b90 9bbd 9123 8cbd e12a 65bd 84c0 aebd
00000180: a36c 25bc b4a2 1c3f a64f 84bd 94d8 cbbd
00000190: 19d0 f8bd 5a2c 883b 4158 61bd 26ec f3bd
000001a0: 68ce b5bd d1e6 06bd 53dd 17be 02e3 6bbd
000001b0: 3fc8 f1bd e3e6 22bd 38bb 833e 5d6e d5bc
000001c0: 092b 663e 57c8 9dbd 8c0a 89bc 40b8 f93e
000001d0: c734 833e 516a 06be 9d1c f1bd b7f5 60bc
000001e0: fe1b c83b 9bce ca3c b01f 17be 2db9 e1bd
000001f0: ca14 b63e b92a 163d c59e 443f 3312 d93e
-0.13636678 0.01956521 0.020363381 -0.00081639946 -0.012403909 0.01028081 -0.07998974 0.25043756
0.07498067 -0.116297856 -0.1787655 -0.0763717 -0.06591316 -0.095001735 0.035640366 0.04743698
-0.07480761 0.033350114 -0.07488316 -0.053230636 -0.030621259 0.27427217 -0.02502928 0.013580045
-0.032474246 -0.10340739 0.030784728 -0.034937743 0.3084399 0.09383761 0.011740439 0.045719236
0.70001847 -0.10010492 -0.06182628 -0.078256935 -0.07811937 -0.11245369 -0.10234539 -0.068942934
0.06740198 -0.08274452 -0.1019901 0.05132264 0.040542834 0.03211822 -0.015717795 0.36575872
-0.119174495 0.35346287 -0.05957398 -0.08499172 0.030236121 -0.17429037 0.0028242606 0.03520371
-0.0094481055 0.7183193 -0.09240412 0.8584197 -0.009044046 0.11069113 0.0045529115 -0.0044037057
-0.03669373 -0.06522594 0.012475903 0.026423955 -0.061753515 -0.0731655 -0.048221406 -0.044151194
-0.13852625 -0.008352614 0.56159633 0.2981286 0.021667724 -0.040422775 -0.09066055 -0.06296178
-0.09815576 -0.043389507 -0.06825703 -0.043041952 0.0045824912 0.0193099 -0.026747784 -0.0033529417
-0.0894118 0.017512225 0.035474516 0.4972016 -0.07595893 -0.06842721 -0.055949096 -0.08532813
-0.010096702 0.61185765 -0.06460504 -0.099534184 -0.121490665 0.0041556777 -0.055015806 -0.11910276
-0.088772595 -0.032934967 -0.14830522 -0.05758954 -0.11805772 -0.039770972 0.25728774 -0.026053602
0.22477354 -0.077042274 -0.016728662 0.48773384 0.25626203 -0.13126494 -0.11773036 -0.013730458
0.0061068526 0.02475672 -0.14758182 -0.110216476 0.35562736 0.036661837 0.76804763 0.42396697

out.weight f4 [4, 128]
00000000: a1b0 a73e 1c80 7d3d a4b1 1bbf e536 12bf
00000010: f97b c03c f614 0ebf 3ffd e9be dd13 98bf
00000020: 1f5c 7ebf e478 863d 56b7 20bf 62b5 f8bc
00000030: a492 16bf cb82 78bc 9170 723c daae 38bd
00000040: da82 cbbe 0257 d3be 6fd8 f0be 4eac fcbe
00000050: 3756 bfbd ea98 4e3e 5f56 44bd cdd2 01bf
00000060: eee3 f6be 7209 1bbf 8c56 05bf 9114 a8bc
00000070: 454a 34bc 52c1 0abf 23dd fabe ddad 8dbd
00000080: 4c92 b83f 52e2 7abd b1bc 21be 9ba8 9bbc
00000090: 550b 9bbd 1965 f7be 8b8e 0bbf 5fa1 ecbe
000000a0: 858e 35bb 9cce 223d 1f1c 14bf 861d 05bf
000000b0: 5491 05bf 2f23 a6be d039 14bf 4a26 b13f
000000c0: 1bf1 febe d745 8a3f eed2 e3be 8751 6e3c
000000d0: 6e80 14bf d7f1 923f e053 4f3d e185 0bbf
000000e0: 65ac 16b7 40c5 a03f a375 07bf d98e ce3f
000000f0: 1a53 0cbc a600 54bf d449 11bf 5e41 20bf
00000100: e28e b5be 5945 443d af0e 74bc 78d9 14bf
00000110: 26d9 14bf 7785 663c 7ade e8be 2497 023d
00000120: bf79 8dbd e045 8b3d 5650 1740 be7f 88bf
00000130: d3c4 85bd 62e7 483d 743c a33d 79e0 26bf
00000140: 6e88 4abd cf01 02bf 071f 05bf de33 e5be
00000150: 9a19 f13c 14f7 b43d 6467 dfbc aed5 2a3d
00000160: 1dec 1bbf 00d5 53bd 0e7d a33e e517 273f
00000170: cbc6 09bf 8122 7d3d ab41 d3be d00f 21bf
00000180: 1b69 00bf 0b8d 4c3f 786a b5be a669 23bf
00000190: cb63 03bf a3ec 793d 3afb 15bf 8d7a 03bf
000001a0: 720c 0cbf 5586 3a3d 3015 06bf f1ac 24bf
000001b0: 00b7 fb3c 513a 963d 88dc f1be 7dcd d83f
000001c0: 55de 7cbf 96d9 55bd 7385 743d 8fa7 8f3f
000001d0: 0a6b 0540 415c 90bc 1833 89be d1e6 9c3e
000001e0: 569a bc3c ad0d 06bf 3b76 fcbe f6b8 12bf
000001f0: 368e 1f3f 6683 e0be 6507 3240 6727 2f3f
00000200: 6857 39bf bc4a 823d b1b8 cdbe 3eaf d4be
00000210: 804e 9d3d c523 f8be f3aa b6be 7218 09c0
00000220: 6677 4e3f a633 68bd 283d 173e 6461 593c
00000230: 9c2b 21bf 5aa0 47bd 2b92 783c 83c2 033d
00000240: 4881 cfbe 9955 13bf b62f 15bf 7746 03bf
00000250: d976 633c 2051 883e cf4f 27bd 01ea f4be
00000260: 78bf fdbe 25ef 1ebe 2408 cdbe d8a9 a03d
00000270: 6998 793f f27e 32bf 1075 b6be df24 6b3d
00000280: f027 0140 1ea2 383d 572c 44bf 0a72 ee3c
00000290: 3132 ea3c e536 9cbe 09fb 17be 73e5 e8be
000002a0: 7f43 853d a552 d8bb 85c6 a3be 0c16 0ebf
000002b0: f5c7 c3be 5f4a 6ebf e8dc b3be 8ff4 b23f
000002c0: d6b3 d8be f673 0040 cb53 04bf 8c2f f1bc
000002d0: 113e 09bf d53d 133f 28fc 40bc ff0b 28bf
000002e0: 2a99 633b 0dad ffbc 02fa 10bf e05f 1040
000002f0: 4cf6 ca3c 1500 3cbf 53ed dfbd 99d0 eabe
00000300: c477 1cbf 42ca 8c3d c889 2bbd ec53 c9be
00000310: d207 f5be c129 343d effc 0bbf 6b72 6b3d
00000320: ed27 4f3d a026 1e3f 8f28 993f 1a6a b23f
00000330: dbff 203d 6680 b3bd e416 373c bb5c 78bf
00000340: a25e a6bc 2102 10bf e4d6 dfbe 1c3d 1dbf
00000350: 89bd 553d 6994 22bc 1450 38ba 06ca 443d
00000360: 4d60 a0be a2dd 89bd 1dc8 08bf ba01 1740
00000370: f71a a6be 44ab 3abd c82b d3be c0b7 01bf
00000380: cf93 e2be 2038 f93f ac7f 17bf 05ea 8ebe
00000390: 251b cebe 05f0 3cbf bc2c f0be 4183 d2be
000003a0: 182d d8be 5271 85bd 1a71 c6be 4afc 17bf
000003b0: a99a 12bb b6ab 1cbd 7be7 d7bb 56f5 9a3f
000003c0: 278a 9c3e 41d1 30bd 9534 c43c 2ae4 e4be
000003d0: f65f 823f 353d 9e3d 2e50 2abf abc8 86be
000003e0: e2b6 4bbd 73f8 b6be 9261 c0be 95c5 e6be
000003f0: 4a98 963f 6df9 13bf 319c 0040 7387 393e
0.32751945 0.061889753 -0.60817933 -0.5711501 0.023496615 -0.55500734 -0.45701024 -1.1881062
-0.99359316 0.06566027 -0.6277975 -0.030359928 -0.58817506 -0.015167902 0.014797346 -0.045088626
-0.3974827 -0.4127732 -0.47040126 -0.49350208 -0.09342616 0.2017552 -0.047933932 -0.5071228
-0.48220772 -0.6056129 -0.52085185 -0.02051762 -0.011004035 -0.54201233 -0.4899684 -0.069179274
1.4419646 -0.061250992 -0.15794636 -0.019001296 -0.07570521 -0.4831932 -0.5451438 -0.46216866
-0.0027703356 0.03974782 -0.5785541 -0.51998174 -0.5217488 -0.32448718 -0.57900715 1.383981
-0.49793324 1.0802563 -0.44496864 0.014545805 -0.5800847 1.1480054 0.0506171 -0.5450116
-8.980835e-06 1.2560196 -0.52913874 1.6137344 -0.008564735 -0.8281349 -0.5675328 -0.6259974
-0.35460573 0.047917698 -0.014896079 -0.5814433 -0.5814384 0.014069906 -0.45482236 0.03188242
-0.06907987 0.06800437 2.3642783 -1.0663984 -0.06531682 0.04904879 0.07970515 -0.6518627
-0.049446516 -0.5078401 -0.5200047 -0.44766134 0.029431153 0.08836189 -0.02727098 0.041707687
-0.60907155 -0.051716805 0.31931347 0.65270835 -0.5381896 0.061800484 -0.41261038 -0.6291475
-0.5016038 0.79902714 -0.35432792 -0.6383308 -0.51324147 0.06101669 -0.58586466 -0.5135887
-0.5470649 0.045538265 -0.5237608 -0.6432639 0.03072691 0.07335342 -0.47238564 1.693771
-0.9877675 -0.05220946 0.05969758 1.122301 2.0846581 -0.017622115 -0.26796794 0.3064485
0.023022812 -0.5236462 -0.49308953 -0.5731348 0.6232637 -0.4385025 2.7817013 0.684195
-0.72398996 0.06361911 -0.4017997 -0.4153995 0.07680988 -0.4846479 -0.356773 -2.142117
0.8065094 -0.05668988 0.14769423 0.013267849 -0.6295717 -0.048736908 0.015171568 0.032167923
-0.4052832 -0.57552487 -0.58275926 -0.51279396 0.013883316 0.26624393 -0.040847596 -0.4783478
-0.49560142 -0.15520914 -0.40045273 0.07844895 0.97498184 -0.69724953 -0.35636187 0.05740821
2.0180626 0.045076482 -0.7663016 0.029107112 0.028588386 -0.3051063 -0.14841856 -0.45487556
0.065070145 -0.006601649 -0.31987396 -0.5550239 -0.38238493 -0.9308223 -0.35129476 1.3980883
-0.42324704 2.0070777 -0.5169036 -0.029441617 -0.5361033 0.57516223 -0.011778869 -0.65643305
0.0034728744 -0.031210447 -0.5663148 2.2558517 0.024775647 -0.73437625 -0.10933938 -0.45862272
-0.6112025 0.06874515 -0.041879445 -0.3932184 -0.4785753 0.043985132 -0.5468282 0.057482164
0.050575186 0.6177769 1.1965503 1.393863 0.039306503 -0.087647244 0.011174891 -0.97016495
-0.020308796 -0.5625325 -0.43718636 -0.6142137 0.052182708 -0.009923079 -0.00070309755 0.048044227
-0.31323472 -0.06731726 -0.5343035 2.3594804 -0.32442448 -0.045573488 -0.4124434 -0.50671005
-0.44253394 1.9470253 -0.59179187 -0.27912918 -0.40255085 -0.7380374 -0.4690913 -0.41115764
-0.42221904 -0.06515755 -0.38758165 -0.5936934 -0.0022370017 -0.038249694 -0.006588874 1.210612
0.30574152 -0.04316831 0.023950854 -0.44705325 1.0185535 0.07726518 -0.66528594 -0.26324973
-0.049734958 -0.35736427 -0.3757444 -0.45072618 1.1765225 -0.5780247 2.0095332 0.18118076

out.bias f4 [4]
00000000: 8d9a a03e 8d86 5f3e 3192 113e b962 83bd
0.31367913 0.21828671 0.14215924 -0.06415314
