DQN/models/dqn_ep200_20250415_155045.pth (torch, 75580 bytes, 6 tensors)

fc1.weight f4 [128, 8]
00000000: 694f 54bf 99a1 8b3e f864 d53c 761a 32be
00000010: eb82 583f fa90 743f 5011 733e 15e7 1abe
00000020: fe07 cdbe 6710 e2bd 202f 023e 0986 7dbf
00000030: 7c7d 873e 22f7 09bf 9b15 153f edd6 6e3d
00000040: 5231 c33e 5b3d be3d 79bb 70bd f7c6 fbbe
00000050: 6c3e 0a3e ac3e bbbf f797 3dbf b6c4 4a3e
00000060: 318c aebc 6576 103f 1b78 7abd 9e62 babe
00000070: 1944 893f 263e 8ebf 631b 2abe 8a54 bbbe
00000080: 89be 273e 76c5 6abe 9150 69be 4851 63be
00000090: 00f5 4d3f fac2 5abf 5451 553f 63a4 1e3f
000000a0: fef5 e8be 6994 babf b5c2 0cbf add0 81bf
000000b0: 88d2 d13e b6d1 b53d 8e03 d13d f33a 803e
000000c0: afe4 35bf e3a0 1d3e ef55 eb3d f403 483b
000000d0: 349d ff3e 39e3 5abf 6185 8a3e 2f5c d5be
000000e0: e3f5 87be 524d 4cbf 4d57 4e3f e61b 2fbf
000000f0: 6017 b63e 8627 63bc 4f99 3abf 537e a0bd
00000100: 040a afbf e755 553f 60ab 3abf ae8c 44bf
00000110: 1ebf abbf 3090 21bf 2a6f 03be e00a 2cbf
00000120: c2ec bc3f 3605 77bc 720c ac3c ffba c5be
00000130: a7f2 30bf 8914 d8be 2ac8 203d 9acf f03e
00000140: 36f3 2bbe 231a 523e d178 d8bd 07d8 fdbe
00000150: eceb 083f 5dde d63f a2eb 1c3e f092 55bf
00000160: eaa1 433f a081 c33e be4b d73f a7f2 9f3f
00000170: 9ea3 a83e b91a 8ebe e089 873f 3d1e 3ebe
00000180: bdee 4ebc 3df2 89be ddd6 42bd acc9 203f
00000190: 31dd 91be 9110 7cbf d961 95bd 22e8 66be
000001a0: 2ab2 efbe 2669 2b3d bf1d 9bbe 0417 5c3f
000001b0: 6dda 003f 4e3c b13f 2f3f d03d 14f9 a33d
000001c0: 2ea7 3e3f 7792 92be 6ac8 71bd 0fe6 18be
000001d0: ec49 2d3f c33f 3dbf 9381 423f fe07 023f
000001e0: c52e 273f 2b1c 69bf 2b67 813f aaec b2bf
000001f0: f2dc 44be c759 cabf a965 a8bd a8d3 333f
00000200: bbb4 cb3f 36be 9b3c 82ed b43f ddbf 093f
00000210: c3b1 adbf 1238 2a3e 7105 ef3c 77c1 16bd
00000220: cc6b d73f 4a99 ef3e 5a22 ff3e f1a7 70be
00000230: 6dd6 733d 29d3 1b3e 5dc9 d0bd 8151 913f
00000240: a718 653f ba51 02c0 d60a 16be 90b4 b8bf
00000250: 9a2e 303f 1dca 303f 73df bb3e f98f 303e
00000260: 4940 1dbf 23c1 babc 623c 13bf 1bca cdbe
00000270: 882c 053f d1e3 bc3f d929 fa3e 2e6a 223f
00000280: 8934 92be e0a9 913e 5f5d bbbe 5587 e9be
00000290: 8e75 adbf bc97 74bf 85f2 9ebf 7493 533f
000002a0: 7be2 f93e cb9d 17bd 7862 8cbe 591e 3f3e
000002b0: 172b 7b3f fb4d 8fbf 76d1 85be 2fa8 51bc
000002c0: 9eb6 2b3e 2e0e df3e 33e1 963e 4138 263e
000002d0: b0c9 00c0 a75e 44bf 8ec2 2d3f 78dd d2bd
000002e0: c9c6 81be 80e7 c9bf 5454 28be ff90 6abf
000002f0: f856 343e 3d48 b3bf ca5d 113f 7bb8 9e3e
00000300: 0986 1f3f e4ff 44bf 4a17 953e 9071 29bf
00000310: 2061 453f 78e1 1bbe 5a3c 0a3e 3f97 7e3e
00000320: 779d d9bd 7d47 49be a533 ac3d a9b2 0fbf
00000330: e904 1cbf 788a ac3e 2e8e 5a3c b42a 9ebe
00000340: 0098 24c0 d434 cbbe ec0b 3bbf a101 ffbe
00000350: 1719 98bd a4a0 0dbc ef1b 813e 0180 5d3d
00000360: 0e24 6f3e 24f1 87be 3818 bbbd ca2d 873e
00000370: 73b7 513f 0879 94bf 4ec8 fcbe 20a8 123f
00000380: 40e4 d1be ea88 13be 6c0c c7bc 864a 65bf
00000390: c7e0 cd3e 9bf0 2bbf 2614 0b3f 121e d63e
000003a0: ab03 a9bf d57a debe 64ce 28bf 9b04 bcbe
000003b0: 1eda a9bf 64ea 0cbf d5dc b4bf d15f 173f
000003c0: 573c 4fbf 4d75 f7be f56f 8ebd 29ce 78bf
000003d0: 01ba 863e e0d1 4c3f dfca 983e 8b81 8bbf
000003e0: 6bcd 503e 5186 243d 395d 313f 11c0 1abd
000003f0: 81d1 72bf 715d e9bf 7cc6 75bf 12ab ecbe
-0.8293367 0.27271727 0.026049122 -0.17392907 0.84574765 0.95533717 0.23737073 -0.15127213
-0.4004516 -0.11038285 0.1271329 -0.99032646 0.26462924 -0.5389272 0.5823609 0.058310438
0.38123566 0.092890464 -0.058772538 -0.49175236 0.13500375 -1.4628501 -0.74060005 0.19801602
-0.021307083 0.56430656 -0.061149698 -0.36403364 1.0723907 -1.1112716 -0.1661201 -0.36587936
0.16381277 -0.22926888 -0.2278464 -0.22198975 0.80451965 -0.8545376 0.8332722 0.61969584
-0.45500177 -1.4576541 -0.549846 -1.0141808 0.40980935 0.0887789 0.10205756 0.25044975
-0.7105207 0.15393405 0.11491 0.0030519934 0.49924624 -0.85502964 0.27054885 -0.41671893
-0.26554784 -0.7980548 0.8060196 -0.68401945 0.3556471 -0.013864404 -0.7289018 -0.078365944
-1.3674932 0.833342 -0.7291775 -0.7677716 -1.3417699 -0.6311064 -0.12835374 -0.67204094
1.4759753 -0.015076926 0.021002028 -0.3861923 -0.6912026 -0.42203167 0.03925339 0.47033387
-0.16791996 0.20517783 -0.10569919 -0.49578878 0.5348499 1.678661 0.15324262 -0.83427334
0.76418936 0.38184834 1.681999 1.2495927 0.3293733 -0.27754763 1.0588951 -0.18566222
-0.012630162 -0.26942626 -0.04756819 0.62807727 -0.28489068 -0.9846278 -0.072940536 -0.22549489
-0.46815616 0.041848324 -0.30296132 0.8597262 0.5033329 1.3846529 0.10168301 0.08006492
0.74473846 -0.2862737 -0.05902902 -0.1493151 0.6769092 -0.7392542 0.75978965 0.50793445
0.6530574 -0.91058606 1.0109609 -1.3978474 -0.19224909 -1.5808648 -0.08222515 0.70244837
1.591453 0.019011598 1.4134982 0.53808385 -1.3569874 0.16622952 0.0291774 -0.036805596
1.6829772 0.46796638 0.49830896 -0.23501565 0.059530664 0.1521727 -0.10194657 1.1352998
0.8949074 -2.0362382 -0.14652571 -1.4430103 0.6882111 0.690584 0.36693916 0.17242421
-0.61426216 -0.022797173 -0.5751401 -0.40193257 0.52021074 1.4757024 0.48860052 0.6344327
-0.28555706 0.28449917 -0.36594674 -0.45611063 -1.35515 -0.9554403 -1.2417761 0.8264687
0.48805603 -0.037015717 -0.27418876 0.1866392 0.98112625 -1.1195673 -0.2613637 -0.012796446
0.16768882 0.43565506 0.29468688 0.16232397 -2.01231 -0.7670693 0.6787499 -0.10296148
-0.25346974 -1.5773773 -0.16438419 -0.91627496 0.17611301 -1.400642 0.56783736 0.31000122
0.62313896 -0.7695296 0.2911933 -0.6618891 0.77101326 -0.15222728 0.13499585 0.24862383
-0.10625737 -0.19656177 0.08408288 -0.5613199 -0.6094499 0.33699393 0.013339562 -0.30891955
-2.5717773 -0.39688742 -0.73065066 -0.4980593 -0.074266605 -0.008644257 0.25216624 0.054077152
0.23353598 -0.26551163 -0.09135479 0.26402122 0.81920546 -1.1599436 -0.4937157 0.5728779
-0.40994453 -0.14407697 -0.024297915 -0.8956684 0.40210554 -0.6716401 0.5432762 0.41819817
-1.3204244 -0.43453088 -0.6593993 -0.36722264 -1.3269689 -0.5504515 -1.4129893 0.5913058
-0.80951446 -0.4833168 -0.06954948 -0.97189575 0.26313785 0.80007744 0.29842278 -1.0898908
0.2039086 0.040167157 0.6928287 -0.037780825 -0.9485093 -1.8231641 -0.9600599 -0.46224266

fc1.bias f4 [128]
00000000: 8a0a 1fbf eff6 923e 4d8d 2d3f 5b8d 74bf
00000010: de5f a63e 645b 943e a462 153f 1bba 053f
00000020: 3298 8d3e 086e 083e b394 59bf 78cd 9f3e
00000030: 4b98 fd3e dc2e 12bf de5e cb3e 9f92 2dbe
00000040: ba76 9aba 2711 f1bb 28a5 b6bd 67bb a4be
00000050: c19f e1be 80e0 2f3e 8e99 5e3f f9c8 bf3e
00000060: 2cb3 7d3e d91d 2b3f 3fd8 4cbe 5bad f53e
00000070: ad8b d63e f4aa 983e 1dd5 aabe 7ed1 0fbf
00000080: 9711 80be 26fe 73bd eb48 683c 4d5b 1abd
00000090: 7159 93bd 302a c5be b8dc e9bd 3ec3 a33e
000000a0: 85d8 b93c af13 a2be 2343 3abe b850 063f
000000b0: c467 61bf af0f d7ba 245b f63c b198 03bd
000000c0: 7a10 b7be 89f7 04bf b200 01bd fd16 65be
000000d0: 61b4 af3e 920f 00be 0ec1 d7bd 5b49 b23e
000000e0: 49df 273e 52b5 8a3e 41ec 0bbf 2389 213f
000000f0: b8f0 083e c182 853d 76b7 f2be 1786 99be
00000100: efbb 3e3f d36d 2c3f aab7 f1be bd07 433e
00000110: ca97 dc3e cf84 fd3e fab6 d4be 64c1 59be
00000120: 307c 5fbf 14d1 353f 1c81 753e 345f a0bc
00000130: 6ec3 783f 5bdc dd3e 1f11 23bf 0c7a b13d
00000140: 4458 5fbe 1b44 b23e cb10 263e 9eb9 97be
00000150: d937 85be bea1 983e a9ac 7d3e f288 713e
00000160: b1cf eb3e 3c02 723d e8dc 3bbf a611 f83e
00000170: 0da4 b33e 9879 723d 881a 183f baf0 2ebf
00000180: 18cc bb3e f928 a73e a4f0 af3e 548c ab3e
00000190: fcd0 003f c464 cf3e d12a 893c 0269 bc3e
000001a0: f653 a63e a25f 693e f2d7 0a3f 9810 fabd
000001b0: 0277 7bbd 1693 ee3e 59ba 763e 11e8 1a3f
000001c0: f1b2 8dbd 9abf 0d3f 9a29 103f 0928 443d
000001d0: 6a86 dabd f648 963e 9f9e 9bbe a9af eabe
000001e0: 8dd7 42bf 72e9 613e e14f b2be 16f1 1e3f
000001f0: 98ee 3fbf 79ea c8bd d1b9 573e 12c8 923e
-0.62125456 0.2870402 0.6779373 -0.9552819 0.32495016 0.28975976 0.5835364 0.522371
0.27655178 0.13323224 -0.8499252 0.31211448 0.49530253 -0.5710275 0.39720815 -0.16950463
-0.0011784651 -0.007356781 -0.0891822 -0.32174227 -0.44067195 0.17175484 0.86953056 0.37458017
0.2477538 0.6684242 -0.20004366 0.47983822 0.4190344 0.29817927 -0.33365718 -0.56179035
-0.2501342 -0.059568547 0.014177541 -0.037684727 -0.07194794 -0.3850875 -0.11419052 0.31984895
0.022686252 -0.31655642 -0.18189673 0.5246692 -0.8804896 -0.0016407872 0.030072756 -0.03212804
-0.35754758 -0.5194021 -0.031494804 -0.2237205 0.34317306 -0.1250594 -0.10534869 0.3482159
0.1639377 0.2709146 -0.5465737 0.6309988 0.13373077 0.0651908 -0.47405595 -0.29985115
0.74505514 0.6735508 -0.47210437 0.1904592 0.43084556 0.49515387 -0.4154585 -0.21265179
-0.8729887 0.7102215 0.23975033 -0.019576646 0.971732 0.4333218 -0.63698 0.08665857
-0.21811014 0.34817585 0.16217344 -0.29633802 -0.2601917 0.298109 0.24772896 0.23587397
0.46056893 0.059084162 -0.7338395 0.48450965 0.35086098 0.059197992 0.59415483 -0.6833607
0.3667915 0.32648447 0.34363282 0.335055 0.50318885 0.40506566 0.01674405 0.36798865
0.32485932 0.22790387 0.54235756 -0.12210196 -0.06139279 0.46596593 0.24094523 0.60510355
-0.06918896 0.55370486 0.5631348 0.047889743 -0.10670169 0.2935254 -0.30394456 -0.45837143
-0.76110154 0.22061709 -0.34826568 0.6208662 -0.7497344 -0.09810347 0.21066977 0.28668267

fc2.weight f4 [128, 128]
00000000: 6f60 c8bc cc37 52bc 17b9 59bd 65f9 eabc
00000010: fa93 95bd 60cf 3bbd 17e6 31bd 1484 4fbd
00000020: 1516 913d 1ec9 1ebc 24c8 4fbd 4df2 1c3d
00000030: 4194 453d 9ecc 573d 7886 42bd 98e1 953b
00000040: 09b8 18bd 0161 043c 3e39 a13d 3b7f 103b
00000050: ac64 30bd 6e12 d73a 1c5c ebbd bb7b adbc
00000060: 1246 8bbd 3ffb 7dbc 1424 d3bc 6c8a 69bd
00000070: acd4 07be d0e7 fcbd 5d75 843b 7718 353c
00000080: b733 443d 43d7 f4bc bd23 e9bd edb6 833d
00000090: 51a7 0b3d 94e4 8d3d 5db1 723d e5ea cf3c
000000a0: c165 17be 3898 c7bc fbfb 8a3d 8a9d 0abe
000000b0: c9b9 a3bd 8cd8 72bd 549a 653d 9478 5339
000000c0: 717b f93c 8386 713b 34e9 04bd 9208 783d
000000d0: 4405 b3bd 617b e93b b7b6 bf3c 7148 873c
000000e0: 2dd8 abbd 54cd f8bd e36e e8bc 6932 a9bc
000000f0: bf89 743d e361 56bc fa6d 563d 982b 2b3d
00000100: 8bf4 2ebd c4ab 113c 8209 acbd 738d a2bd
00000110: 8f64 173d 7366 8d3d 670e 2ebb 05a3 32bd
00000120: 8ade c0bd 3b2e 48bd fff6 6dbd 28e8 423b
00000130: 2b60 2bbd 12e9 303c eeec a5bd 6e08 c3bd
00000140: 2733 2cbd 731a 51bd 0539 0eba d034 d6bd
00000150: 113b a4bb 43ee f2bc 3629 413a 207a 9cbd
00000160: 51bf 91bd 0c32 c73c e0e8 7abc 3441 643d
00000170: e0e7 273d fc2a abbd acd5 01be cf48 c0bd
00000180: 1cb9 9dbd 79a3 67bd 4314 da3c 44c4 af3c
00000190: 58c1 b63c 6389 25bd 3e48 5b3d 8fa1 79bd
000001a0: 286d 5dbd f80d e53a 29c3 123d 275a 273d
000001b0: 852e 433d 4f65 56bd fc7e 87bc 2405 2d3d
000001c0: 9ff0 f63c d25a 9c3c 7ade 8bbc 1e06 5d3d
000001d0: 2554 cabd 22ef dfbd 6215 5f3d fc2d 25bd
000001e0: 79ce bebc 9358 0cbe fe06 a7ba e82e adbd
000001f0: dd37 1abd 283c 553d 706e a1bd 0a94 8a3c
00000200: 9efd 2d3f c17b d53e aa8e dabe 127a c63e
00000210: 96a5 a53e e270 11bf 5229 b1bd cccd d43e
00000220: 42c1 3b3e 5de4 da3d 5d59 1c3e d2d7 09bf
00000230: 249c 3cbe 08fa dd3e 7378 883e 2a8f 1e3f
00000240: ae54 473f b7ba 693e 53e3 dc3e 7793 c93d
00000250: cd8a bd3e 431f c93e 37d6 84be 7347 02bf
00000260: 55b1 d6bd 8083 093e 0258 763f 2b7e 073f
00000270: e9df 973e 3dcd 07bf d8b8 bfbe 9568 b33e
00000280: d52c 313c 7f94 85bd ab6a 29bf 49c3 0ebf
00000290: 6d65 f73e 93ec 373e 139f 8cbe 5a8e 263d
000002a0: 37ce c1bf 6a12 91bf 18ab 203d e414 ae3d
000002b0: a80c 8e3d 4b75 ae3e 5560 783e 52f0 aa3e
000002c0: 883f 1c3f 7fcc 943d 2603 923b e1e5 ad3f
000002d0: c1d1 e7bd 1af3 01bf 0b56 f6be af0a 22be
000002e0: eeca 85bd 5949 2c3f cfe8 d83e 3274 793e
000002f0: 068f b03e 8a82 2e3e 504e 5d3e 8b25 83bf
00000300: 52ad fabe e509 783d fa14 943e cf73 933e
00000310: b443 163f a9fa 9cbc 9e9d 123e 7806 ea3e
00000320: 6bcf 743c 897f aebc 6930 68be b906 8fbe
00000330: 6a84 02bf 952f 3d3e b22b 2b3c c35a c6be
00000340: 8ea0 c73e a5fd 82bd b3b3 87bd a4d9 bcbd
00000350: 3f64 9e3d 9101 bf3d e429 323f 5f90 37be
00000360: e2be a53e c551 553e ee67 bcbf 4a18 a53c
00000370: ed40 5d3e d5f2 513f 0b8f e7bd bad2 5f3f
00000380: 7e45 d13a 6716 00bf 43f2 cc3c 9888 30be
00000390: fc9a efbe 7ac7 43bf 5f50 ef3e c473 df3d
000003a0: 5f9e 303e 14d5 27be 4e89 38bf 0dbb ab3e
000003b0: 75ea cd3f 7de7 1f3e 0f38 083f 4a9d 873e
000003c0: ef71 c83e c089 08bf 0109 613e 4667 983c
000003d0: 3e2d 7c3e 36e1 81bc a4cc d83e 5917 ad3f
000003e0: 6aa8 b23f 9a7c 063e 6511 383e ac7e 443e
000003f0: e439 27bf 5015 143f 6726 873e ee9a f7be
-0.024460046 -0.012830686 -0.05315503 -0.028683374 -0.07303615 -0.045852065 -0.04343232 -0.05066307
0.0708429 -0.009691505 -0.05072798 0.038317014 0.04823709 0.052685373 -0.04749152 0.004574012
-0.037284885 0.008079768 0.07872246 0.0022048492 -0.04306476 0.0016408691 -0.11492178 -0.021177163
-0.06800474 -0.015501796 -0.02577404 -0.057016775 -0.13264722 -0.12348902 0.004042311 0.011053196
0.04790088 -0.029887801 -0.1138377 0.06431375 0.034095112 0.069283634 0.059251178 0.025380561
-0.1478491 -0.024364576 0.06786343 -0.13536659 -0.0799442 -0.059288546 0.056055382 0.00020167447
0.03045437 0.0036853857 -0.032448962 0.06055505 -0.08741239 0.0071253036 0.023402555 0.016514035
-0.08390842 -0.12148538 -0.028373187 -0.02065392 0.059701677 -0.013084861 0.052350976 0.04178962
-0.042713683 0.00889105 -0.08400251 -0.079371355 0.036961135 0.06904306 -0.0026558877 -0.0436125
-0.09417446 -0.048872214 -0.058096882 0.0029740427 -0.04183976 0.010797756 -0.081018314 -0.09523092
-0.04204097 -0.051050615 -0.00054253667 -0.10459292 -0.005011924 -0.029654628 0.00073685066 -0.07640481
-0.07116569 0.024315856 -0.015314311 0.055726245 0.040992618 -0.08357808 -0.12679166 -0.09388887
-0.077013224 -0.056552384 0.02662099 0.021455891 0.02230899 -0.040414225 0.053535692 -0.06094509
-0.054059178 0.0017475476 0.03583065 0.04085746 0.047651786 -0.05234271 -0.016540043 0.04224123
0.030144034 0.019086275 -0.017073859 0.053960912 -0.098793305 -0.10934283 0.05446375 -0.040327057
-0.023291813 -0.13705663 -0.0012743173 -0.08456212 -0.03765093 0.052059323 -0.078823924 0.016916294
0.67965114 0.4169598 -0.4268697 0.38765007 0.32352895 -0.5681287 -0.08650459 0.4156326
0.18335441 0.10688088 0.15268464 -0.5384494 -0.18418938 0.4335482 0.26654395 0.619372
0.77863586 0.22825132 0.43142185 0.0984258 0.3701996 0.39281663 -0.25944683 -0.5089027
-0.10483042 0.1342907 0.9622804 0.5292689 0.29663017 -0.53047544 -0.37445712 0.35040727
0.010813911 -0.06522464 -0.6617839 -0.5576673 0.4831957 0.1796134 -0.27465114 0.0406631
-1.5141057 -1.1333745 0.039225668 0.08500078 0.06936008 0.34073862 0.24255498 0.33386475
0.6103444 0.07265567 0.0044559417 1.3585778 -0.11319304 -0.5076157 -0.4811252 -0.15824388
-0.065328464 0.6729942 0.4236512 0.24360731 0.34484118 0.17041984 0.21611905 -1.0245832
-0.48960358 0.06055631 0.28922254 0.28799292 0.58697057 -0.019162493 0.14317939 0.4570806
0.01494203 -0.021301048 -0.22674717 -0.27934816 -0.509833 0.18475182 0.0104474295 -0.3874112
0.3898968 -0.06396035 -0.06626072 -0.09221199 0.07733964 0.09326471 0.6959517 -0.17926167
0.32372195 0.20831974 -1.4719217 0.020153183 0.21606798 0.8201116 -0.1130658 0.8743092
0.0015966145 -0.50034183 0.025017863 -0.17239606 -0.4679793 -0.7647625 0.46741006 0.109107524
0.17247914 -0.16389877 -0.7208451 0.33541146 1.6087176 0.1561565 0.5321054 0.2648719
0.39149424 -0.5333519 0.21976091 0.018603932 0.24626634 -0.01585446 0.42343628 1.352275
1.3957646 0.13133469 0.17975385 0.19188946 -0.6532271 0.5784502 0.26396486 -0.4836039

fc2.bias f4 [128]
00000000: f1c7 c5bd 4757 83bd 3e26 4e3d c3e7 32be
00000010: 8082 c9bd 6fcc cfbc cc53 443d 93b8 8b3e
00000020: 00bc 193f 7dd2 63be 603d 63bd 26b2 c03b
00000030: acf3 f13e 42b7 af3d fbb7 f7bb 96f1 c8bd
00000040: 5852 fcbd dafd 1a3f f838 e03e b3f0 81be
00000050: 34cd 99bd 6a32 51bd 9216 9c3c 7d36 423b
00000060: 5cdb 03be d0a4 243d 54d8 10bf b903 40bc
00000070: b022 aa3e f08a 9abd 024a 3ebd 3b12 f5bd
00000080: 7912 1dbd 6cec 87bd be25 3a3e 84d5 ecbd
00000090: 3495 973e 9891 c83c cfd6 a4bd d3c5 1e3d
000000a0: e5b2 e93b 878d 80bc c034 94bc 8ee9 cebc
000000b0: 1ae4 1dbd 107e 233c b6e3 563f d227 9bb9
000000c0: 3c01 b7bd 1805 a4bd 8d78 a5bd 3e5d cd3c
000000d0: aa06 253d 84be 00bd 1b49 2ebd 95fd a1bd
000000e0: 46c6 22be 7a42 27bd 60e8 3a3e 613d dcbd
000000f0: 4768 8ebd 4a7f a3bd 91cf c63e c782 15bd
00000100: 90c3 ddbd 6b59 283e 841f 28be 9056 573d
00000110: 20d4 dfbd da9a 86bd ee4f f5bd 13c7 89be
00000120: 5fe1 aabd 03bc dbbd 68a0 17bd 5f23 76bd
00000130: 1f7d 283c 3577 0fbf adc9 be3d a783 b0bd
00000140: 8be9 bb3d 6724 513e 0338 5f3c 658f f4bd
00000150: ab38 113e 2c17 23be 7ab6 8ebd 6ddb aebd
00000160: efda 09bc fe9c 55bc e515 2ebf 1221 6ebe
00000170: ca75 b13e 087d ff3d f6cd c3bd 6763 1cbe
00000180: 602d d23d 0f1a c63e 1bf2 12bf 107b b7bd
00000190: 3474 1dbe 81b2 58bd e8a1 5a3f eebb 0d3f
000001a0: 9057 f1bc d4a2 eabd 8fec 7cbd 0530 18be
000001b0: e8ed d5bd 8930 92bd 869e c13b 9c22 1fbe
000001c0: 5319 cdbd c903 c8bd 956d 4ebc 78f7 c8bd
000001d0: 4c99 083e 4b0f c3bd 117c 01be 2fb5 5fbd
000001e0: 9371 3cbf 4c5b cdbd ea67 dd3e eb37 fabd
000001f0: 1864 a93e 7ce3 ba3e a1c4 95bd dc59 b1be
-0.096572764 -0.06413131 0.05032944 -0.17471223 -0.09839344 -0.025366036 0.047931477 0.27289256
0.6005249 -0.22248264 -0.055478454 0.005880612 0.4725622 0.085798755 -0.007559774 -0.09811704
-0.12320393 0.60543597 0.43793464 -0.2537895 -0.075098425 -0.05107347 0.019053731 0.0029634528
-0.12876648 0.04019624 -0.5658009 -0.011719638 0.3322959 -0.075460315 -0.046457298 -0.11966368
-0.038347695 -0.06636891 0.1817846 -0.115641624 0.2960602 0.024483487 -0.08048784 0.03876288
0.0071319216 -0.015692485 -0.01809156 -0.025257852 -0.038547613 0.009978786 0.8394121 -0.00029593572
-0.08935782 -0.08008784 -0.08079634 0.025068875 0.04028956 -0.03143169 -0.042550188 -0.07909695
-0.15895948 -0.04083488 0.18252707 -0.107538946 -0.06953483 -0.07983263 0.38830236 -0.036501672
-0.10828316 0.1644036 -0.16418272 0.052572787 -0.109291315 -0.06572504 -0.11978136 -0.26909694
-0.083437674 -0.1072922 -0.03701821 -0.060092326 0.010283737 -0.5604127 0.0931581 -0.08618861
0.09175404 0.20424043 0.013624194 -0.11941413 0.14181773 -0.15926808 -0.069683984 -0.08537946
-0.008414014 -0.013037918 -0.6800216 -0.23254803 0.34660178 0.1247502 -0.09560768 -0.15272294
0.10262561 0.38691756 -0.57400674 -0.08959019 -0.15376359 -0.05290461 0.854033 0.5536488
-0.029460698 -0.11456838 -0.061749037 -0.14862068 -0.10445768 -0.071381636 0.00590879 -0.15540546
-0.10014596 -0.09766347 -0.012599369 -0.09812826 0.13339728 -0.09524401 -0.12644984 -0.05461615
-0.736108 -0.10027179 0.43243343 -0.12217697 0.33084178 0.36501682 -0.073128946 -0.3463887

out.weight f4 [4, 128]
00000000: 789c ee3d 2164 ccbe b058 b639 78da e7be
00000010: 9f8a 47bf 90e1 323d 5885 1b3d a826 0fbe
00000020: 84a0 243f b9e4 f8be c3e6 9c3d 8657 163d
00000030: da58 4c3d 0849 41bf 67d7 afbe 3567 9bbd
00000040: c5ae fa3d 9def e93f 1f72 2e3e b22c e9be
00000050: ed0a 01bd 9995 793d 1e32 2ebf 9444 aa3c
00000060: 836a 09bf ee8f a8be 863f 74bf f4d9 433d
00000070: 2656 4c3f 8bad 06bf c894 0f3d 8ed4 7b3d
00000080: cd31 0e3d b838 edbe fb22 79bd f2a4 573c
00000090: 5808 07bc bd5d aabd 1f45 f4be 73ba afbd
000000a0: df5b 7ebe 5d84 37bd 19d7 733d e696 09bf
000000b0: 6d84 f8be ff97 123d aa7b f83f cd42 12bf
000000c0: d118 80be 67ab 01bf 0eaa 2039 a559 6b3d
000000d0: d448 f2be 3b4d a9be 2f84 a0bd 61a1 b43c
000000e0: d0ab 1dbf 8037 2abd b80a 03be 7bb9 503d
000000f0: 5d05 fabe 1a30 f8be 4f03 c2bf f7a1 d5be
00000100: 28b0 9cbe 61a7 273e 9547 39bf ca7f 143d
00000110: 40cd 0fbf bdd2 513d d548 ae3c a199 f73e
00000120: 3f8c 253d 1459 493c 5305 ccbe e8c0 a23c
00000130: 83e8 c5be 0d7a 8cbf 5d28 0dbf 1ede 04bf
00000140: dd46 ff3f 61c7 d83f 89ad 51bd 27b6 e8be
00000150: dc2b aabf e12d bebe ea30 38bd c6ff d7be
00000160: aace e5be a54f 8abf 80b4 4fbf 54bd 17bf
00000170: 4307 1d40 88b4 613f 6db6 003d b662 1abd
00000180: dd86 e1be f5dd 543f 610e 51bf 68a6 e2be
00000190: 8846 27bf f8cc cebe e603 2640 ea69 0740
000001a0: 4d35 3fbd c0e2 783d f053 e4bc a1fd abbe
000001b0: 2341 d3be 8dbf f9be 9e66 b53c ac9e 3ebf
000001c0: 04b5 c0bf 10f6 04bf 3c77 a4bc c708 e6be
000001d0: 9916 b93f 265b a9bc de6f c03f 33f6 083d
000001e0: bfc0 a93d c87d cdbc c3c8 44bf 7bca 933d
000001f0: 47a6 f53f d1a2 1940 6356 33bc 43da 96bf
00000200: 4dae 933c 798a f6be e1df f63c be3f f6be
00000210: b254 22bf 7497 663c 7a87 43bc e5ab 69bf
00000220: 4e5a 603f 66b7 febe 0112 3a3d 9abb 87bc
00000230: fd42 5fbf b133 c4be dfb1 d2be f8e1 e43c
00000240: 51e5 2eba a51d 0d40 309a 2a3e c7af 07bf
00000250: b1f9 dd3b e882 62bd 0974 c6be da42 f73c
00000260: c200 f6be b036 b03e cdbe ad3d a122 fc3a
00000270: 9818 e9bd 6399 d7be 813d ab3d 2a07 b9bd
00000280: 7d3e 9dbd 73b4 e2be 5d85 dfbd d168 3abd
00000290: 8ca6 543e 36fd 893c b4f6 b9be 8c6b e13c
000002a0: ca25 38bf f7f4 1d3d db0d ac3c 6695 9dbe
000002b0: 9b12 e3be 23e3 12bd e278 0d40 0031 d3be
000002c0: 56db 22bf 9b58 d6be 7709 0e3d abc8 de3b
000002d0: 4188 05bf 129e c7be 94ca 923c 8b19 8fbd
000002e0: 0e2b f8be 6ec8 4abd abea 29bf b069 e4bb
000002f0: 0416 8cbe 70f5 a7be 5e7e c3bf d5c1 bbbe
00000300: 7dee 0cbf eb14 2e3f 9b07 83be 34fd 57bc
00000310: ad0c 08bf b348 20bc 5650 fabc 8a4d 9e3f
00000320: a83f bcbc a1fc b33d 3c16 f0be 892e 8a3d
00000330: 8aa9 a0be 6f50 66be a349 62bf f8d4 03bf
00000340: 0784 0540 1d3b b63f d832 b8bd 24e3 03bf
00000350: 7a3c babe 8d99 19bf 254e ee3d bd45 d9be
00000360: 021b 1abf 49ca f1be 5254 90be a819 01bf
00000370: 2804 1c40 c447 723e ab4c 48bd a9b2 05bd
00000380: 6af3 bcbe e96e 383f 03cd d43d fc3d 17bf
00000390: 04b8 f2be aad6 00bf 541c 0940 73df 0640
000003a0: 828f a23d 19a6 913d 1cb8 f93b 92fd 09bf
000003b0: f3c0 f2be 41af 06bf 1226 3ebc e0e8 c8be
000003c0: 2898 41c0 573b 92be 82ae cd3c 93ce f6be
000003d0: 6a39 d93f 5506 603d a426 993f 7af2 efbc
000003e0: 4faf c8bf fb08 75bc 0b36 76bf afc6 6c3c
000003f0: 9906 0940 7123 0d40 12c8 933d b254 89bf
0.11650938 -0.39920142 0.00034779822 -0.45283866 -0.77945894 0.043672144 0.037968963 -0.1397959
0.6430743 -0.48612002 0.07661202 0.036704563 0.049889423 -0.7550206 -0.34344026 -0.075880446
0.12240366 1.8276249 0.17035721 -0.45541912 -0.03150456 0.060933683 -0.6804522 0.020784654
-0.5367815 -0.3292231 -0.9540943 0.04781528 0.7981895 -0.52608556 0.035054 0.061482005
0.034715462 -0.46332335 -0.060824376 0.013161885 -0.008241735 -0.083186604 -0.47708985 -0.08580484
-0.24839734 -0.044803966 0.059531305 -0.5374588 -0.48538533 0.035789486 1.9412739 -0.5713318
-0.25018933 -0.50652164 0.0001532214 0.05745854 -0.47321188 -0.33066735 -0.07837712 0.022049608
-0.6159029 -0.041556835 -0.12797058 0.050958138 -0.48832217 -0.484742 -1.515726 -0.41725132
-0.30603147 0.16372444 -0.7237485 0.03625468 -0.5617256 0.051226366 0.021274963 0.48359397
0.040416952 0.012289304 -0.39847812 0.019867375 -0.38653955 -1.0974747 -0.55139714 -0.51901424
1.9943501 1.6935846 -0.051190887 -0.4545147 -1.3294635 -0.37144378 -0.044968523 -0.42187327
-0.44884235 -1.0805556 -0.81134796 -0.59273267 2.4535682 0.88166094 0.031423975 -0.037691794
-0.44048205 0.8315118 -0.81662565 -0.44267583 -0.65342 -0.40390754 2.593988 2.1158395
-0.04668169 0.06076312 -0.027872056 -0.3359194 -0.41260633 -0.48778954 0.022143658 -0.74460864
-1.5055242 -0.5193796 -0.020076387 -0.44928572 1.4460021 -0.020673346 1.5034139 0.03343792
0.082887165 -0.025084391 -0.7686884 0.072163545 1.9191369 2.4005625 -0.010945889 -1.1785358
0.018027449 -0.4815252 0.03013605 -0.48095506 -0.63410485 0.014074195 -0.011934156 -0.91277915
0.87637794 -0.49749297 0.045427326 -0.016568948 -0.8721159 -0.38320687 -0.4115133 0.027939782
-0.0006671744 2.2049344 0.1666038 -0.5300259 0.0067741503 -0.055300623 -0.38760403 0.030183244
-0.48047453 0.34416723 0.08483658 0.0019236394 -0.11381644 -0.42109212 0.0836134 -0.090345696
-0.07677934 -0.44278297 -0.10914109 -0.045510117 0.20766658 0.016844373 -0.36321032 0.027517103
-0.7193266 0.038563695 0.0210027 -0.30778044 -0.44350132 -0.035861146 2.210503 -0.41248322
-0.6361593 -0.41864476 0.034676995 0.006798824 -0.5216103 -0.38987786 0.017918862 -0.06987294
-0.48470348 -0.04950755 -0.663737 -0.0069706067 -0.27360547 -0.3280444 -1.5272939 -0.3667132
-0.55051404 0.6800067 -0.2559174 -0.013182927 -0.5314434 -0.009782958 -0.030555885 1.2367413
-0.022979572 0.087884195 -0.46891963 0.06747157 -0.31379348 -0.2249162 -0.8839361 -0.5149684
2.0861833 1.423679 -0.08994073 -0.51518464 -0.36374265 -0.59999925 0.11635999 -0.4243602
-0.6019746 -0.47224644 -0.2818933 -0.50429773 2.4377537 0.23660189 -0.04890124 -0.032641087
-0.3690446 0.72044235 0.103906654 -0.59078956 -0.47406018 -0.5032755 2.142354 2.1073883
0.07937528 0.07111759 0.0076208245 -0.5390254 -0.47412834 -0.52611166 -0.011605756 -0.3924017
-3.0249119 -0.28560898 0.025107626 -0.4820448 1.6970646 0.05469354 1.1964917 -0.029290427
-1.56785 -0.014955754 -0.96176213 0.014451667 2.1410277 2.2052882 0.07215895 -1.0728972

out.bias f4 [4]
00000000: fafb ae3e 19e1 fc3d ec4e b43e dd7a 843e
0.34176618 0.123476215 0.35216463 0.25874987
