DQN/models/dqn_ep500_20250415_142705.pth (torch, 75580 bytes, 6 tensors)

fc1.weight f4 [128, 8]
0	0xbe972f68	-0.29528356
1	0xbceaf153	-0.028679525
2	0xbf36e3bf	-0.7144126
3	0x3edddbcb	0.4333175
4	0x3f362466	0.7114929
5	0xbf45b4ea	-0.7722918
6	0x3ef5ee50	0.4803338
7	0xbd058575	-0.032597978
8	0x3e10a872	0.14126757
9	0x3f05b4eb	0.52229184
10	0xbee176b6	-0.44035882
11	0xbf043efc	-0.51658607
12	0xbdcc1d60	-0.0996654
13	0x3df20475	0.11817256
14	0xbfdd25ba	-1.7277138
15	0xbf30b78b	-0.69030064
16	0x3f9d86ca	1.2306759
17	0xbebf632b	-0.37380347
18	0x3f111033	0.56665343
19	0xbf958c4b	-1.1683439
20	0x3e8220d4	0.2541567
21	0xbd80a566	-0.06281547
22	0x3d032d3f	0.032025572
23	0xbdb23a29	-0.087024994
24	0xbd8a0b94	-0.067404896
25	0xbc8c35da	-0.017115522
26	0xbd0f2bf8	-0.03495404
27	0x3ed64ffa	0.41857892
28	0xbf7c23cd	-0.9849213
29	0xbdcba6f8	-0.09943956
30	0x3dd59c89	0.10430247
31	0xbeb3a141	-0.35083964
32	0x3ebe6d4b	0.3719276
33	0xbea5c7ea	-0.32379085
34	0x3cc99e8c	0.024611734
35	0x3d76304a	0.060104646
36	0xbec84328	-0.39113736
37	0xbd2ed913	-0.042687487
38	0x3ccd3a2c	0.025052153
39	0xbdafc18e	-0.085818395
40	0xbf9ad645	-1.209664
41	0xc06d9d6c	-3.7127333
42	0xbdab30b9	-0.083589025
43	0x3e987590	0.29777193
44	0x3e9ccbeb	0.30624327
45	0x3ebcba39	0.36860827
46	0xbf108ca2	-0.5646459
47	0xbce746f1	-0.02823207
48	0xbd59c9a7	-0.053170826
49	0xbe45d516	-0.19319567
50	0x3c8668a6	0.016407322
51	0x3e847194	0.25867903
52	0x3e2017d1	0.15634085
53	0xbdd21b90	-0.102591634
54	0xbd2d733e	-0.04234623
55	0x3da4be7d	0.08044145
56	0x3fabaac6	1.3411491
57	0x3f01b465	0.50665885
58	0xbcbabc85	-0.022794971
59	0x3f1ec5fe	0.6202086
60	0x3eecbd12	0.46238
61	0x3efadc5e	0.48996252
62	0xbf52118b	-0.8205802
63	0xbfa99c86	-1.3250892
64	0x3ffa95e9	1.9576999
65	0x3e734452	0.23756531
66	0x3f57f64b	0.8436019
67	0xbf450c61	-0.76972014
68	0x3f123991	0.5711909
69	0x3eaf642c	0.34256113
70	0x3e834266	0.25636595
71	0xbd5e60c2	-0.054291494
72	0xbed3d06e	-0.41369957
73	0xc0508f2f	-3.2587392
74	0xbe95dc8a	-0.2926982
75	0xbf92ebac	-1.1478171
76	0x3f8f6d7b	1.1205286
77	0xbf344847	-0.70422786
78	0x3e0b6d60	0.13615942
79	0xbea3f494	-0.32022536
80	0xbe0ddfab	-0.13854854
81	0x3f06e79c	0.5269716
82	0xbe1ac426	-0.15113887
83	0x3f213336	0.62968767
84	0x3e6f58f5	0.23373778
85	0x3f3fa4c9	0.7486082
86	0x3f13bc21	0.57708937
87	0xbeabbedc	-0.33544052
88	0xbf559dfb	-0.83444184
89	0xbdea9add	-0.11455319
90	0x3f22fd17	0.63667434
91	0xbfd81a21	-1.6882974
92	0x3f2a8248	0.66605043
93	0x3dce2e08	0.100673735
94	0xbec6da1d	-0.38838282
95	0xbed6f7fb	-0.4198607
96	0x3e5ad436	0.21370015
97	0xbf5acfa6	-0.85473096
98	0x3f9533bd	1.1656414
99	0x3ff7554d	1.9322907
100	0x3f3a3d54	0.7274983
101	0x3eea93ff	0.45816037
102	0x3d9d6662	0.076855436
103	0x3ef2ae4d	0.47398606
104	0x3fba722e	1.4566095
105	0xbef250d2	-0.47327286
106	0xbde13d42	-0.10998012
107	0x3ea6ca13	0.32576045
108	0xbf3c7988	-0.7362294
109	0x3ec9fd44	0.3945104
110	0x3e116c23	0.14201407
111	0x3ec0ce0f	0.3765721
112	0xbe4b52c9	-0.19855799
113	0xbdef08b1	-0.1167158
114	0x3df2a51a	0.11847897
115	0x3e94af0f	0.2903981
116	0xc0275260	-2.6144028
117	0xbeaac1b5	-0.33350912
118	0xbd02bd32	-0.031918712
119	0x3e9f663c	0.31132686
120	0xbf2a4346	-0.665089
121	0xbe94f1f7	-0.29090855
122	0x3f4cd339	0.800098
123	0xbecb0195	-0.39649644
124	0xbea07edc	-0.31346786
125	0x3e22fafb	0.15916054
126	0x3d46d6b7	0.04854461
127	0x3ed3a08a	0.4133342
128	0x3f36eb54	0.7145283
129	0xbe5154f9	-0.20442571
130	0xbead391d	-0.33832636
131	0x3eb550c9	0.35413197
132	0x3ce660e0	0.028122365
133	0x3d6985f3	0.05701251
134	0xbeab95f8	-0.33512855
135	0x3dfab6cc	0.12241897
136	0xbf179a7b	-0.59220093
137	0xbed1dda9	-0.40989426
138	0xbf2c27d6	-0.67248285
139	0xbf0b9e28	-0.545382
140	0x3ca14f40	0.01969111
141	0xbf6355e9	-0.88802963
142	0x3edf48fa	0.43610364
143	0x3e259691	0.16170718
144	0xbe461616	-0.19344363
145	0x3f7e6188	0.9936757
146	0x3e29d085	0.1658345
147	0xbcd94022	-0.026519839
148	0x3ea215c7	0.3165724
149	0xbfa1d458	-1.2642927
150	0x3ecd46fe	0.40093225
151	0xbf15b941	-0.584858
152	0x3f01f5fd	0.50765973
153	0xbd2f947f	-0.042866226
154	0xbf50d300	-0.8157196
155	0xbebae5fc	-0.3650359
156	0x3e4d8e91	0.20073916
157	0x3f24c920	0.6436939
158	0x3f3e32a3	0.74296016
159	0x3de0cb43	0.10976269
160	0xbef61f4f	-0.48070762
161	0xbd3717c2	-0.04470039
162	0xbece5756	-0.40301007
163	0x3e115d19	0.1419567
164	0xbee6e389	-0.4509547
165	0x3f432181	0.76223
166	0xbcfe6070	-0.031051844
167	0x3efcfbbc	0.49410808
168	0xbf8752b3	-1.0572113
169	0x3ed902f7	0.42385074
170	0xbeee4dc2	-0.465437
171	0xbf8f20c4	-1.1181874
172	0xbf28c14f	-0.65919966
173	0x3ddc9dd2	0.10772289
174	0x3e9cd254	0.30629218
175	0xbea333f0	-0.31875563
176	0x3d5da3d0	0.054111302
177	0xbdbe0f16	-0.09280221
178	0x3fc6d728	1.553441
179	0xbf90046a	-1.1251347
180	0x3db91864	0.09037855
181	0xbf0f2354	-0.5591328
182	0xbf6647f0	-0.8995352
183	0x3e547d30	0.2075088
184	0xbd9a576b	-0.07536205
185	0xbdf89fbe	-0.121398434
186	0xbf5deb12	-0.86686814
187	0x4009db7f	2.154022
188	0x3e39e017	0.1815189
189	0xbf81c126	-1.0137069
190	0x3eb8dc60	0.36105633
191	0x3da30cc3	0.079614185
192	0x4024347e	2.5657039
193	0x3f400881	0.75012976
194	0x3f1274a3	0.57209224
195	0xbd87d71c	-0.06632826
196	0xbe33d8b4	-0.17563134
197	0x3d952802	0.072830215
198	0xbc95a84a	-0.018268723
199	0x3db5681a	0.088577464
200	0xbf96fec0	-1.1796494
201	0x3da9cfe2	0.082916036
202	0x3f8a46c6	1.0802848
203	0xbfb98530	-1.4493771
204	0x3f11b9e6	0.56924284
205	0x3f44e6f9	0.76914936
206	0x3eb195a1	0.3468447
207	0xbebf647e	-0.37381357
208	0xbe0f2170	-0.13977599
209	0xbd8a371c	-0.067487925
210	0xbc879c32	-0.016553972
211	0x3eb1b4b4	0.34708178
212	0x3d47071e	0.04859077
213	0xbe08add9	-0.13347568
214	0xbe6944b4	-0.22780114
215	0x3bbf8abd	0.0058453963
216	0xbf8332cd	-1.0249878
217	0xbec8148f	-0.39078185
218	0xbdcfa42e	-0.10138737
219	0x3e011a42	0.12607673
220	0xbe03ea5c	-0.1288237
221	0xbec003eb	-0.3750299
222	0xbe143d42	-0.14476493
223	0x3eb6e94e	0.35724872
224	0xbe0db16f	-0.13837217
225	0x3e1e3691	0.15450503
226	0x3e803bdd	0.25045672
227	0x3ebf8cf1	0.37412217
228	0xbf51bd6f	-0.8192968
229	0xbf053aaf	-0.5204267
230	0x3f07b915	0.5301679
231	0xbf4e6b0f	-0.8063211
232	0xbded4d5b	-0.1158702
233	0xc012f054	-2.2959185
234	0x3e2becc6	0.1678954
235	0x3f18078a	0.59386504
236	0xc0073ff6	-2.1132789
237	0xbe996e01	-0.2996674
238	0x3de0309f	0.10946774
239	0x3dbc9929	0.092089005
240	0x3e702d4c	0.2345478
241	0xbfba78f4	-1.4568162
242	0x3f56aaa7	0.83854145
243	0xc0197dc4	-2.3983011
244	0x3f1f2108	0.62159777
245	0xbded348f	-0.115822904
246	0x3daab50e	0.08335315
247	0x3d987100	0.07443428
248	0xbdebf677	-0.11521619
249	0x3fc50e1a	1.5394928
250	0x3f05c7de	0.522581
251	0x3e136ad6	0.14396223
252	0xbe5844a1	-0.2111993
253	0xbfdc4e79	-1.7211448
254	0xbfa79c3a	-1.3094552
255	0xbf0c93fe	-0.5491332

fc1.bias f4 [128]
0	0x3dc311de	0.09524892
1	0x3f357ef6	0.7089685
2	0x3f2d3bca	0.67669356
3	0x3f33f1a4	0.7029059
4	0x3db0fcb3	0.086419486
5	0x3e40d2d7	0.18830429
6	0xbeaf2b60	-0.3421278
7	0xbf835a5d	-1.0261952
8	0xbe3c8c0e	-0.18412802
9	0x3ef2bdbd	0.47410384
10	0xbe4d048f	-0.2002127
11	0xbe68ee20	-0.22747087
12	0xbf737990	-0.95107365
13	0x3ea8f27a	0.32997495
14	0x3ec4ca5b	0.38435635
15	0x3c1b7a21	0.009489567
16	0x3ea42732	0.32061154
17	0xbb02f594	-0.0019982802
18	0x3ebde093	0.370854
19	0xbd8ad310	-0.06778538
20	0x3f52ecce	0.82392585
21	0x3e26e878	0.16299617
22	0x3c9e3ea4	0.019316979
23	0x3f26f614	0.65219235
24	0x3f2d6be4	0.67742753
25	0x3e568d61	0.2095237
26	0xbea77aeb	-0.32710966
27	0xbe4f0add	-0.20218988
28	0x3f1d6151	0.6147662
29	0x3f00d947	0.5033154
30	0xbf1cea7a	-0.6129528
31	0x3f1a85e4	0.6036055
32	0x3ec0b3b0	0.3763709
33	0x3e7fa0c3	0.2496367
34	0x3f1855ed	0.5950611
35	0x3e3d9997	0.18515621
36	0xbf0095b5	-0.50228435
37	0x3f72c651	0.94833857
38	0xbf7cf284	-0.9880755
39	0x3f3da104	0.74073815
40	0xbdc8d2da	-0.09805842
41	0x3ec25df5	0.3796231
42	0x3ee92238	0.4553392
43	0xbdceecfe	-0.101037964
44	0xbceee267	-0.029160691
45	0x3e3264a7	0.17421208
46	0xbdcc051a	-0.099619105
47	0xbf11767d	-0.56821424
48	0xbea36da8	-0.319196
49	0x3db10a9f	0.08644604
50	0x3dc57b7a	0.09642692
51	0x3ec96444	0.3933431
52	0x3fa0b261	1.2554437
53	0x3e393267	0.18085633
54	0x3ed1e3b0	0.40994024
55	0xbea4725c	-0.321185
56	0xbdec0a2d	-0.115253784
57	0x3f2d0406	0.67584264
58	0xbd49f528	-0.049306065
59	0xbf490c65	-0.7853454
60	0xbdb0e7e6	-0.08637981
61	0xbf2898a6	-0.65857923
62	0xbf426a7a	-0.7594372
63	0x3e511d0d	0.20421238
64	0x3efeb9ac	0.4975103
65	0x3f46e177	0.7768778
66	0xbea055c6	-0.3131544
67	0xbc9a66b7	-0.018847806
68	0x3f149aed	0.580489
69	0xbed4e755	-0.41582742
70	0xbf06144c	-0.5237472
71	0xbe9b8d9d	-0.3038148
72	0xbf38b526	-0.7215141
73	0x3f1ec53c	0.62019706
74	0xbdc2fd05	-0.09520916
75	0x3f19ab8a	0.6002737
76	0xbf3e3a85	-0.74308044
77	0xbe5aa5a1	-0.21352245
78	0x3f54c809	0.8311773
79	0x3f4fabaf	0.81121343
80	0xbe3627e0	-0.17788649
81	0xbea4dbef	-0.32199046
82	0xbd85ea6c	-0.06538853
83	0x3ecd5e6e	0.40111107
84	0x3f51c561	0.819418
85	0xbace09f1	-0.0015719516
86	0xbf8576c2	-1.0426867
87	0x3da6025c	0.08105919
88	0xbe97f7b9	-0.29681185
89	0xbe9dda00	-0.30830383
90	0xbf8a789f	-1.0818061
91	0xbdd3b7a9	-0.10337765
92	0xbd99c021	-0.07507349
93	0xbe5c1a91	-0.2149451
94	0x3f0b4914	0.54408383
95	0xbba1e6b1	-0.0049408306
96	0xbf272d32	-0.6530334
97	0x3f7eda77	0.995521
98	0x3e85187e	0.2599525
99	0x3f0fac19	0.56121975
100	0x3e264fb8	0.16241348
101	0x3f45fd49	0.7733961
102	0x3eaa5ee9	0.33275536
103	0x3f19dc6b	0.60101956
104	0x3e28a4d4	0.16469127
105	0xbe0618f9	-0.13095464
106	0x3e80345b	0.25039944
107	0x3f0eda07	0.55801433
108	0xbf5b3b89	-0.8563772
109	0x3e08385f	0.13302754
110	0xbec11150	-0.3770852
111	0x3f307708	0.6893163
112	0x3e06ce3c	0.1316461
113	0xbf007ca3	-0.5019018
114	0x3ec6158b	0.3868831
115	0xbf03f0d2	-0.5153934
116	0xbea56bbd	-0.3230876
117	0x3f09b327	0.5378899
118	0x3e3c344c	0.18379325
119	0x3dfc3f62	0.12316777
120	0xbc868739	-0.016421901
121	0xbf29cb85	-0.6632617
122	0x3f227e72	0.6347419
123	0x3f3e257a	0.74275935
124	0xbee60a4e	-0.44929737
125	0xbf3637d7	-0.71178955
126	0xbeea05b3	-0.45707473
127	0x3f4bbb03	0.7958223

fc2.weight f4 [128, 128]
0	0xbe07dbfb	-0.1326751
1	0xbf559902	-0.83436596
2	0x3f4abea9	0.79197174
3	0xbf5d1fe3	-0.8637678
4	0xbe239cd6	-0.15977797
5	0x3e808f0d	0.2510914
6	0xbc7904ed	-0.015198928
7	0xbf748fce	-0.9553193
8	0x3f80b613	1.0055565
9	0xbe02e906	-0.12784204
10	0xbdc1f7f8	-0.094711244
11	0x3f2fd673	0.686866
12	0xc012d5e7	-2.2943056
13	0x3f8945ca	1.0724423
14	0xbfc5fe12	-1.5468161
15	0x3e9b6c7a	0.303562
16	0xbd347bc9	-0.044063363
17	0x3b24bbbc	0.0025136312
18	0xbfdf18de	-1.7429464
19	0x3deee90c	0.11665544
20	0x3e1ac358	0.1511358
21	0xbfa4c7fd	-1.2873532
22	0xbfc3f02f	-1.5307673
23	0xbf90d2b2	-1.1314299
24	0xbf05f2aa	-0.523234
25	0xbede594f	-0.43427512
26	0x3d144d17	0.03620633
27	0xbf952d71	-1.1654493
28	0xbf89bab9	-1.0760108
29	0xbf3c938f	-0.73662657
30	0x3f6ff701	0.93736273
31	0xbf21546a	-0.6301943
32	0xbe728c62	-0.23686364
33	0xbe91571e	-0.28386778
34	0x3e18f1f1	0.14936043
35	0x3f1af39d	0.60527974
36	0x3faac394	1.3340936
37	0xbd8852ba	-0.06656404
38	0x3fb2267d	1.3917996
39	0xbceca401	-0.028886797
40	0xbf3ab04f	-0.72925276
41	0x3bad47cb	0.0052880994
42	0xbe308b8c	-0.17240733
43	0x3f115731	0.5677367
44	0xbf4fc495	-0.81159335
45	0x3f1fc2a8	0.62406397
46	0xbf725218	-0.94656515
47	0xbdfa9a44	-0.12236455
48	0xbd5fecfb	-0.05466936
49	0x3e72ff88	0.2373029
50	0x3d802a8f	0.062581174
51	0xbe26030e	-0.16212103
52	0xbe5de420	-0.21669054
53	0x3d0ed49f	0.03487074
54	0x3e88cccd	0.2671875
55	0xbfa9f80a	-1.327882
56	0xbce0b5e4	-0.027430482
57	0xbed5b0e7	-0.41736528
58	0xbf085bd8	-0.5326514
59	0xc0557fe9	-3.335932
60	0x3f03507d	0.5129469
61	0x3fee415e	1.8613698
62	0x3f32f5ae	0.6990613
63	0xbf465d55	-0.77486163
64	0x3eb2617c	0.3484
65	0xbf116be2	-0.5680524
66	0x3da57f8c	0.08080968
67	0xbf85c7b5	-1.0451571
68	0x3f4673f7	0.775207
69	0xbf98aa3b	-1.192695
70	0xbd9d08a3	-0.07667663
71	0x3f728a7e	0.9474257
72	0xbf1dbbfd	-0.6161497
73	0x3e0b89ac	0.13626736
74	0xbe0ca7b8	-0.13735855
75	0x3d8e6aeb	0.06953987
76	0x3d409514	0.047017172
77	0x3ed2de09	0.41185024
78	0xbfb6f16b	-1.4292425
79	0xbf973a58	-1.181468
80	0x3f474498	0.7783904
81	0x3fbf1a42	1.4929888
82	0xc013fb61	-2.312218
83	0xbf93bc85	-1.1541907
84	0xbf0771a5	-0.5290778
85	0xbfb68267	-1.4258546
86	0xbe8d5813	-0.27606258
87	0xbf74ccfb	-0.95625275
88	0xbf78e2aa	-0.9722086
89	0x3f3b3759	0.7313133
90	0xbf685f09	-0.9077001
91	0x3fa7329a	1.3062317
92	0xbf00aa23	-0.5025961
93	0xbf14bb5f	-0.58098406
94	0xbe1deeae	-0.1542308
95	0xbf2bc298	-0.670938
96	0xbf82a015	-1.0205103
97	0xbebf0ee2	-0.37316042
98	0xbff0b42c	-1.8804984
99	0x3f0c9533	0.5491516
100	0xbf900015	-1.1250025
101	0x3df100c6	0.11767726
102	0x3cefa558	0.029253647
103	0xbea9fe8c	-0.33202016
104	0x3ec8d3f5	0.3922421
105	0x3b09f773	0.0021052032
106	0xbf08a063	-0.5336973
107	0x3e450198	0.19238889
108	0x3f28a98d	0.65883714
109	0x3dfdd0f4	0.1239337
110	0xbee01a80	-0.43770218
111	0xbe9a05e2	-0.30082613
112	0x3ef9ec37	0.4881303
113	0x3e8bdc79	0.27316645
114	0x3dee48cd	0.116349794
115	0x3f18fb43	0.59758395
116	0xbf84ae95	-1.0365778
117	0x3ea9eb88	0.3318751
118	0x3e153ddb	0.14574377
119	0xbedae15b	-0.42750058
120	0xbed8c1f8	-0.42335486
121	0x3e9097e3	0.2824088
122	0xbd383060	-0.04496801
123	0x3e8144bd	0.25247756
124	0x3ee97142	0.4559422
125	0xbe00f486	-0.12593278
126	0x3f82a78c	1.0207381
127	0xbeedf3ea	-0.46475154
128	0xbdd1c923	-0.10243442
129	0xb8a0d1a6	-7.6684446e-05
130	0x3d3760e7	0.044770148
131	0xbd3b1b1d	-0.045680154
132	0xbdfc8708	-0.12330443
133	0xbc96dd40	-0.018416047
134	0x3d6aa33d	0.057284582
135	0x3d887491	0.06662858
136	0x3d2e160c	0.042501494
137	0x3d95d1d6	0.07315414
138	0xbd690b26	-0.056895398
139	0x3c0106d9	0.007875168
140	0x3d862e88	0.06551844
141	0x3cf3f2be	0.029778834
142	0xbd42e4c3	-0.047581445
143	0xbd352b6a	-0.044230856
144	0xbd85e1a2	-0.06537177
145	0xbd429e59	-0.047514293
146	0xbd22b32b	-0.03972165
147	0xbd33afc6	-0.043868802
148	0x3c64b462	0.013959022
149	0x3d555685	0.052084465
150	0xbd7c92b2	-0.061663337
151	0xbd5701cc	-0.052491948
152	0xbd0bd400	-0.034137726
153	0xbd0606c0	-0.03272128
154	0xbd6e5104	-0.05818273
155	0xbd405ad9	-0.04696164
156	0xbda54a73	-0.08070841
157	0xbd8075cd	-0.06272469
158	0x3c4b6cbe	0.012416063
159	0x3ccc270f	0.024920968
160	0x3d1176db	0.03551374
161	0xbcc6b72c	-0.024257265
162	0x3d15a51f	0.036534425
163	0xbd978f03	-0.07400324
164	0x3d45e15d	0.048310626
165	0xbd5626db	-0.05228315
166	0x3d8346e9	0.064100094
167	0xbdb5f1a7	-0.08883982
168	0x3d22fe3e	0.039793245
169	0xbdac1eab	-0.08404287
170	0x3caa4f53	0.020789778
171	0xbd4cf39c	-0.05003701
172	0xbc757cde	-0.014983384
173	0xbc940f00	-0.018073559
174	0xbc074773	-0.008256781
175	0xbdfe5d87	-0.12420183
176	0xbd0c10cc	-0.034195706
177	0xbccac8aa	-0.024753887
178	0xbd1980f9	-0.037476514
179	0xbdccfff5	-0.100097574
180	0xbda3f6a3	-0.080060266
181	0xbdadb025	-0.084808625
182	0xbd9ec611	-0.07752622
183	0x3d2d4df9	0.04231069
184	0x3cd58e4b	0.026068827
185	0x3c977c34	0.018491842
186	0xbd6339ac	-0.055474922
187	0xbd0fb33f	-0.03508305
188	0xbb143981	-0.0022617283
189	0xbdaec0df	-0.08532881
190	0xbce538f5	-0.02798126
191	0x3c67e92c	0.014154714
192	0xbd9028a0	-0.070389986
193	0xbdb9c842	-0.09071399
194	0x3c212293	0.009834903
195	0xbc84cb3f	-0.016210197
196	0xbd6e7fb8	-0.05822727
197	0xbc1317a1	-0.008977802
198	0xbd47b1f9	-0.048753712
199	0xbdf15237	-0.11783259
200	0x3d230c79	0.039806817
201	0x3d4a0d43	0.049329054
202	0xbd255e9d	-0.040373433
203	0xbd6cb4d0	-0.057789624
204	0xbdbb8c71	-0.091576464
205	0xbde23046	-0.11044364
206	0xbd1acd9e	-0.037793748
207	0xbc6b0ca4	-0.0143462755
208	0xbcb0de2d	-0.021590317
209	0xbd2c3350	-0.042041123
210	0x3c690aee	0.014223797
211	0xbd480259	-0.048830364
212	0xbd68263b	-0.056677084
213	0x3b85e95a	0.0040866556
214	0xbc7fb86c	-0.015607934
215	0xbda74963	-0.08168294
216	0xbce45fb0	-0.027877659
217	0x3ab09c0e	0.0013474242
218	0x3b993216	0.00467516
219	0xbddede78	-0.10882276
220	0x3c0f6292	0.008751528
221	0xbd77eee9	-0.060530577
222	0xbe020e1f	-0.127007
223	0xbd8a0d4c	-0.067408174
224	0xbd2b87ce	-0.04187756
225	0x3d548d8e	0.05189281
226	0xbd65178c	-0.05593066
227	0x3d1b7706	0.037955306
228	0xbccd2d70	-0.02504608
229	0x3d2097cf	0.039207276
230	0x3c877b31	0.016538234
231	0xbd0b32d7	-0.03398403
232	0xbdcfcbdb	-0.10146304
233	0xbd990897	-0.074723415
234	0x3cf7254f	0.030169157
235	0xbd322405	-0.043491382
236	0xbc4779ed	-0.012175065
237	0xbd9dc8b5	-0.077042975
238	0xbdc66561	-0.09687305
239	0x3c5b9f36	0.013404658
240	0xbd4940fb	-0.049134236
241	0x3bbd53a9	0.0057777953
242	0xbd5d29fa	-0.05399511
243	0xbaa47ed6	-0.0012550007
244	0xbbc57f54	-0.0060271416
245	0x3cd51954	0.026013054
246	0xbd2de806	-0.042457603
247	0xbc3938d1	-0.01130505
248	0xbd5c1130	-0.05372733
249	0xbda74bd4	-0.0816876
250	0xbcdc1d67	-0.026869489
251	0xbd233339	-0.03984377
252	0xbd2d2ad6	-0.04227718
253	0xbd18a555	-0.037267048
254	0xbbb57e21	-0.0055387174
255	0xbd9672ca	-0.07346113

fc2.bias f4 [128]
0	0xbc64ac60	-0.013957113
1	0xbd141921	-0.036156777
2	0xbc1809c6	-0.009279674
3	0xbe36df0d	-0.17858525
4	0x3d2663a7	0.04062238
5	0x3e1bdf0e	0.15221807
6	0xbc8c733e	-0.017144796
7	0xbde5e36c	-0.11225018
8	0x3ecedfb8	0.4040506
9	0x3f079683	0.5296404
10	0x3c7648db	0.015032019
11	0x3e342661	0.17592765
12	0xbddc34c4	-0.10752252
13	0xbd67cac3	-0.056589853
14	0xbe638bd1	-0.22221304
15	0xbed62679	-0.41826227
16	0x3efe950e	0.49723095
17	0x3e8c00fd	0.27344504
18	0xbbe35ba1	-0.0069384133
19	0x3ed2fbc4	0.41207707
20	0xbde5c731	-0.11219633
21	0x3f24ff68	0.6445222
22	0x3c66171e	0.0140435975
23	0xbe37accc	-0.1793701
24	0x3e6dbf2c	0.23217458
25	0x3e5c093c	0.21487898
26	0xbdf78e14	-0.12087646
27	0x3d526ba6	0.051372193
28	0x3cc13743	0.023585921
29	0xbe6f08af	-0.23343156
30	0xbd31465f	-0.04328
31	0xbd996b71	-0.07491196
32	0xbd87e3a1	-0.06635214
33	0xbeaf4086	-0.34228915
34	0x3c07044a	0.008240769
35	0x3ea30fd4	0.31848013
36	0x3e216dff	0.15764616
37	0x3e87987e	0.2648353
38	0x3c90bad4	0.017667212
39	0x3f07080f	0.5274667
40	0x3f161334	0.5862305
41	0x3f202ae3	0.6256544
42	0xbda116fe	-0.078657135
43	0x3d1045da	0.035222866
44	0xbf2683af	-0.65044683
45	0x3db0e5d6	0.08637588
46	0xbd60d5f6	-0.05489155
47	0x3c8c99a3	0.017163103
48	0x3e9f290c	0.31086004
49	0x3f36b90f	0.71376127
50	0x3e3d2e8c	0.18474787
51	0x3d79cec4	0.060988203
52	0x3cbbdf1e	0.022933539
53	0x3e8cd96a	0.27509624
54	0xbdba3689	-0.09092433
55	0x3edf10bf	0.43567464
56	0x3cf38ab4	0.029729225
57	0xbe34fe1b	-0.17675059
58	0xbc4a9c80	-0.012366414
59	0xbe2b1fb7	-0.16711317
60	0xbd9d89a6	-0.0769227
61	0x3ec561d8	0.3855121
62	0x3f3d4bd1	0.7394381
63	0x3e5b9923	0.21445136
64	0x3e185634	0.14876634
65	0x3e8c024b	0.273455
66	0xbd15f8db	-0.03661428
67	0x3f04df83	0.5190355
68	0x3e98d640	0.2985096
69	0x3f124327	0.57133716
70	0x3f34ff5c	0.7070215
71	0x3f076cc6	0.5290035
72	0x3f04020d	0.5156563
73	0x3f1bf354	0.60918164
74	0x3dd861a2	0.10565497
75	0xbdec7d45	-0.11547331
76	0x3dfb4c21	0.1227038
77	0x3ef53112	0.47889
78	0xbebdea1b	-0.3709267
79	0xbe1045f9	-0.14089192
80	0x3ec2e4c8	0.3806517
81	0xbdbe4e05	-0.09292225
82	0xbeafcc26	-0.3433544
83	0xbdad86ac	-0.08472952
84	0xbdae63e2	-0.08515145
85	0x3e89ce48	0.26915193
86	0xbc0996f4	-0.008397806
87	0xbe9123dd	-0.28347674
88	0x3de3865b	0.11109611
89	0xbcd97e6e	-0.026549544
90	0xbddb54f6	-0.107095644
91	0x3eb418db	0.35175213
92	0xbc9f2ad8	-0.01942961
93	0x3d5a1aec	0.05324833
94	0x3eb60ba4	0.35555756
95	0x3d55a122	0.05215562
96	0xbe8b139c	-0.27163398
97	0x3d058d05	0.03260519
98	0x3ebdb142	0.370493
99	0x3d91a653	0.07111802
100	0x3efe8074	0.49707377
101	0x3df296c9	0.11845166
102	0x3e8d3c52	0.27585083
103	0x3d20f3eb	0.03929512
104	0x3ec58f03	0.38585672
105	0x3d608a81	0.054819588
106	0xbea4f19d	-0.32215586
107	0xbec4e801	-0.38458255
108	0x3e42cf8e	0.19024488
109	0xbe1c2f65	-0.15252455
110	0xbed60a91	-0.41804937
111	0xbcdcb059	-0.026939558
112	0xbe1c5d11	-0.15269877
113	0x3f54f415	0.8318494
114	0x3d6c83d1	0.057742897
115	0xbdadea3c	-0.08491942
116	0x3ecf2f59	0.4046581
117	0x3eb29af8	0.34883857
118	0xbdc7f525	-0.097635545
119	0xbe62d95b	-0.22153227
120	0xbda791e3	-0.081821226
121	0xbe8c6b4e	-0.27425617
122	0xbe920f5d	-0.28527346
123	0x3eff3163	0.49842367
124	0x3e8d1b1e	0.2755975
125	0x3d1bd685	0.03804638
126	0xbda81ab3	-0.082082175
127	0x3de911ab	0.11380323

out.weight f4 [4, 128]
0	0x3d09d334	0.033648685
1	0xbbff14b3	-0.00778445
2	0x3d7a189e	0.061058633
3	0xbd31ec1f	-0.043438073
4	0xbd5a11a9	-0.0532395
5	0xbf904baa	-1.1273091
6	0x3d1c1a62	0.038111098
7	0x3d074579	0.03302524
8	0x3ff8d34e	1.9439485
9	0xbf0f933a	-0.56084025
10	0xbf585ce6	-0.8451675
11	0xbe41e05a	-0.1893324
12	0x3ad9e57f	0.0016624181
13	0xbd90ef1c	-0.070768565
14	0xbfad604c	-1.3545012
15	0x3e148ee2	0.1450763
16	0x3eb185e6	0.3467247
17	0xc00eb4b6	-2.2297797
18	0x3cc718b8	0.024303779
19	0xbf885012	-1.0649436
20	0xbcbc6f45	-0.023002276
21	0xbf2bdfb7	-0.67138237
22	0xbd113965	-0.035455126
23	0x3dab37c2	0.08360244
24	0xbf0f391d	-0.5594652
25	0xbec4b2bb	-0.3841761
26	0xbd04c557	-0.03241476
27	0x3f286b82	0.65789044
28	0xbe9d349e	-0.30704206
29	0xbe472ea2	-0.19451383
30	0xbb07fdb2	-0.002075058
31	0x3b4653db	0.0030262384
32	0x3c3ef0a2	0.011654051
33	0xbf7ee72e	-0.995715
34	0x401fc26e	2.496242
35	0x3f9e72e8	1.2378817
36	0xbfbb169d	-1.4616276
37	0x3d512946	0.051064752
38	0x3a8bc2f0	0.0010662954
39	0xbf54c852	-0.83118165
40	0x3f4b7960	0.7948208
41	0xbf6f79cc	-0.9354522
42	0xbd698958	-0.057015747
43	0xbe8e6965	-0.27814785
44	0x3f8db71f	1.1071509
45	0x3fc6309d	1.5483586
46	0xbc87b11a	-0.01656394
47	0x3f1648b7	0.58704704
48	0xbcbc34a4	-0.02297432
49	0x3f9f758e	1.245775
50	0xbf8325da	-1.0245926
51	0xbc69d3d7	-0.014271698
52	0xbf54a3e7	-0.83062595
53	0x3f4eddf6	0.80807436
54	0xbacfb7bd	-0.0015847605
55	0xbed74f39	-0.4205263
56	0xbd9fe3e0	-0.078071356
57	0xbf817d43	-1.0116352
58	0xbfa37305	-1.2769476
59	0x3f1d8730	0.61534405
60	0x3c8e0708	0.017337337
61	0xbf89e336	-1.0772464
62	0x3f1c9380	0.6116257
63	0xbf752880	-0.95764923
64	0xbe937c6b	-0.2880586
65	0x3f01a385	0.50640136
66	0x3b12814c	0.00223549
67	0xbf758261	-0.9590207
68	0xbff42e46	-1.9076622
69	0x401a22b3	2.4083679
70	0x3f26b025	0.65112525
71	0x3fa290ac	1.27004
72	0x3effe4a0	0.49979115
73	0xbf538897	-0.82630295
74	0xbfa5b46e	-1.2945688
75	0x3db338b8	0.087510526
76	0xbf71481b	-0.9425065
77	0x3f542cfe	0.8288115
78	0xbc4bcf0a	-0.012439499
79	0x40009d8a	2.0096154
80	0x3ef59817	0.47967598
81	0x3cead308	0.02866508
82	0xbefbc2d7	-0.49172089
83	0x3c83d0d8	0.016090795
84	0x3d4f5712	0.050620146
85	0x3f0052cc	0.5012634
86	0x3ca51596	0.020151895
87	0xbf4034e0	-0.7508068
88	0x3edee919	0.43537214
89	0xbfcf2c70	-1.6185436
90	0xbd1e08f2	-0.03858275
91	0x3ec56c31	0.38559106
92	0x3c81b8bb	0.015835157
93	0x3e098bb7	0.13432203
94	0xbf1ded65	-0.6169036
95	0xbf983950	-1.189249
96	0xbea8635a	-0.328883
97	0x4018cf20	2.387642
98	0xbf79e056	-0.97607934
99	0x40064951	2.0982249
100	0x3ed1dc60	0.40988445
101	0xbf32b3f4	-0.69805837
102	0xbf7948af	-0.9737653
103	0xbc6bc58b	-0.01439036
104	0xbf086c54	-0.53290296
105	0xbf36f016	-0.7146009
106	0x40051566	2.079431
107	0xbf04f4be	-0.51935947
108	0xbf8b63f0	-1.0889874
109	0xbf0cb7a0	-0.5496769
110	0xbf5ba2b9	-0.8579517
111	0x3e452934	0.19253999
112	0xbe497091	-0.19671847
113	0x3fa53b4f	1.2908725
114	0x3db3a8ce	0.08772431
115	0xbf83d294	-1.0298638
116	0xbee227df	-0.44171044
117	0x3d7b2c3e	0.06132149
118	0xbd5fbff9	-0.05462644
119	0xbf7786ea	-0.9669024
120	0x3d97885c	0.07399055
121	0xbef7dbbf	-0.4840984
122	0x40138e79	2.3055708
123	0xc008b7f2	-2.1362271
124	0xbfa751c1	-1.3071824
125	0xbcf24f4e	-0.029578831
126	0x3b3b83d8	0.002861252
127	0xbfcd96ac	-1.6061606
128	0xbf44919b	-0.76784676
129	0xbd908684	-0.07056907
130	0x3db1d072	0.08682336
131	0x3c26683e	0.010156689
132	0x3d192898	0.03739223
133	0xbf8cda0d	-1.1004044
134	0xbd82afcd	-0.063811876
135	0xbd004637	-0.031316962
136	0x3fc468da	1.5344498
137	0xbf1e6d84	-0.6188586
138	0xbea7c8b7	-0.3277032
139	0xbecf47a7	-0.40484354
140	0x3d321fe2	0.043487437
141	0x3d0fc440	0.035099268
142	0xbf6c860b	-0.92392033
143	0xbf62095c	-0.8829553
144	0xbb8f7616	-0.0043780906
145	0xbf319bd5	-0.69378406
146	0x3db2d2a6	0.08731584
147	0xbf747659	-0.95493084
148	0xbc0d7d42	-0.008635821
149	0xbf599e0c	-0.85006785
150	0x3d83513b	0.06411978
151	0xbc4fb280	-0.012676835
152	0xbf5b1300	-0.85575867
153	0xbf18e94e	-0.59730995
154	0xbc706d97	-0.014674566
155	0x3f4c554a	0.7981764
156	0xbeba4b51	-0.36385587
157	0xbf5e659f	-0.8687381
158	0x3c48452d	0.012223524
159	0x3d523e29	0.05132881
160	0xbd110ba5	-0.035411496
161	0xbf4ce194	-0.80031705
162	0x401ea75a	2.4789643
163	0x3f814780	1.0099945
164	0xbfb36290	-1.4014454
165	0xbf9704a6	-1.1798294
166	0x3cc9a6af	0.024615614
167	0xbf2634b1	-0.6492415
168	0x3f3a72ae	0.7283124
169	0xbf886d04	-1.0658269
170	0x3d3c54df	0.045979377
171	0xbf745f4a	-0.954579
172	0x3fecb351	1.8492223
173	0x3f8caf75	1.0991045
174	0x3d13c28b	0.036074203
175	0xbf5a867f	-0.85361475
176	0x3e2016bb	0.15633671
177	0x3f52122b	0.8205897
178	0xbf504958	-0.81361914
179	0x3d36b30b	0.044604342
180	0xbf526355	-0.8218282
181	0x3eee9717	0.46599647
182	0xbcbd27f5	-0.023090342
183	0xbf986275	-1.1905047
184	0x3d4d3c1c	0.050106153
185	0xbf5e3d50	-0.86812305
186	0xbf3587a2	-0.70910084
187	0xbf1e5e13	-0.61862296
188	0xbbef49e6	-0.0073025106
189	0xbf561d7e	-0.8363875
190	0x3ee99a12	0.4562536
191	0xbf581f41	-0.8442269
192	0xbfce539a	-1.6119263
193	0x3f1b282d	0.6060818
194	0xbd8fd4d5	-0.07023016
195	0xbf8ede5e	-1.1161611
196	0xbfc63dbf	-1.5487593
197	0x3fe2edfc	1.7728877
198	0x3fa16188	1.2607889
199	0x3f846537	1.0343388
200	0xbe135aec	-0.14390153
201	0xbef4e243	-0.47828874
202	0xbf95b855	-1.1696879
203	0xbc98208c	-0.018570207
204	0xbe955ff1	-0.2917476
205	0x3f4a9a8e	0.7914208
206	0x3f7a38a0	0.9774265
207	0x3ff5d21e	1.9204748
208	0x3f392c40	0.72333145
209	0x3d67e2a9	0.056612644
210	0xbfe3b4ad	-1.7789513
211	0x3d411770	0.047141492
212	0x3bf0ebfa	0.0073523493
213	0x3f5e927d	0.86942273
214	0xbd04ae15	-0.03239258
215	0xbf0e1256	-0.5549673
216	0x3ededf0d	0.4352955
217	0xbf9026dd	-1.126186
218	0x3d038819	0.032112215
219	0x3fadd605	1.3580939
220	0xbd7db10f	-0.061936434
221	0x3d4d7b53	0.05016644
222	0xbf3ae933	-0.73012084
223	0xbf9b5d9a	-1.213794
224	0xbf80b6fc	-1.0055842
225	0x3ff3ecfa	1.9056695
226	0xbecc1fe7	-0.3986809
227	0x400496c4	2.071702
228	0x3f4050cf	0.75123304
229	0xbf887fbe	-1.0663984
230	0xbfe7f226	-1.8120773
231	0xbd86da28	-0.06584579
232	0xbeb249dc	-0.34821975
233	0xbfa2ffb5	-1.2734286
234	0xbea532c2	-0.32265288
235	0xbf5fccea	-0.8742205
236	0xc01c3737	-2.44087
237	0xbf27f89d	-0.6561373
238	0xbf0750da	-0.52857745
239	0x3da7d568	0.08195001
240	0xbf42eaa6	-0.76139295
241	0x3fa7df7d	1.3115078
242	0x3d1884fd	0.037236203
243	0xbf106b67	-0.5641388
244	0xbf402e6f	-0.7507085
245	0x3ef282fd	0.4736556
246	0x3cfcd476	0.030863028
247	0xbfb4f5e3	-1.4137539
248	0x3ca66a8b	0.020314476
249	0xbf3b763a	-0.73227274
250	0x402f81c8	2.7422962
251	0xbe9481a8	-0.2900517
252	0xbfa509ea	-1.289365
253	0x3d89053c	0.066904515
254	0x3d9a9f36	0.07549898
255	0xbf85530a	-1.0415967

out.bias f4 [4]
0	0x3d509af8	0.05092904
1	0x3dda78cf	0.10667574
2	0x3e8921cd	0.267836
3	0x3efe8f78	0.49718833
