DQN/models/dqn_ep400_20250415_142641.pth (torch, 75580 bytes, 6 tensors)

fc1.weight f4 [128, 8]
-0.19908334 -0.02707897 -0.934082 0.20788872 0.559638 -0.8404775 0.50126445 0.032429125
-0.024606533 0.5525067 -0.43292707 -0.45707157 0.0072322325 0.38084278 -1.6420354 -0.70675933
1.2888534 -0.29529452 0.5228961 -1.1051117 0.05038793 -0.103649475 0.107135706 -0.18033992
-0.17049661 0.02824858 -0.061775934 0.47936702 -1.0155867 0.05342322 0.0787456 -0.3219849
0.13017687 0.17891379 -0.016330808 0.019079817 -0.14506906 -0.017343618 0.06853508 -0.082943775
-1.2346935 -2.8382735 0.012174091 0.23069917 0.23169604 0.08716038 -0.61882937 0.2052414
-0.053170826 -0.19319567 0.016407322 0.25867903 0.15634085 -0.102591634 -0.04234623 0.08044145
1.179775 0.651694 -0.28300866 0.63126594 0.53738934 0.22119582 -0.8205802 -1.3228538
1.7582617 0.1882075 0.5994154 -0.9784661 0.82017535 0.29319498 0.14981446 0.071450815
-0.35736644 -3.4450068 -0.29884493 -0.99280125 0.8774734 -0.73127234 0.18812327 -0.25814086
-0.15225293 0.37379152 -0.44231823 0.40138412 0.18733706 0.75964224 0.42064965 -0.4248081
-0.80939186 -0.86927843 0.5850666 -1.7328727 0.65143204 0.10293821 -0.16285777 -0.1928007
0.2315232 -0.21226987 1.0238788 1.8104976 0.92704326 0.51271147 0.018355496 0.4169004
1.339122 -0.25385886 -0.10926389 0.34894866 -0.4828168 0.67053545 0.17679976 0.38612613
-0.34180984 -0.15254493 0.0024955329 0.35105988 -2.350782 -0.26230213 -0.08001197 0.27216247
-0.68332857 0.106640354 0.72419643 -0.40046546 -0.20959473 0.14712821 0.005101619 0.3976153
0.43124044 0.2264014 -0.28237656 0.4522698 -0.23152041 0.10575935 -0.21688311 0.066569775
-0.653407 -0.6946363 -0.6635883 -0.41350418 -0.24747394 -0.83076507 0.59788406 0.20578323
-0.14399837 0.518317 0.25605342 0.003403262 0.18410423 -1.4418817 0.34035978 -0.52199304
0.5762187 -0.32958484 -0.80469805 -0.22684765 0.17391704 0.4952513 0.72411907 -0.06497122
-0.36356086 0.099651836 -0.22031395 0.11216842 -0.28018835 0.8860646 -0.20291707 0.4988454
-1.1557508 0.3184705 -0.2988537 -1.1443111 -0.71344197 0.037340295 0.3110352 -0.3079511
0.27909267 -0.12648442 1.5307773 -1.0593216 0.21636905 -0.45169318 -0.98214096 0.0057407627
-0.039002705 -0.057711072 -0.8191908 1.847333 -0.039697617 -1.1361741 0.14986558 -0.01308123
2.4505968 0.88418055 0.4476862 -0.081158556 -0.23988304 -0.04486814 -0.038000442 -0.06149588
-1.2511435 0.08571288 1.1845611 -1.461848 0.7221435 0.7821544 0.30574945 -0.21830262
-0.13977599 -0.067487925 -0.016553972 0.34708178 0.04859077 -0.13347568 -0.22780114 0.0058453963
-0.82010305 -0.38869515 -0.03428571 -0.051720977 -0.18370219 -0.32887903 -0.13497296 0.21331076
-0.2525684 0.23750024 0.17146574 0.3130685 -0.5900126 -0.62252885 0.53122073 -0.66995865
0.12421094 -2.8688045 0.24833895 0.73345053 -1.88617 -0.15644528 0.16673088 0.048800077
0.13780831 -2.2343135 1.0158867 -1.8026336 0.49256507 -0.011493975 0.12588483 0.116455786
0.015933128 0.49126986 0.49275568 0.049955506 -0.28530967 -1.803284 -1.4137243 -0.66689336
00000000: 81dc 4bbe b7d4 ddbc ff1f 6fbf c8e0 543e
00000010: 7044 0f3f 8929 57bf de52 003f 67d4 043d
00000020: a493 c9bc 1471 0d3f 9ea8 ddbe 4905 eabe
00000030: 5dfc ec3b d3fd c23e 372e d2bf 2eee 34bf
00000040: 26f9 a43f d830 97be 85dc 053f 4d74 8dbf
00000050: 9363 4e3d 2d46 d4bd f769 db3d 07ab 38be
00000060: aa96 2ebe 9169 e73c c308 7dbd 986f f53e
00000070: bffe 81bf 4ed2 5a3d 6045 a13d 34db a4be
00000080: 164d 053e 2d35 373e 30c8 85bc 474d 9c3c
00000090: fc8c 14be 3414 8ebc 1f5c 8c3d 6dde a9bd
000000a0: 700a 9ebf 46a6 35c0 d775 473c 673c 6c3e
000000b0: ba41 6d3e 2481 b23d 9a6b 1ebf cd2a 523e
000000c0: a7c9 59bd 16d5 45be a668 863c 9471 843e
000000d0: d117 203e 901b d2bd 3e73 2dbd 7dbe a43d
000000e0: de02 973f 6bd5 263f 83e6 90be a59a 213f
000000f0: 5992 093f 2881 623e 8b11 52bf 4653 a9bf
00000100: b80e e13f 78b9 403e 4a73 193f c17c 7abf
00000110: 03f7 513f a71d 963e f668 193e ce54 923d
00000120: bcf8 b6be fe7a 5cc0 3402 99be 3928 7ebf
00000130: 19a2 603f aa34 3bbf 63a3 403e 0a2b 84be
00000140: 31e8 1bbe 9a61 bf3e 8977 e2be 3882 cd3e
00000150: 49d5 3f3e ea77 423f 645f d73e 7380 d9be
00000160: 4e34 4fbf 0889 5ebf edc6 153f c6ce ddbf
00000170: 40c4 263f 45d1 d23d 30c4 26be 8c6d 45be
00000180: 6b14 6d3e 465d 59be 760e 833f 63be e73f
00000190: b552 6d3f 0f41 033f 445e 963c f873 d53e
000001a0: 5a68 ab3f caf9 81be bfc5 dfbd 66a9 b23e
000001b0: c333 f7be 36a8 2b3f ff0a 353e 53b2 c53e
000001c0: b301 afbe bd34 1cbe 188c 233b 1fbe b33e
000001d0: 3673 16c0 774c 86be 51dd a3bd e158 8b3e
000001e0: 9fee 2ebf 4266 da3d f064 393f cf09 cdbe
000001f0: 00a0 56be c7a8 163e 7b2b a73b 3c94 cb3e
00000200: 8ccb dc3e c5d5 673e a993 90be e88f e73e
00000210: b013 6dbe 5c98 d83d 9b16 5ebe bc55 883d
00000220: ae45 27bf afd3 31bf ece0 29bf d2b6 d3be
00000230: cf69 7dbe 05ad 54bf ee0e 193f d7b8 523e
00000240: 4f74 13be 6cb0 043f 6f19 833e 4309 5f3b
00000250: d285 3c3e 948f b8bf a343 ae3e 56a1 05bf
00000260: 1283 133f 58bf a8be b100 4ebf c04a 68be
00000270: 4f17 323e 9491 fd3e de5f 393f a20f 85bd
00000280: a624 babe 4316 cc3d fb99 61be 8eb8 e53d
00000290: d974 8fbe 21d5 623f 7ec9 4fbe aa68 ff3e
000002a0: a4ef 93bf 910e a33e 5a03 99be c978 92bf
000002b0: 22a4 36bf 23f2 183d 0140 9f3e c4ab 9dbe
000002c0: 3ce5 8e3e 2285 01be 83f0 c33f da97 87bf
000002d0: d98f 5d3e 5444 e7be 976d 7bbf 021d bc3b
000002e0: 4dc1 1fbd 7262 6cbd 7db6 51bf 6875 ec3f
000002f0: f899 22bd 276e 91bf 5d76 193e a852 56bc
00000300: 94d6 1c40 a859 623f 2037 e53e 7536 a6bd
00000310: e6a3 75be a8c7 37bd 5aa6 1bbd 1be3 7bbd
00000320: 7825 a0bf 3c8a af3d b39f 973f d61d bbbf
00000330: 65de 383f 453b 483f 318b 9c3e b98a 5fbe
00000340: 7021 0fbe 1c37 8abd 329c 87bc b4b4 b13e
00000350: 1e07 473d d9ad 08be b444 69be bd8a bf3b
00000360: 46f2 51bf 0d03 c7be 2c6f 0cbd 60d9 53bd
00000370: 6d1c 3cbe d562 a8be 5a36 0abe 236e 5a3e
00000380: a550 81be 4333 733e b794 2f3e 844a a03e
00000390: 110b 17bf 0d5e 1fbf 15fe 073f 6982 2bbf
000003a0: 4e62 fe3d 7e9a 37c0 914c 7e3e 6ac3 3b3f
000003b0: 056e f1bf 3133 20be 80bb 2a3e 97e2 473d
000003c0: 9f1d 0d3e fefe 0ec0 9308 823f b3bc e6bf
000003d0: 7d31 fc3e 3a51 3cbc f4e7 003e 5f80 ee3d
000003e0: 3186 823c b987 fb3e 794a fc3e 259e 4c3d
000003f0: 1c14 92be 03d2 e6bf ebf4 b4bf 86b9 2abf

fc1.bias f4 [128]
0.1013287 0.6799298 0.67551726 0.6088842 0.29754937 0.11362259 -0.3421278 -0.89341694
-0.16469577 0.3859231 -0.12113488 -0.37223345 -0.9662736 0.35241333 0.38068533 0.14346336
0.41007924 0.13827582 0.42099157 -0.009014332 0.8178218 0.1469888 0.034218866 0.73295
0.5677094 0.20098144 -0.32710966 -0.11468415 0.7049174 0.3586011 -0.5946678 0.5763228
0.30470333 0.1495914 0.5030745 0.235226 -0.43590066 1.019781 -1.0326767 0.7026128
-0.14590263 0.4909346 0.3417801 -0.039649893 0.053788554 0.22674465 -5.4936958e-05 -0.5049524
-0.319196 0.20795994 0.11346872 0.38577902 1.3415285 0.22169855 0.6749329 -0.34608644
-0.12645426 0.62969637 -0.045821592 -0.66643286 -0.19464688 -0.68828154 -0.69887954 0.12139223
0.5275237 0.7687044 -0.3131544 0.14685296 0.56843466 -0.3610718 -0.19174288 -0.31254184
-0.7331507 0.6516031 -0.095154755 0.6440415 -0.7126715 -0.2715656 0.81613684 0.8597347
-0.22276297 -0.3366864 -0.05684387 0.35054383 0.8518469 -0.047379147 -0.92978764 0.06884979
-0.29464877 -0.29356226 -1.0720857 -0.06508513 -0.017099904 -0.11312681 0.61332476 0.023264648
-0.73379236 1.0780637 0.2924439 0.53127295 0.24838634 0.79517955 0.34267434 0.6972093
0.15963101 -0.18427227 0.31067404 0.49245185 -0.8784919 0.08406233 -0.45365524 0.7576422
0.09466055 -0.4180976 0.3638661 -0.50441694 -0.27237412 0.54503125 0.21546099 0.06694889
0.0012757125 -0.5064246 0.6730998 0.753724 -0.4370055 -0.61321014 -0.27188215 0.82376504
00000000: 6c85 cf3d e10f 2e3f b3ee 2c3f d6df 1b3f
00000010: 6458 983e f6b2 e83d 602b afbe f9b6 64bf
00000020: 02a6 28be b697 c53e 9015 f8bd 6295 bebe
00000030: b55d 77bf 856f b43e 30e9 c23e 0fe8 123e
00000040: e8f5 d13e 2d98 0d3e 358c d73e d9b0 13bc
00000050: c55c 513f 3b84 163e 1529 0c3d 9ca2 3b3f
00000060: 6755 113f 14ce 4d3e eb7a a7be 86df eabd
00000070: 7775 343f 909a b73e 263c 18bf e489 133f
00000080: 1302 9c3e 7d2e 193e 7ec9 003f 16df 703e
00000090: 5f2e dfbe 2f88 823f c02e 84bf 6fde 333f
000000a0: 8067 15be c85b fb3e cdfd ae3e ed67 22bd
000000b0: 6351 5c3d c02f 683e 1c6c 66b8 8f44 01bf
000000c0: a86d a3be 73f3 543e 4a62 e83d d484 c53e
000000d0: 35b7 ab3f f204 633e 67c8 2c3f 3e32 b1be
000000e0: 3a7d 01be c833 213f 6caf 3bbd 589b 2abf
000000f0: 8351 47be 3833 30bf c5e9 32bf 7d9c f83d
00000100: cb0b 073f d0c9 443f c655 a0be 9f60 163e
00000110: ef84 113f 67de b8be 3f58 44be 7c05 a0be
00000120: c4af 3bbf 76cf 263f 7fe0 c2bd e7df 243f
00000130: a471 36bf a50a 8bbe 58ee 503f 9317 5c3f
00000140: fa1b 64be 2962 acbe 1ed5 68bd 7b7a b33e
00000150: a312 5a3f a310 42bd 9006 6ebf 1e01 8d3d
00000160: 34dc 96be cb4d 96be 1b3a 89bf 5a4b 85bd
00000170: 1915 8cbc 07af e7bd da02 1d3f 8195 be3c
00000180: d1d9 3bbf fefd 893f 35bb 953e 8101 083f
00000190: fd58 7e3e e390 4b3f 0373 af3e 4f7c 323f
000001a0: 5076 233e dfb1 3cbe ab10 9f3e a622 fc3e
000001b0: d8e4 60bf df28 ac3d 8045 e8be d7f4 413f
000001c0: 64dd c13d e310 d6be a84c ba3e 7821 01bf
000001d0: 9f74 8bbe 2b87 0b3f cea1 5c3e 801c 893d
000001e0: cf35 a73a 0ba5 01bf 4550 2c3f 0ef4 403f
000001f0: 2fbf dfbe 57fb 1cbf 2334 8bbe 44e2 523f

fc2.weight f4 [128, 128]
-0.29770407 -0.83326477 0.7388354 -0.48926827 -0.0021075432 0.20204431 -0.015198928 -0.9135465
0.94414246 -0.19432332 -0.030307574 0.5444401 -1.9903634 1.0464697 -1.0432029 0.2898167
-0.059579916 0.015212914 -0.9296889 0.121526755 0.13804555 -0.8553777 -1.6380782 -0.97145844
-0.55553335 -0.4910748 0.03620633 -0.5762409 -0.79210824 -0.5108215 0.67007565 -0.16447741
-0.25850245 -0.3044257 0.04183315 0.610327 1.1095442 -0.07181228 1.3018434 -0.06676505
-0.822676 0.016074998 -0.18803206 0.57314837 -0.7681625 0.6715977 -0.5124028 -0.17527035
-0.05466936 0.56163937 -0.00015441657 -0.17771602 -0.26111534 0.26832157 0.2431634 -0.53235805
0.12691477 -0.39465362 -0.5643448 -3.4009643 0.38113803 1.2583117 0.69382167 -0.32918748
0.2867622 -0.43231446 0.08080968 -0.92009634 0.5984927 -1.0073984 -0.4336646 1.1580026
-0.75676763 0.21606374 -0.15851955 0.087962344 -0.023477811 0.27668995 -1.2883679 -0.8626923
0.8123079 1.3293202 -1.610274 -0.9709352 -0.33891025 -1.0070621 -0.283769 -0.35353497
-1.098681 0.74754196 -0.826801 1.1383946 -0.24611624 -0.31892425 -0.18432876 -0.5233149
-0.6428782 -0.40177608 -0.88925374 0.52602357 -0.5909694 0.11251971 0.029253647 -0.3480207
0.3601784 -0.22945824 -0.23475969 0.29207516 0.37959218 0.13240969 -0.3888386 -0.22231832
0.4865456 0.08381422 -0.10615031 0.20134062 -0.8343086 0.297125 0.0050712638 -0.34346345
-0.0970756 0.43321362 -0.03860134 0.11285648 0.39938903 0.073238455 1.0207381 -0.4040603
-0.10243442 -7.6684446e-05 0.044770148 -0.045680154 -0.12330443 -0.018416047 0.057284582 0.06662858
0.042501494 0.07315414 -0.056895398 0.007875168 0.06551844 0.029778834 -0.047581445 -0.044230856
-0.06537177 -0.047514293 -0.03972165 -0.043868802 0.013959022 0.052084465 -0.061663337 -0.052491948
-0.034137726 -0.03272128 -0.05818273 -0.04696164 -0.08070841 -0.06272469 0.012416063 0.024920968
0.03551374 -0.024257265 0.036534425 -0.07400324 0.048310626 -0.05228315 0.064100094 -0.08883982
0.039793245 -0.08404287 0.020789778 -0.05003701 -0.014983384 -0.018073559 -0.008256781 -0.12420183
-0.034195706 -0.024753887 -0.037476514 -0.100097574 -0.080060266 -0.084808625 -0.07752622 0.04231069
0.026068827 0.018491842 -0.055474922 -0.03508305 -0.0022617283 -0.08532881 -0.02798126 0.014154714
-0.070389986 -0.09071399 0.009834903 -0.016210197 -0.05822727 -0.008977802 -0.048753712 -0.11783259
0.039806817 0.049329054 -0.040373433 -0.057789624 -0.091576464 -0.11044364 -0.037793748 -0.0143462755
-0.021590317 -0.042041123 0.014223797 -0.048830364 -0.056677084 0.0040866556 -0.015607934 -0.08168294
-0.027877659 0.0013474242 0.00467516 -0.10882276 0.008751528 -0.060530577 -0.127007 -0.067408174
-0.04187756 0.05189281 -0.05593066 0.037955306 -0.02504608 0.039207276 0.016538234 -0.03398403
-0.10146304 -0.074723415 0.030169157 -0.043491382 -0.012175065 -0.077042975 -0.09687305 0.013404658
-0.049134236 0.0057777953 -0.05399511 -0.0012550007 -0.0060271416 0.026013054 -0.042457603 -0.01130505
-0.05372733 -0.0816876 -0.026869489 -0.03984377 -0.04227718 -0.037267048 -0.0055387174 -0.07346113
00000000: ab6c 98be d750 55bf 5124 3d3f 5f81 fabe
00000010: b51e 0abb b4e4 4e3e ed04 79bc 2fde 69bf
00000020: 52b3 713f b1fc 46be 9747 f8bc 6d60 0b3f
00000030: 3ac4 febf b8f2 853f ac87 85bf db62 943e
00000040: 120a 74bd 963f 793c 1700 6ebf 05e3 f83d
00000050: d05b 0d3e 08fa 5abf 8cac d1bf 80b1 78bf
00000060: 6f37 0ebf 286e fbbe 174d 143d 8684 13bf
00000070: 9bc7 4abf 33c5 02bf 148a 2b3f c46c 28be
00000080: 6f5a 84be afdd 9bbe 3d59 2b3d 643e 1c3f
00000090: 8b05 8e3f 5112 93bd cea2 a63f 1dbc 88bd
000000a0: e59a 52bf b7af 833c 7a8b 40be dab9 123f
000000b0: 4ca6 44bf d4ed 2b3f d42c 03bf 127a 33be
000000c0: fbec 5fbd 99c7 0f3f e2ea 21b9 30fb 35be
000000d0: e9b0 85be 7261 893e d4ff 783e 9e48 08bf
000000e0: f2f5 013e 0a10 cabe e778 10bf 66a9 59c0
000000f0: 8624 c33e 5c10 a13f 4c9e 313f 438b a8be
00000100: 7fd2 923e 5258 ddbe 8c7f a53d 6f8b 6bbf
00000110: d136 193f 6ef2 80bf 4909 debe 6e39 943f
00000120: 86bb 41bf d03f 5d3e f352 22be 9a25 b43d
00000130: 8a54 c0bc 4eaa 8d3e 3de9 a4bf 67d9 5cbf
00000140: 69f3 4f3f 2a27 aa3f 751d cebf 368f 78bf
00000150: a585 adbe 69e7 80bf 2c4a 91be 8902 b5be
00000160: 94a1 8cbf e95e 3f3f 3ba9 53bf eab6 913f
00000170: e505 7cbe 0a4a a3be aec0 3cbe f7f7 05bf
00000180: aa93 24bf 98b5 cdbe 22a6 63bf 7ba9 063f
00000190: c549 17bf bc70 e63d 58a5 ef3c c52f b2be
000001a0: 4e69 b83e 1af7 6abe d864 70be e08a 953e
000001b0: e859 c23e 6896 073e da15 c7be 6aa7 63be
000001c0: 811c f93e caa6 ab3d 5565 d9bd 3c2c 4e3e
000001d0: 4095 55bf c520 983e d82c a63b 71da afbe
000001e0: 92cf c6bd 2dce dd3e 701c 1ebd 4c21 e73d
000001f0: b87c cc3e 0bfe 953d 8ca7 823f fee0 cebe
00000200: 23c9 d1bd a6d1 a0b8 e760 373d 1d1b 3bbd
00000210: 0887 fcbd 40dd 96bc 3da3 6a3d 9174 883d
00000220: 0c16 2e3d d6d1 953d 260b 69bd d906 013c
00000230: 882e 863d bef2 f33c c3e4 42bd 6a2b 35bd
00000240: a2e1 85bd 599e 42bd 2bb3 22bd c6af 33bd
00000250: 62b4 643c 8556 553d b292 7cbd cc01 57bd
00000260: 00d4 0bbd c006 06bd 0451 6ebd d95a 40bd
00000270: 734a a5bd cd75 80bd be6c 4b3c 0f27 cc3c
00000280: db76 113d 2cb7 c6bc 1fa5 153d 038f 97bd
00000290: 5de1 453d db26 56bd e946 833d a7f1 b5bd
000002a0: 3efe 223d ab1e acbd 534f aa3c 9cf3 4cbd
000002b0: de7c 75bc 000f 94bc 7347 07bc 875d febd
000002c0: cc10 0cbd aac8 cabc f980 19bd f5ff ccbd
000002d0: a3f6 a3bd 25b0 adbd 11c6 9ebd f94d 2d3d
000002e0: 4b8e d53c 347c 973c ac39 63bd 3fb3 0fbd
000002f0: 8139 14bb dfc0 aebd f538 e5bc 2ce9 673c
00000300: a028 90bd 42c8 b9bd 9322 213c 3fcb 84bc
00000310: b87f 6ebd a117 13bc f9b1 47bd 3752 f1bd
00000320: 790c 233d 430d 4a3d 9d5e 25bd d0b4 6cbd
00000330: 718c bbbd 4630 e2bd 9ecd 1abd a40c 6bbc
00000340: 2dde b0bc 5033 2cbd ee0a 693c 5902 48bd
00000350: 3b26 68bd 5ae9 853b 6cb8 7fbc 6349 a7bd
00000360: b05f e4bc 0e9c b03a 1632 993b 78de debd
00000370: 9262 0f3c e9ee 77bd 1f0e 02be 4c0d 8abd
00000380: ce87 2bbd 8e8d 543d 8c17 65bd 0677 1b3d
00000390: 702d cdbc cf97 203d 317b 873c d732 0bbd
000003a0: dbcb cfbd 9708 99bd 4f25 f73c 0524 32bd
000003b0: ed79 47bc b5c8 9dbd 6165 c6bd 369f 5b3c
000003c0: fb40 49bd a953 bd3b fa29 5dbd d67e a4ba
000003d0: 547f c5bb 5419 d53c 06e8 2dbd d138 39bc
000003e0: 3011 5cbd d44b a7bd 671d dcbc 3933 23bd
000003f0: d62a 2dbd 55a5 18bd 217e b5bb ca72 96bd

fc2.bias f4 [128]
-0.024703022 -0.036156777 -0.009279674 -0.17858525 0.04062238 0.15422045 -0.017144796 -0.11225018
0.36459768 0.50225353 0.08098441 0.15773746 -0.10752252 -0.056589853 -0.07937947 -0.26637277
0.45355442 0.23694178 -0.0069384133 0.34800938 -0.11219633 0.67870176 0.0140435975 -0.1793701
0.12606555 0.29630357 -0.12087646 0.0954097 0.20421745 -0.1090672 -0.04328 -0.07491196
-0.06635214 -0.4124303 0.13254313 0.25156373 0.076757036 0.26570216 0.017667212 0.5251413
0.5890436 0.5700756 -0.078657135 0.05123512 -0.4555965 0.2907135 -0.05489155 -0.10833635
0.3341548 0.682231 0.15644072 -0.011530509 0.11847814 0.27621624 -0.09092433 0.3240004
0.029729225 -0.080597684 0.0023012406 -0.10732744 -0.0769227 0.33292544 0.67664623 0.22740279
0.11415593 0.21767445 -0.03661428 0.50629586 0.31145298 0.5533614 0.67347443 0.5476313
0.523815 0.6135094 0.059429634 -0.09674383 0.16898517 0.5012604 -0.23997948 -0.055910576
0.2860277 -0.09292225 -0.3873855 -0.08472952 -0.05338571 0.23473285 -0.008397806 -0.111773
0.106936395 0.0037300896 -0.107095644 0.3177457 -0.01942961 0.08095913 0.44263834 0.06454766
-0.10725661 0.09978977 0.32139808 0.15536228 0.46462932 0.16291331 0.29400596 0.058881033
0.47033253 0.099039696 -0.26544368 -0.09695248 0.18165049 -0.17775014 -0.39039037 -9.894835e-05
-0.05892916 0.7986232 0.057742897 0.02744033 0.37415367 0.38554582 -0.097635545 -0.09151699
-0.081821226 -0.14204988 -0.22535896 0.55407846 0.28543463 0.03804638 -0.082082175 0.08393216
00000000: fe5d cabc 2119 14bd c609 18bc 0ddf 36be
00000010: a763 263d f7eb 1d3e 3e73 8cbc 6ce3 e5bd
00000020: 8cac ba3e b093 003f 28db a53d ee85 213e
00000030: c434 dcbd c3ca 67bd b491 a2bd 0362 88be
00000040: 4938 e83e dea0 723e a15b e3bb 492e b23e
00000050: 31c7 e5bd 66bf 2d3f 1e17 663c ccac 37be
00000060: 5417 013e 1ab5 973e 148e f7bd 2966 c33d
00000070: 611e 513e a05e dfbd 5f46 31bd 716b 99bd
00000080: a1e3 87bd 102a d3be 63b9 073e f6cc 803e
00000090: cb32 9d3d 1d0a 883e d4ba 903c a96f 063f
000000a0: 90cb 163f 79f0 113f fe16 a1bd ebdb 513d
000000b0: f243 e9be 66d8 943e f6d5 60bd 73df ddbd
000000c0: 5716 ab3e b1a6 2e3f ff31 203e 76ea 3cbc
000000d0: aba4 f23d 376c 8d3e 8936 babd 61e3 a53e
000000e0: b48a f33c 6610 a5bd 69d0 163b 7dce dbbd
000000f0: a689 9dbd 3475 aa3e b038 2d3f 47dc 683e
00000100: 96ca e93d 0de6 5e3e dbf8 15bd 9b9c 013f
00000110: c476 9f3e 18a9 0d3f d268 2c3f 9131 0c3f
00000120: bd18 063f f40e 1d3f 7d6c 733d a121 c6bd
00000130: 730a 2d3e 9a52 003f 2ebd 75be 7d02 65bd
00000140: 3972 923e 054e bebd 6457 c6be ac86 adbd
00000150: f9aa 5abd cf5d 703e f496 09bc 3ee9 e4bd
00000160: 7801 db3d 8574 743b f654 dbbd 90af a23e
00000170: d82a 9fbc e6cd a53d 7ea1 e23e 9031 843d
00000180: 5ba9 dbbd 945e cc3d 4a8e a43e 4a17 1f3e
00000190: e5e3 ed3e bfd2 263e f387 963e 3d2d 713d
000001a0: 6dcf f03e 53d5 ca3d 3ce8 87be 068f c6bd
000001b0: 9602 3a3e 2204 36be 3fe1 c7be 7e82 cfb8
000001c0: b45f 71bd 9272 4c3f d183 6c3d 8bca e03c
000001d0: 1291 bf3e 4366 c53e 25f5 c7bd 426d bbbd
000001e0: e391 a7bd 8675 11be 80c4 66be 16d8 0d3f
000001f0: 7d24 923e 85d6 1b3d b31a a8bd a0e4 ab3d

out.weight f4 [4, 128]
0.120909035 -0.00778445 0.061058633 -0.043438073 -0.0532395 -1.1310586 0.038111098 0.03302524
1.2589476 -0.5505056 -1.0865655 -0.16427325 0.0016624181 -0.070768565 -1.3306712 0.08423737
0.417744 -2.168096 0.024303779 -0.93223196 -0.023002276 -0.54359525 -0.035455126 0.08360244
-0.55143756 -0.37069374 -0.03241476 0.6556888 -0.38553384 -0.1438063 -0.002075058 0.0030262384
0.011654051 -0.8471672 2.4136372 1.1830412 -0.9904239 0.18896256 0.0010662954 -0.54242605
0.8214758 -0.6518441 -0.057015747 -0.27806607 0.6752106 1.732918 -0.01656394 0.53774655
-0.043027118 1.3077959 -0.66467816 0.03412311 -0.9661772 0.8562764 -0.0015847605 -0.93136597
-0.078071356 -0.90026355 -1.1958536 0.33065984 0.017337337 -0.9683434 0.6549919 -0.9463562
-0.5136336 0.48898867 0.00223549 -0.9840138 -0.96002984 2.5927763 0.6700693 1.3314339
0.57329005 -0.7076387 -1.0680537 0.07502533 -0.8620081 0.8890576 0.009225027 1.8326405
0.42174813 0.02866508 -0.52085114 0.016090795 0.050620146 0.5179164 0.020151895 -0.8848325
0.43953627 -1.5914949 -0.03858275 0.31166175 0.015835157 0.13531214 -0.55633914 -1.0685351
-0.49683812 1.9209256 -0.9396193 1.8307815 0.43627447 -0.49386153 -0.9765032 -0.037362747
-0.44098118 -0.57812405 1.7832569 -0.6912204 -0.91935605 -0.57067406 -1.2116915 0.07372721
-0.15190746 1.3251829 0.08772431 -0.9371221 -0.2334004 0.11727005 -0.05462644 -0.970338
0.07399055 -0.7487087 2.2879734 -1.7249739 -1.1780548 -0.029578831 0.002861252 -1.213255
-0.8305973 -0.07056907 0.08682336 0.010156689 0.03739223 -1.1463479 -0.063811876 -0.031316962
0.31651646 -0.5079167 -0.74021626 -0.33317876 0.043487437 0.035099268 -1.1545138 -0.7456281
0.01870414 -0.56213564 0.08731584 -0.84289914 -0.008635821 -0.86815655 0.06411978 -0.012676835
-1.0206311 -0.5655341 -0.014674566 0.7537456 -0.20760705 -0.63015854 0.012223524 0.05132881
-0.035411496 -0.7273019 2.5960977 1.0015781 -1.3506289 -1.0126091 0.024615614 -0.5288035
0.77255416 -0.755718 0.045979377 -0.6251727 1.4419537 1.5392481 0.036074203 -0.4851299
0.21674965 0.75230914 -0.5824321 0.17984563 -0.90924597 0.53736806 -0.023090342 -0.8314382
0.050106153 -0.6544804 -0.50081927 -0.28441632 -0.0073025106 -0.8000073 0.47459024 -0.7727248
-1.1314108 0.695675 -0.07023016 -1.046488 -0.6685228 1.7767855 1.351198 1.0065122
-0.18324926 -0.40747157 -1.0163299 -0.037553262 -0.33451787 0.8372792 0.4909711 1.8047705
0.78726435 0.056612644 -1.735732 0.047141492 0.0073523493 0.87421775 -0.03239258 -0.8885369
0.5052049 -1.3750169 0.032112215 1.4374603 -0.061936434 0.103397995 -0.7212186 -1.2533971
-1.0625921 2.0037408 -0.55280095 1.9196535 0.7519095 -1.0105569 -1.7677774 -0.06390449
-0.23698033 -0.8750151 -0.09846301 -0.9462659 -1.7337162 -0.9514168 -0.799885 0.09476737
-0.454704 1.2351911 0.037236203 -0.30434623 -0.81464255 0.49454468 0.030863028 -1.2993447
0.020314476 -1.1402471 2.0583603 -0.49312365 -1.0519739 0.066904515 0.07549898 -0.9452742
00000000: 289f f73d b314 ffbb 9e18 7a3d 1fec 31bd
00000010: a911 5abd 87c6 90bf 621a 1c3d 7945 073d
00000020: 3225 a13f efed 0cbf 9414 8bbf 3f37 28be
00000030: 7fe5 d93a 1cef 90bd 6f53 aabf a484 ac3d
00000040: 8be2 d53e 16c2 0ac0 b818 c73c c1a6 6ebf
00000050: 456f bcbc 0f29 0bbf 6539 11bd c237 ab3d
00000060: 032b 0dbf 92cb bdbe 57c5 04bd 39db 273f
00000070: b164 c5be f541 13be b2fd 07bb db53 463b
00000080: a2f0 3e3c f3df 58bf 0879 1a40 e56d 973f
00000090: 6c8c 7dbf 677f 413e f0c2 8b3a 6fdc 0abf
000000a0: 3d4c 523f 41df 26bf 5889 69bd ad5e 8ebe
000000b0: 9ada 2c3f 42d0 dd3f 1ab1 87bc c2a9 093f
000000c0: 343d 30bd db65 a73f 5928 2abf adc4 0b3d
000000d0: 6457 77bf ee34 5b3f bdb7 cfba 006e 6ebf
000000e0: e0e3 9fbd ac77 66bf bb11 99bf 3f4c a93e
000000f0: 0807 8e3c 5ae5 77bf 8dad 273f 6644 72bf
00000100: 7e7d 03bf b95c fa3e 4c81 123b 54e8 7bbf
00000110: 84c4 75bf 0cf0 2540 a989 2b3f 6d6c aa3f
00000120: 23c3 123f cf27 35bf fcb5 88bf e1a6 993d
00000130: 90ac 5cbf 4799 633f 9124 173c f793 ea3f
00000140: 5fef d73e 08d3 ea3c 8056 05bf d8d0 833c
00000150: 1257 4f3d 2b96 043f 9615 a53c 6284 62bf
00000160: e60a e13e 1bb6 cbbf f208 1ebd 2192 9f3e
00000170: bbb8 813c 448f 0a3e 3e6c 0ebf c2c5 88bf
00000180: 9161 febe e4e0 f53f e48a 70bf 0c57 ea3f
00000190: 5e5f df3e 6bdb fcbe 1dfc 79bf ae09 19bd
000001a0: 49c8 e1be f0ff 13bf c341 e43f d2f3 30bf
000001b0: eb5a 6bbf b217 12bf b518 9bbf 4bfe 963d
000001c0: a18d 1bbe 989f a93f cea8 b33d 3ce7 6fbf
000001d0: 8400 6fbe 482b f03d f9bf 5fbd 1268 78bf
000001e0: 5c88 973d 60ab 3fbf 286e 1240 f2cb dcbf
000001f0: 80ca 96bf 4e4f f2bc d883 3b3b f14b 9bbf
00000200: 06a2 54bf 8486 90bd 72d0 b13d 3e68 263c
00000210: 9828 193d 87bb 92bf cdaf 82bd 3746 00bd
00000220: 720e a23e d406 02bf d07e 3dbf 6896 aabe
00000230: e21f 323d 40c4 0f3d 1cc7 93bf 7ce1 3ebf
00000240: 6d39 993c 1fe8 0fbf a6d2 b23d 3dc8 57bf
00000250: 427d 0dbc 823f 5ebf 3b51 833d 80b2 4fbc
00000260: 0aa4 82bf d8c6 10bf 976d 70bc 79f5 403f
00000270: f196 54be 1252 21bf 2d45 483c 293e 523d
00000280: a50b 11bd 7530 3abf 7726 2640 b633 803f
00000290: 68e1 acbf 2d9d 81bf afa6 c93c ab5f 07bf
000002a0: 1cc6 453f bc76 41bf df54 3c3d 510b 20bf
000002b0: f091 b83f 1506 c53f 8bc2 133d f262 f8be
000002c0: 9ff3 5d3e 5597 403f 451a 15bf 7429 383e
000002d0: 58c4 68bf f490 093f f527 bdbc 22d9 54bf
000002e0: 1c3c 4d3d 078c 27bf b135 00bf 049f 91be
000002f0: e649 efbb 47cd 4cbf 7efd f23e 4bd1 45bf
00000300: 12d2 90bf c217 323f d5d4 8fbd 52f3 85bf
00000310: 4f24 2bbf b56d e33f 0ef4 ac3f 64d5 803f
00000320: b2a5 3bbe 1da0 d0be 1917 82bf 73d1 19bd
00000330: ed45 abbe ee57 563f 9060 fb3e b802 e73f
00000340: 288a 493f a9e2 673d 772c debf 7017 413d
00000350: faeb f03b bccc 5f3f 15ae 04bd 2777 63bf
00000360: 1c55 013f 8e00 b0bf 1988 033d b3fe b73f
00000370: 0fb1 7dbd 54c2 d33d c8a1 38bf 516f a0bf
00000380: 0503 88bf 4a3d 0040 5d84 0dbf 35b7 f53f
00000390: 247d 403f ee59 81bf 8846 e2bf 5be0 82bd
000003a0: f9aa 72be fd00 60bf f9a6 c9bd 7b3e 72bf
000003b0: 6aea ddbf 0d90 73bf 43c5 4cbf 6515 c23d
000003c0: f6ce e8be be1a 9e3f fd84 183d 45d3 9bbe
000003d0: 6a8c 50bf f634 fd3e 76d4 fc3c ed50 a6bf
000003e0: 8b6a a63c 9ef3 91bf 2dbc 0340 b47a fcbe
000003f0: 15a7 86bf 3c05 893d 369f 9a3d 7dfd 71bf

out.bias f4 [4]
0.028290974 0.19004345 0.20779288 0.47449458
00000000: 79c2 e73c c09a 423e a8c7 543e f4f0 f23e
