DQN/models/dqn_ep400_20250415_151638.pth (torch, 75580 bytes, 6 tensors)

fc1.weight f4 [128, 8]
00000000: b45d 82bf b735 43bd bc4d 06bf 090e 94be
00000010: 777b ebbd 83f1 31bf e36e 323d 5161 4c3f
00000020: 6a37 fbbe 1363 af3e fe17 97bd 9bad 6d3d
00000030: 935f b3bf bcf7 673f ad64 f8bd 043c c83e
00000040: 673b 47bf 97e3 493e a266 29be 5214 e13c
00000050: 20cc 833f ba64 b93f 986b 143f 4f65 00bf
00000060: d08f 84bf 0f9e fdbd 91ad 97bf caa9 073d
00000070: e5c2 943d 9f04 9fbd 7e3c 903d fea8 b0bf
00000080: 0c85 2a3f 458d a13f dac6 16c0 03d7 d1be
00000090: 5836 fdbe 8473 9f3c d60c 37be 57de e3bd
000000a0: ba9f 05bf 4ac2 2dbf 51ee 44bf 9157 39be
000000b0: c484 923f cd56 7cbf 8d12 0ac0 db5c 713e
000000c0: f6fa bc3f 49c5 97be aaa6 91be 9da2 0abf
000000d0: 11c8 003f 491c 253e c277 a23e 14f6 08bf
000000e0: a188 00c0 ae4d 003f 24a5 79bf 5134 c93e
000000f0: 318f f53e d551 c5bd 4a98 ecbf 0652 1a3e
00000100: 4d89 4e3f c388 23bf 05e6 f13e 1947 f7be
00000110: 8b11 2fbf 7cd7 cbbe b831 b73e a716 fcbe
00000120: 1e64 5dbf 4c80 ffbd a1c7 5abf abfd cc3b
00000130: dc1e b63f ecbe 56bf 5277 debf 60c3 573e
00000140: 8357 353e 54a6 62be 7ba1 0bbd 4723 2a3e
00000150: 868b 60be ac5d fe3d 7a2c 4dbe 2e66 9bbd
00000160: 2d6b fd3e 6e5d c0bf 88e6 54bf 720e ce3f
00000170: 0604 43bf 36e0 82bf ffd2 4d3f 7976 903e
00000180: 3682 013f 0150 5abe 7450 713f c9da 94be
00000190: 9b28 fcbd 9b12 f6bf 9447 0a3d c37d 67bf
000001a0: 654f 5b3f 32f5 0e3e 6170 103e abbb 59be
000001b0: d1c5 66bf 0c50 88bf 89cb 113f 92e8 163f
000001c0: f267 a3bf 187b 98bd 1606 143f 38af b63c
000001d0: 7dae a93d 2e33 923f 0f57 4c3e 30a5 0e3f
000001e0: 419a 00be 7928 063e 3316 adbe 4658 75bf
000001f0: 0313 883d a7b5 553e 96a0 e8be d2f9 64bd
00000200: 5120 763f ebb2 a43d 7bd7 36bc ef96 6dbe
00000210: 88fe b4bf 3a55 06be 071c 0f3e ef73 363f
00000220: df25 02c0 f116 773f 5459 4f3e e80e 8b3e
00000230: e082 0f3c 8e7f 6cbc 9a69 04c0 0040 babe
00000240: b25c f43d 7e32 b3be de27 783e d804 cabd
00000250: 859e d83e 9044 7f3f a5b6 173e b3e8 0abf
00000260: 42e0 a23d 9707 83bd 581a 1bbf 4252 c33a
00000270: d362 d6be 9865 243f cf58 843e 5ba2 8bbe
00000280: bef5 5140 7cb2 e3bd 66ec 6e3f dbb3 c7bd
00000290: df79 43bf aece a0bd a4c2 dcbd b33d 623d
000002a0: 8ef3 64bc f2e7 c1bf 66a7 76be 1d42 fbbf
000002b0: d7aa 5d3d df2f 11bd abb0 96bd b807 dd3e
000002c0: e486 543e c678 f93e d4fb 47bf 5ffa 023f
000002d0: f09e be3f 3a22 153e 35a2 7dbf 1830 73bd
000002e0: 4eab 0dbf 2c1f 2fbf 0c7a 7c3d cd19 0abe
000002f0: 659d ef3e 8298 c1bd 4a22 b03e 2ecb c23e
00000300: bcc2 1a3f 782f 3cbf 359c 7fbf e302 97be
00000310: 14c8 c13f 4bcc 413e 6fac 30bd 2ed2 d6be
00000320: da5f 013f 3a1a 053e 743a b33e 3281 2ebe
00000330: 1ff3 ac3e e569 2bbf 0adb 6fbd d2b8 bdbe
00000340: 80aa c1bf 4c09 a43f 6bf6 e6bd caec 3e3f
00000350: ce9f 5b3e d51b d3bd d5c1 b2bf e80c 32be
00000360: 92be b8be 4ff0 f13d 50ca fe3d 09e3 59bf
00000370: 3856 683f b404 9bbf cf37 02bf 2cd2 533e
00000380: 0606 3f3e 247f 213e 7206 92be 4ebd f0be
00000390: aed9 0c3f a298 a7be db52 80bf ab6d 5c3e
000003a0: 75ee 86bf 252f 3f3f a9e3 9d3e ad89 2fbe
000003b0: 4e29 02bf 5abe 153f e9df 31bf d86a e8be
000003c0: 9da9 a13f df9e 703f 3f23 373f 3ce2 b33f
000003d0: bab4 91be ce3e 74be 2e3f 5f3c 5747 7c3e
000003e0: 87fd b33f 2557 d33e e17f 95be a819 01bf
000003f0: 9622 35bf c77c 613e cb84 cabe 3332 6d3f
-1.0184846 -0.04765865 -0.52462363 -0.28916958 -0.114981584 -0.6950914 0.04356278 0.79835993
-0.49065715 0.34255275 -0.07377623 0.05802689 -1.4013542 0.9061239 -0.121285774 0.39108288
-0.77825016 0.19715725 -0.16543058 0.02747551 1.0296669 1.4483864 0.57976675 -0.50154585
-1.0356388 -0.12383663 -1.1849843 0.033120908 0.07263736 -0.07764553 0.07042788 -1.3801572
0.66609263 1.2621237 -2.355887 -0.40984353 -0.49455523 0.019464262 -0.1787599 -0.11126392
-0.5219685 -0.67874587 -0.7692614 -0.1809981 1.1446767 -0.9856995 -2.1573822 0.23570578
1.4764087 -0.29642704 -0.28447467 -0.5415438 0.5030528 0.16124071 0.31731993 -0.53500485
-2.0083392 0.5011853 -0.9751761 0.39297727 0.4796081 -0.09634749 -1.8483975 0.15070352
0.80678254 -0.63880557 0.47245803 -0.4829643 -0.68386143 -0.3981284 0.3578012 -0.49236032
-0.8648089 -0.124756426 -0.8546086 0.0062558255 1.4228168 -0.83885074 -1.7380164 0.21070623
0.17709164 -0.22133762 -0.034089547 0.1661502 -0.21928224 0.1242021 -0.20036498 -0.075878486
0.4949583 -1.5028512 -0.8316426 1.6098158 -0.76178014 -1.0224674 0.8040008 0.28215387
0.5058931 -0.21319582 0.94263387 -0.2907317 -0.123124324 -1.9224428 0.03375967 -0.9042627
0.8566802 0.13960722 0.14105369 -0.21262996 -0.90145594 -1.0649428 0.56951195 0.58948624
-1.2766097 -0.07445353 0.57821786 0.022300348 0.08285234 1.1421869 0.19955085 0.55720806
-0.12558843 0.13101377 -0.33806 -0.9583782 0.06644251 0.20870076 -0.45435017 -0.05590231
0.9614306 0.080419384 -0.011159773 -0.23202108 -1.4140177 -0.13118449 0.13975535 0.7127065
-2.0335615 0.9651938 0.2024892 0.2715981 0.00875923 -0.014434708 -2.0689454 -0.36376953
0.11931743 -0.3499946 0.24233958 -0.09864205 0.4230844 0.99713993 0.14815767 -0.5426132
0.0795293 -0.06397932 -0.6058707 0.0014901834 -0.41872272 0.6421752 0.25849006 -0.27272305
3.280624 -0.111180276 0.93329465 -0.097511016 -0.76357836 -0.07851921 -0.10779312 0.055234622
-0.013974084 -1.5148909 -0.24087295 -1.9629551 0.054118004 -0.035446044 -0.073579155 0.4316995
0.20754582 0.48724955 -0.78118634 0.51163286 1.4892254 0.14563838 -0.99075633 -0.059372038
-0.55339515 -0.6840694 0.06163983 -0.13486405 0.4679977 -0.09452917 0.3440116 0.3804564
0.6045339 -0.7350993 -0.9984773 -0.2949439 1.5139184 0.18925588 -0.043133195 -0.4195723
0.5053688 0.12998286 0.35005534 -0.17041472 0.33779237 -0.6695846 -0.0585585 -0.3705507
-1.5130157 1.2815337 -0.11277469 0.7458006 0.2144768 -0.10308043 -1.3965403 -0.17387736
-0.36082894 0.11813413 0.12440932 -0.85112053 0.9075656 -1.211081 -0.5086641 0.20685643
0.18654642 0.15771157 -0.28520542 -0.47019428 0.5501965 -0.32733637 -1.0025285 0.2152621
-1.0541521 0.7468131 0.30837753 -0.17142363 -0.50844276 0.5849358 -0.69482285 -0.45394015
1.2629887 0.9399242 0.71538156 1.4053416 -0.28458196 -0.23852083 0.013625903 0.24636589
1.4061745 0.41277424 -0.29199126 -0.50429773 -0.707559 0.22020255 -0.39554438 0.9265472

fc1.bias f4 [128]
00000000: d15a 533e 21a5 f5be 5356 01bf 786c 9cbe
00000010: 4a7c 2c3e e58d f1be 29db 533e 04c5 8fbe
00000020: 55c0 743f ebd6 d6be 7afd c6be 1d1f 4bbd
00000030: 2456 a2be 72aa dabe 092e 1f3f 6b7d 213f
00000040: ce16 69bf 7c59 a23e 7362 ec3e a79c fa3e
00000050: 03b4 41bc 8929 93be f43c 263f 27db a73f
00000060: bc01 2d3f d8f4 b13e b9bb 503e b5f1 72bf
00000070: 03b1 3c3e d63e 053f 5061 563f a040 30be
00000080: d138 52be 28bf 63bf 205b 203e f646 d43e
00000090: de12 88be c83a 173f bdee ae3e 24da 313f
000000a0: 558b 0fbf 62f2 3d3e 2400 b33e 3645 42be
000000b0: d878 8cbf 4863 733e a4e5 81bf 4a5c 5abf
000000c0: 96aa 1d3f eea9 90bd 7fc6 863e 7f1a b53e
000000d0: 4432 57bf e9cc fa3e 2991 3d3e 7a38 cfbe
000000e0: 23a5 0abe c090 81bf 4759 ed3e c5f1 85bf
000000f0: 4546 cf3e 16a1 cd3e 851b c43e be25 17bf
00000100: 4d0b 25bf da4a 323f 908c 60be 88ab bb3e
00000110: df61 373f 827e 17bf 9ce7 093e 49af ba3e
00000120: eb43 e23e f181 fd3e 6605 c8be 4afb a23d
00000130: 8b48 e73d 9454 b63e 2525 00bf d988 423f
00000140: 59a2 1abf 490a 2b3f dee5 5f3e 611d b5bd
00000150: e2ce 49be 5225 b93e 5a85 dfbe 8e1f dcbe
00000160: 4d2b 923d 4d78 a53e f725 1fbf d0af 583e
00000170: 24bb 223f 31d4 c53e 7ab5 9b3e 3bbe 283f
00000180: 4366 c83e 9f2f 36bc 3c29 99bb 550a dc3e
00000190: acf0 9d3e 5eb1 0bbf c464 52be 12ec 903e
000001a0: 6d61 83bf 738c 1f3e 9ff2 e63e 9189 b13e
000001b0: 238d 1a3f 7812 f7be ea9c fe3c 8805 93bd
000001c0: 2e59 1a3e 0b6d 0fbf e0cd 1f3e a7ba 503e
000001d0: 17b4 30bf 8119 793d b09d 54bf 9f2d 83be
000001e0: 00f6 193f 0ad0 953e a426 353e de7c f43e
000001f0: de65 cabe 626e 59bf f6c5 ac3e cd6c d7be
0.20640112 -0.47977546 -0.50522345 -0.30551505 0.16844288 -0.4717857 0.20689072 -0.28079998
0.95605975 -0.41960844 -0.38865262 -0.04959022 -0.31706345 -0.42708164 0.6217962 0.63082
-0.9105042 0.31708896 0.4616886 0.4894764 -0.011822703 -0.28742626 0.6493676 1.3113755
0.6758077 0.34757113 0.2038411 -0.94900066 0.184269 0.52049005 0.8374224 -0.17212152
-0.20529486 -0.88963556 0.15659761 0.4146039 -0.26576895 0.5907407 0.34166518 0.6947348
-0.5607198 0.18549493 0.34961045 -0.18971714 -1.0974379 0.23768342 -1.0148206 -0.8529707
0.6158842 -0.070636615 0.26323316 0.35371777 -0.84061074 0.4898446 0.18512405 -0.40472776
-0.13539557 -1.0122299 0.46357176 -1.0464407 0.404833 0.4016196 0.38302246 -0.59041965
-0.6447037 0.69645464 -0.2192862 0.36654305 0.71633714 -0.5917741 0.13467258 0.36461857
0.44192442 0.495132 -0.3906662 0.07958086 0.11293133 0.35611403 -0.5005668 0.7599006
-0.6040397 0.6681257 0.21865031 -0.08843494 -0.19707826 0.36161286 -0.43656427 -0.42992824
0.07137165 0.32318345 -0.62167305 0.21160817 0.63566804 0.38638452 0.30411893 0.6591527
0.3914052 -0.011119752 -0.004674105 0.42976633 0.3084768 -0.54567516 -0.20546252 0.28305107
-1.0264107 0.15580921 0.4510698 0.34675267 0.6037161 -0.48256278 0.031080682 -0.071787894
0.15073082 -0.5602576 0.15605879 0.20383702 -0.69024795 0.060815338 -0.8305311 -0.25620744
0.6014099 0.29260284 0.17690521 0.47751516 -0.39530843 -0.84934056 0.33744782 -0.42075196

fc2.weight f4 [128, 128]
00000000: 91ba 643b 5c86 9f3e 3245 ba3e 38b1 c2be
00000010: d175 523e f2d1 f93e bda0 fbbe 30b9 c03d
00000020: aa02 89bf 3bb6 c83e 213b 47bd af4a a9bf
00000030: 6d0e eb3e 0802 4c3e 0810 8cbe 635a 1c3e
00000040: b4c1 573e c997 ee3e 0091 c23d 6e17 02be
00000050: 99df 143e ec06 993e f8c9 7ebd 1aca 2b3c
00000060: cc57 033e 40f3 363f 9294 313f 2e35 2e3f
00000070: b28e 013f c0b3 d93e 0013 bc3e 4a9d 6cbe
00000080: d32f a8bd 15ed d23e 33b7 c43d 6fa3 1fbf
00000090: b619 d5be 5f20 ffbd 184f ef3e b0eb 2e3e
000000a0: 69b1 3c3f 7752 cd3e d110 9a3d ec13 cb3e
000000b0: 2e8f 673f 03c8 60bf cf47 8c3f aad5 10bf
000000c0: 677b bd3d 0c3e e63d 3051 b53c 7df0 d2be
000000d0: ef54 a23e ad1a dbbf ce44 bbbe 2e25 c03e
000000e0: 82f2 763e 2e9f 88bd 68bd 8f3e 59c6 3b3f
000000f0: 3b73 013d b40c 93bc f21b 1d3e 09d9 41be
00000100: 9448 503f c2bf c73e 0481 11bf 5dea 0f3e
00000110: 8376 f53e d7c9 433e 8588 f2bd 5822 5fbd
00000120: 528a 8e3d 81d5 223f fecb 183f 13fd 213e
00000130: f63c 62be e650 7f3c 1334 993d c009 203f
00000140: f7cf 4f3f 90a6 0f3f d9d3 7abd ffc1 0c3f
00000150: 69e6 8e3e 2a50 913e 4842 663d ddfe debe
00000160: e088 923e e40e b53e 4e88 983d 3c51 a0be
00000170: 8a3d 82be 39ab 39be 78b4 a83e e49d 543e
00000180: 4c80 93bd c784 40be a70f 913e e2f2 0bbe
00000190: 3a60 543e ef23 07be da91 c33b ddab 483f
000001a0: d5d1 5bbe a42a d4bd acde d23c 768c 763e
000001b0: 4006 d93e d4f0 a63e 2898 b03f ef6f d83d
000001c0: 4b8e 293e b74f f5be 5eab e1bd 5489 4ebf
000001d0: c8ae 413f 0afe edbe c0ab 5abe 9d4a 763f
000001e0: 8a4b 193e b9b5 eb3f 3c21 8cbd 4022 883f
000001f0: 81fa b9bf b571 483f 1abd e23e 38e1 723e
00000200: 6642 98bd e16a 97bd 98ad c9bc e4b7 d73b
00000210: 562f cfbd ba01 65bd ff21 80bd bdc5 adbd
00000220: b331 063d 836a 04bb 1c01 8cbd 40aa 80bd
00000230: 86b5 4abd 18ee d0bd 20b5 92bd c713 d3bc
00000240: 3746 813c f932 86bd 0609 9abc 8595 803c
00000250: ad1c be3b b838 0abc 2f02 483d f4a3 66bd
00000260: ac28 78bc 38fb 433d 3ef1 483d 7e26 d3bd
00000270: a40a b0bd 0cff 293c d543 b2bd 1cad 3cbd
00000280: f948 afbd e51b c1bc e782 cdbd ed38 1bbd
00000290: 43a3 9dbd b0a9 ebbc fce0 bdbd bd95 373d
000002a0: e172 68bd 29ac 65bd f4f5 50bd f593 f9bc
000002b0: 7378 92ba 4d6c 323c 5115 b7bd 53d0 0ebd
000002c0: 9dfd 453d 7728 8e3c 12af e23c 9ce9 a4bd
000002d0: ca9f 8d3d fa45 873c 4a37 c53c a77a 833d
000002e0: 2fee 813d 790a f43b 58e5 e03c 02c2 9abc
000002f0: 60c8 95ba 60e0 383b a4b2 c8bd 29f9 a53b
00000300: 2861 2f3c 9a87 c43b e5c7 143d 40ed a63d
00000310: 93ea 1fbd eac0 25bd fe65 c4bc 0f9f babd
00000320: 1bbc 803d 883b 30ba f750 b13c fdfb 08bd
00000330: 7b38 ac3b ebd8 893c 9720 b4bc efe4 5d3d
00000340: f50e b3bc fe71 5f3d 9d7c 68bd 08b4 633d
00000350: 83eb 87bb 68e5 5ebd 897b e53c 4d73 34bc
00000360: a27a bdbb ce45 93bc 171c c3bc 0486 b5bd
00000370: aef5 8ebd 515d 5fbd 5d70 923c e462 8a3c
00000380: b855 5abd 8354 40bd b892 71bd 62c6 f5bc
00000390: 4e78 78bc d5b6 62bd 7184 2f3d e389 c9bd
000003a0: cdaa 613d 7005 93bd e08c 10bd 0a56 bf3c
000003b0: c319 16bd 0e5e 753d b6a4 8ebd 4afa 8bbd
000003c0: c59c 59bc cc07 80bd c044 56bc ae96 81ba
000003d0: 7546 38bd 0b3a 0c3c 0734 fabc 7963 a9bd
000003e0: 8cf2 843c a073 fabc e402 7c3d 3794 c83c
000003f0: 9bab a23d af18 433d 96a0 b6bd d4ec b1bd
0.0034901241 0.31157196 0.36380917 -0.38025832 0.20552756 0.48792988 -0.4914607 0.09410322
-1.0703938 0.3920153 -0.048640374 -1.3225917 0.45909443 0.1992265 -0.2735598 0.15268855
0.21069986 0.46600178 0.09500313 -0.1270425 0.1453842 0.29888093 -0.06220433 0.0104851965
0.1282646 0.7146492 0.69367325 0.68049896 0.5060836 0.4251995 0.36733246 -0.23106876
-0.08212247 0.41196504 0.09605255 -0.62358755 -0.41621178 -0.12457346 0.4674003 0.17082095
0.73708206 0.40101978 0.07522739 0.39663637 0.9045285 -0.87805194 1.0959414 -0.56576025
0.09252053 0.11242303 0.02213344 -0.41199103 0.31705424 -1.7117516 -0.3657593 0.37528366
0.24115947 -0.06670986 0.28074193 0.7334953 0.031604033 -0.017950393 0.15342692 -0.18930449
0.81360745 0.39013487 -0.5683749 0.14054246 0.4794198 0.19119965 -0.11842445 -0.054476112
0.06959976 0.6360703 0.5968627 0.15819196 -0.22093567 0.0155832525 0.074806355 0.6251488
0.81176704 0.5611353 -0.06123719 0.54983515 0.27910164 0.28381473 0.056215554 -0.4355382
0.28620052 0.35362923 0.07447873 -0.31311977 -0.25437576 -0.18131723 0.32950187 0.20763355
-0.07202205 -0.1880065 0.28332254 -0.13666871 0.20739833 -0.13197301 0.0059683146 0.7838724
-0.21466763 -0.103596956 0.025740944 0.24077019 0.4238758 0.32605612 1.3796434 0.10568225
0.16558187 -0.4791238 -0.11019014 -0.80678296 0.7565732 -0.4648288 -0.2135458 0.962076
0.14970222 1.8414832 -0.068422765 1.0635452 -1.4529573 0.78298503 0.44284898 0.23718727
-0.074345395 -0.073934324 -0.024618909 0.006583201 -0.101164505 -0.05590985 -0.06256484 -0.08484981
0.03276224 -0.0020205087 -0.06836149 -0.062824726 -0.04948952 -0.10201663 -0.07163453 -0.025766267
0.015780551 -0.06552691 -0.01880313 0.015696296 0.0058017583 -0.008436374 0.048830207 -0.0563087
-0.015146416 0.047847003 0.04905819 -0.10310076 -0.085957795 0.010375749 -0.08704344 -0.046063527
-0.0855884 -0.023572871 -0.10034733 -0.037896086 -0.07697155 -0.028767437 -0.09271428 0.044820536
-0.056750182 -0.056072388 -0.05101581 -0.03046606 -0.0011174813 0.010890079 -0.08939613 -0.034866642
0.048337568 0.01735328 0.02767137 -0.0805237 0.06915243 0.01651286 0.024074215 0.064198785
0.06344258 0.0074475375 0.02745311 -0.018891338 -0.0011427514 0.002820991 -0.09799698 0.0050651026
0.010704316 0.0059976103 0.036323447 0.081507206 -0.039042067 -0.04046718 -0.023974415 -0.09112369
0.06285878 -0.0006722738 0.021645052 -0.03344344 0.0052557564 0.016827067 -0.021988196 0.054173406
-0.021857718 0.05455207 -0.056759465 0.055591613 -0.004147948 -0.054417998 0.028013008 -0.011013818
-0.0057824412 -0.017977621 -0.023817105 -0.08863452 -0.069804534 -0.054532353 0.017875845 0.016892858
-0.053304404 -0.046955597 -0.058977813 -0.030001823 -0.015165402 -0.055350143 0.042850915 -0.09840753
0.05509453 -0.071787715 -0.0352906 0.023356456 -0.036645662 0.05990415 -0.0696501 -0.06834848
-0.013282006 -0.06251487 -0.013077915 -0.0009886825 -0.044989068 0.00855876 -0.030542387 -0.08270926
0.016228937 -0.030572712 0.061526194 0.024484737 0.079428874 0.047630962 -0.08917348 -0.086877495

fc2.bias f4 [128]
00000000: 4654 41bd 3847 a03c 028a 80bc de54 33bd
00000010: c439 4bbc 79b4 a63d b9ed d7bd 738c 823e
00000020: c42d 9e3c 922d eebd 866c 21be c468 9cbd
00000030: 19ac e73d 4590 c2bd a2fb 113d 474d 423d
00000040: f572 24be 50c7 373e 39a9 7abb 98b3 bf3d
00000050: d04f 7fbd c99e a13e 340a cdbc 548c 37be
00000060: 1164 42bd 4e8a c3bd 99bf c63d e11a 0fbd
00000070: 132b af3e 94b3 493e ba70 893d 1844 3b3d
00000080: 63d3 3d3f e408 07be 15ad e3bd 8c53 e1bd
00000090: b4b0 2e3d c469 a8bd 162b 2fbe 0a55 82bd
000000a0: 0d0a 8a3d f575 a9bd ee8d 00be ef5c 2f3d
000000b0: 5a50 2bbc ce40 853e a178 9abd 0ab6 923e
000000c0: 8f4b 73bc 3003 4c3f 20ba 62bc 2410 aebd
000000d0: f264 de3d 3eba aebd 3b17 393b 9359 493e
000000e0: 7e8a 04bd ee9c 3b3f 5b39 39bd fb2c 613f
000000f0: 7a2d 14bc 2401 933e af42 83bb 6f95 ad3c
00000100: c61a c3bd 2d95 85bd bb67 4c3c 3781 dabd
00000110: 4798 c0bd b4e5 d6bd ef23 263d e2d7 34bd
00000120: d3d9 0dbe b388 30be 08c1 243f f409 113e
00000130: 1c6f 25bc 077f 62bd 3dac b9bd d9c4 6ebe
00000140: e305 c9bd bd78 c3bc 4edd 28be 500b 1e3d
00000150: b928 963b cc2f 9e3c 2b1e dbbc 92d5 0fbd
00000160: a4a4 8abe cc75 8f3c 2f5c 3abe 5293 f63e
00000170: 2508 11be 9123 8cbd c6c9 f0bb 1612 19bc
00000180: 7b07 1cbe 975b 383f 3cff 92be 0567 a8bd
00000190: 4153 2cbe ff73 993d 3cc4 d1bc 5b13 45be
000001a0: 49ef eebd d1e6 06bd 1292 89bd 7df7 d8bd
000001b0: f1dd 68be 8481 92bd 1f9b 5d3d 4bd8 6abe
000001c0: b78e 4f3e 9ad6 debd e1a1 46bd 469a 863e
000001d0: 936c c23e 516a 06be 490a 86bd 2f1f 75bd
000001e0: fe1b c83b 1440 ce3c 5a28 6fbe a5ec 4abe
000001f0: 915b 973e 41a0 283e f9b4 7a3f c880 c83e
-0.04719951 0.01956521 -0.015690807 -0.043782108 -0.012403909 0.08139891 -0.10543389 0.2549778
0.019308932 -0.116297856 -0.15764055 -0.0763717 0.11312122 -0.095001735 0.035640366 0.04743698
-0.16059478 0.17947125 -0.0038247837 0.09360427 -0.062331975 0.31566456 -0.02502928 -0.17924625
-0.047458712 -0.09547864 0.09704513 -0.034937743 0.3421255 0.1969741 0.06710954 0.045719236
0.74150676 -0.13186985 -0.11116997 -0.110022634 0.042648986 -0.08223298 -0.1710628 -0.06363876
0.06740198 -0.08274452 -0.12554142 0.042813238 -0.010456169 0.26026005 -0.075425394 0.2865451
-0.014849558 0.79692364 -0.013838321 -0.08499172 0.108590975 -0.08531617 0.0028242606 0.19663076
-0.03235864 0.7328633 -0.045220714 0.8795926 -0.009044046 0.28711808 -0.004005752 0.02118942
-0.09526591 -0.06522594 0.012475903 -0.10669177 -0.094040446 -0.10493031 0.040561613 -0.044151194
-0.13852625 -0.17239647 0.6435704 0.14163953 -0.010097291 -0.055296924 -0.09066055 -0.23317279
-0.09815576 -0.023861283 -0.16490671 0.038585007 0.0045824912 0.0193099 -0.026747784 -0.035115786
-0.27078736 0.017512225 -0.18199228 0.4815927 -0.14163263 -0.06842721 -0.007348272 -0.009342691
-0.15237229 0.72014755 -0.28710353 -0.082227744 -0.16828634 0.074928276 -0.025606267 -0.19245665
-0.11666734 -0.032934967 -0.06717314 -0.1059408 -0.22740914 -0.071536094 0.054103013 -0.22934072
0.20269285 -0.10880776 -0.048494224 0.26289576 0.3797346 -0.13126494 -0.065449305 -0.059844192
0.0061068526 0.02517704 -0.23355237 -0.19816835 0.29562047 0.16467382 0.9793239 0.39160752

out.weight f4 [4, 128]
00000000: b63f 853d 1c80 7d3d cef5 5fbf 93f0 86bf
00000010: f97b c03c c1d2 0ebf 0c73 40bf 22d6 f2bf
00000020: 9fc8 87bf e478 863d 1396 ebbe 62b5 f8bc
00000030: 02fa 84bf cb82 78bc 9170 723c daae 38bd
00000040: 39ee 7abf fd8e 21bf 1975 a1be 76f6 14bf
00000050: 3756 bfbd da30 ac3b 5f56 44bd 4ffb 8ebf
00000060: d1dd 72bf a7d5 28bf 4b2a dbbe 9114 a8bc
00000070: 0585 253f 7341 d1bf 1920 33bf ddad 8dbd
00000080: 14bd 9d3f 52e2 7abd 4c11 d6be 9ba8 9bbc
00000090: d0de bc3e 5b5b 19bf 0210 04be b150 19bf
000000a0: 858e 35bb 9cce 223d 9b7c d6bd 17c6 68bf
000000b0: 3c28 78be b6fe 29bf 1c48 33be 6e61 f53f
000000c0: acdb 8bbf 89de d33f 6f71 30bf 8751 6e3c
000000d0: fcc0 45bf 7a27 aa3f e053 4f3d 6322 2ebf
000000e0: 34ca 013d 1fa3 a83f 748e 53bf 682f cd3f
000000f0: 1a53 0cbc 8249 67bf 9893 febe df9e ddbe
00000100: 3f8f dabe 5945 443d af0e 74bc 5c6f b8be
00000110: c166 78bf 7785 663c e11c 93be 2497 023d
00000120: bf79 8dbd 0dfb 4f3f fe6a 1440 4d57 12bf
00000130: 1e84 09bd 3383 a43d 743c a33d f4b7 dfbe
00000140: 6e88 4abd d92d bfbe cd4e 893d 539e 45bf
00000150: 9a19 f13c 14f7 b43d 6467 dfbc 5eac 233c
00000160: ccd5 8dbe 00d5 53bd 8d75 9b3f f319 b73f
00000170: 2a14 9abf 8122 7d3d c489 96be 4536 01bf
00000180: da42 6fbf 2e6b b43f 871a 15bf 3ce1 b1bf
00000190: e086 d7be 2502 be3d 6fd5 05bf 81c0 6abe
000001a0: 10f7 d7be 5586 3a3d bbc6 5ebf 8e9c bebf
000001b0: 9625 ce3d 513a 963d 48ed 213f 5377 b33f
000001c0: 71ec 83bf 96d9 55bd c3d9 e43c e088 843f
000001d0: 30ab 0d40 415c 90bc f37d 1dbf 36fc 8c3e
000001e0: 569a bc3c a870 74bf 0614 06bf 26e3 fabe
000001f0: caf1 6c3f aa70 bcbe 7927 3640 67dc 243f
00000200: 2532 58bf bc4a 823d a3b7 15bf 52d9 65bf
00000210: 804e 9d3d 2dc7 fbbe f468 14bf 25ba 2dc0
00000220: 8a38 f93e a633 68bd 1395 743c 6461 593c
00000230: 8cdc b7bf 5aa0 47bd 2b92 783c 83c2 033d
00000240: ef07 f3be 4caa 6dbf 7ed0 3ebf 4567 21bf
00000250: caab 8ebc 8dc3 2d3e cf4f 27bd d32e 67bf
00000260: 303b 31bf 80a1 333c 035b d7be d8a9 a03d
00000270: 517e 0340 95c7 c5bf 86ea 57be df24 6b3d
00000280: 5253 1440 4332 5a3c 6de0 f7be 891d 2ebb
00000290: 5754 bf3d 5c43 88be 4afe 9f3b c3bb 0bbf
000002a0: 7f43 853d a552 d8bb 6003 81be 1b50 4dbf
000002b0: 1b3e c2be 9400 9bbf a2e6 28bf a99a c03f
000002c0: 3871 efbe ae48 0d40 0178 8fbf 8c2f f1bc
000002d0: 7fb9 0dbf 0b56 da3f 28fc 40bc 3dae 84bf
000002e0: 2a99 633b f717 89bc b66c f9be f70f 0840
000002f0: 4cf6 ca3c 220b 77bf 2561 13be 7a32 b7be
00000300: f205 09bf 42ca 8c3d c889 2bbd 2edd 9abe
00000310: 92db 1abd 2537 483c 9f1c 0ebf 6b72 6b3d
00000320: ed27 4f3d 07b7 1440 f87d 953f 1dc3 c53f
00000330: dbff 203d f5e3 64bd e416 373c 53f3 4fbf
00000340: a25e a6bc f848 68bf d69b d0be 439d 51bf
00000350: 89bd 553d 6994 22bc 1450 38ba 06ca 443d
00000360: 8a57 5fbe a2dd 89bd 0a16 acbe cd9d 2940
00000370: f035 a0be 44ab 3abd 3beb e4be b926 1abf
00000380: 9b70 18bf 53a8 0e40 6d3c afbf 0865 f6be
00000390: 40c9 f0be 8b16 07bf a67d 87be 86d0 a5be
000003a0: 8095 f1be 5271 85bd e7ba 39bf c85a a5bf
000003b0: 9c81 c3bd b6ab 1cbd a7b1 ef3e 2b4c e53f
000003c0: 23a4 073f 1ed3 3abc 9534 c43c e462 5abe
000003d0: a30e b03f 353d 9e3d 7cce 0dbf 2aeb 0ec0
000003e0: e2b6 4bbd 5b0d 40bf 1cea 69be 0c37 81be
000003f0: 17d9 c83f b42b 42bf dca6 1940 2049 4d3e
0.065062925 0.061889753 -0.87484443 -1.0542167 0.023496615 -0.55790335 -0.7517555 -1.8971598
-1.06081 0.06566027 -0.46012935 -0.030359928 -1.0388796 -0.015167902 0.014797346 -0.045088626
-0.9801975 -0.6310881 -0.3153465 -0.5818857 -0.09342616 0.005254847 -0.047933932 -1.1170443
-0.94869715 -0.6595101 -0.42805704 -0.02051762 0.64656097 -1.6348099 -0.6997085 -0.069179274
1.2323327 -0.061250992 -0.4181007 -0.019001296 0.36888742 -0.5990502 -0.12896731 -0.5988875
-0.0027703356 0.03974782 -0.10472985 -0.9092726 -0.24234098 -0.66404283 -0.17507976 1.9170358
-1.0926414 1.6552287 -0.68923086 0.014545805 -0.77247596 1.3293297 0.0506171 -0.6802122
0.031686977 1.3174781 -0.8263924 1.6030092 -0.008564735 -0.9034654 -0.4972198 -0.43285272
-0.42687413 0.047917698 -0.014896079 -0.3602246 -0.9703179 0.014069906 -0.2873297 0.03188242
-0.06907987 0.8124245 2.3190303 -0.5716446 -0.033573262 0.08032837 0.07970515 -0.43695033
-0.049446516 -0.37339666 0.06704483 -0.7719471 0.029431153 0.08836189 -0.02727098 0.009989826
-0.27702177 -0.051716805 1.2145249 1.4304794 -1.2037404 0.061800484 -0.29401982 -0.50473434
-0.9346138 1.4095209 -0.582436 -1.3896861 -0.4209509 0.09277753 -0.522788 -0.22924997
-0.4218068 0.045538265 -0.8702199 -1.4891527 0.10065763 0.07335342 0.6325269 1.402079
-1.0306531 -0.05220946 0.027935868 1.0354271 2.2135735 -0.017622115 -0.6152031 0.27536172
0.023022812 -0.954844 -0.52374303 -0.49001426 0.9255644 -0.36804706 2.8461592 0.6439881
-0.84451514 0.06361911 -0.5848333 -0.8978473 0.07680988 -0.49175397 -0.57972646 -2.7144864
0.48675948 -0.05668988 0.01492812 0.013267849 -1.436418 -0.048736908 0.015171568 0.032167923
-0.4746699 -0.9283798 -0.74536884 -0.630482 -0.0174159 0.16969128 -0.040847596 -0.90305823
-0.6923094 0.010963798 -0.42061624 0.07844895 2.0545847 -1.5451533 -0.21085557 0.05740821
2.3175855 0.013317647 -0.4841341 -0.0026567897 0.093422584 -0.2661389 0.0048826085 -0.54583377
0.065070145 -0.006601649 -0.25197887 -0.80200356 -0.37938008 -1.2109551 -0.6597692 1.5047199
-0.46766067 2.207561 -1.1208497 -0.029441617 -0.5536117 1.7057508 -0.011778869 -1.0365673
0.0034728744 -0.01673506 -0.48715752 2.1259744 0.024775647 -0.9650136 -0.14392526 -0.35780698
-0.53524697 0.06874515 -0.041879445 -0.30246872 -0.037807055 0.012220179 -0.5551242 0.057482164
0.050575186 2.323671 1.1679068 1.5450169 0.039306503 -0.05588146 0.011174891 -0.8123066
-0.020308796 -0.9073634 -0.40743893 -0.8188059 0.052182708 -0.009923079 -0.00070309755 0.048044227
-0.21810737 -0.06731726 -0.33610564 2.6502564 -0.3129115 -0.045573488 -0.44710717 -0.60215336
-0.5954682 2.2290237 -1.3690315 -0.48123956 -0.47028542 -0.5276877 -0.2646305 -0.32385653
-0.47184372 -0.06515755 -0.72550815 -1.2918329 -0.095462054 -0.038249694 0.46815225 1.791387
0.5298483 -0.011402873 0.023950854 -0.21326786 1.3754467 0.07726518 -0.55393195 -2.2331033
-0.049734958 -0.7502038 -0.22843212 -0.2523731 1.569125 -0.75847936 2.4008093 0.20047426

out.bias f4 [4]
00000000: 1e71 bc3e cad5 2e3e a49d 6c3e 7631 0b3d
0.36805052 0.17073742 0.2310701 0.033982717
